python/mod/re/3/modqig_seg2st1ss2niceseetrace15161718.pth (torch, 133711 bytes, 8 tensors)

weight f4 [120, 14]
0	0x3ce61c09	0.02808954
1	0xbec14cd0	-0.37753916
2	0x3e275a3b	0.16343014
3	0x3f1d28b4	0.61390233
4	0xbf04e9f8	-0.5191951
5	0xbd23eb5b	-0.040019374
6	0x3edddfeb	0.43334898
7	0x3f0e5f61	0.55614287
8	0x3db5e7eb	0.088821255
9	0x3f0dd903	0.5540926
10	0xbe7836a6	-0.24239597
11	0xbf01034d	-0.5039566
12	0x3ef1500f	0.47131392
13	0x3e40004e	0.18750116
14	0x3e1c765b	0.15279524
15	0xbdd0cc15	-0.101951756
16	0x3e002032	0.12512282
17	0x3e6c4fc8	0.23077309
18	0x3c958d84	0.018255956
19	0x3ce739ad	0.028225744
20	0xbe0b8f68	-0.13628924
21	0x3ed8f03b	0.4237078
22	0xbef51266	-0.478656
23	0x3ed86620	0.42265415
24	0x3dd49f9f	0.10382008
25	0x3e52784f	0.20553707
26	0x3fa623e5	1.2979704
27	0xbe4aa02f	-0.19787668
28	0x3ea07ec4	0.31346714
29	0x3df88ea2	0.1213658
30	0xbe53b1b1	-0.20673253
31	0xbe41efcf	-0.18939136
32	0xbec247ed	-0.379455
33	0xbe74bf12	-0.23901013
34	0x3f6e69f6	0.93130434
35	0xbf02b1a6	-0.5105232
36	0x3dee2315	0.11627785
37	0xbf072208	-0.527863
38	0x3e53fcd0	0.20701909
39	0xbe383ce6	-0.17991981
40	0x3cbb0f66	0.022834491
41	0x3eba949f	0.36441514
42	0xbdd30377	-0.10303395
43	0x3d7c66a3	0.06162132
44	0x3ddd2304	0.10797694
45	0xbb6a618e	-0.0035763714
46	0x3cc0d6fe	0.023540016
47	0xbe242118	-0.1602825
48	0xbc2d8c08	-0.010592468
49	0xbdb530c7	-0.08847194
50	0xbd73287d	-0.059364785
51	0xbe007066	-0.12542877
52	0x3deb43dc	0.114875525
53	0x3e6be441	0.2303629
54	0x3d30369f	0.04302084
55	0xbd83cda5	-0.06435708
56	0xbe62f259	-0.22162761
57	0x3de07c0d	0.10961161
58	0x3ec31a42	0.3810597
59	0xbf07a5df	-0.52987474
60	0x3f153bd1	0.582944
61	0xbf5a3ede	-0.8525218
62	0xbe419b8a	-0.1890699
63	0xbec1c1c9	-0.3784316
64	0xbed921a4	-0.42408478
65	0x3da5a3dd	0.08087895
66	0x3f22b1a7	0.63552326
67	0xbeb807af	-0.35943362
68	0xbfcf3848	-1.6189051
69	0x3f4f5e70	0.81003475
70	0xbe0b326d	-0.13593455
71	0xbc33adaa	-0.010966698
72	0x3e1696ac	0.14705914
73	0x3cd2434a	0.025666852
74	0x3f1075c5	0.564297
75	0xbec132de	-0.3773412
76	0x3e76573d	0.24056716
77	0xbda6da23	-0.08147075
78	0xbf0a6a8e	-0.5406884
79	0x3f2149ce	0.6300324
80	0xbea7baa1	-0.32759574
81	0x3e652e56	0.22380957
82	0xbe029e7f	-0.12755774
83	0xbe9bc15d	-0.30420962
84	0xbdac8331	-0.0842346
85	0x3e3b61c8	0.1829902
86	0x3ee3ca6b	0.4449037
87	0xbec27a07	-0.37983724
88	0x3e16ce9d	0.14727254
89	0xbf67d3ae	-0.9055737
90	0x3ec839a4	0.39106476
91	0xbeaf0ebe	-0.34190935
92	0xbed79b9f	-0.42110917
93	0xbf4ee34f	-0.80815595
94	0xbf5490d1	-0.8303347
95	0x3f01e632	0.50741875
96	0x3f1a0c3b	0.6017491
97	0x3faa2b03	1.3294376
98	0xbd408950	-0.04700595
99	0x3ddf7930	0.109117866
100	0x3ced66e0	0.028979719
101	0xbdab55f6	-0.08366005
102	0x3d747c68	0.059688956
103	0xbe289c89	-0.16465963
104	0x3b276b00	0.0025545955
105	0x3dbf41c8	0.09338719
106	0x3e6cf690	0.23140931
107	0x3d59b928	0.053155094
108	0x3a9e8100	0.0012092888
109	0x3cb44cc0	0.022009254
110	0x3e216d42	0.15764335
111	0xbdb85626	-0.090008065
112	0x3bd5c4ee	0.00652372
113	0xbecd7f27	-0.40136072
114	0x3dbcc79d	0.09217761
115	0xbedbc0ef	-0.42920634
116	0x3f3640a5	0.7119239
117	0xbd893d1f	-0.06701111
118	0x3e8b095d	0.2715558
119	0x3ec2da37	0.3805711
120	0xbe4e1c9a	-0.20128098
121	0xbf0cb938	-0.5497012
122	0xbf6ab1fc	-0.9167783
123	0x3ee89cff	0.4543228
124	0xbe821da1	-0.2541323
125	0x3e73dc45	0.23814495
126	0xbd64ab34	-0.055827335
127	0xbeec7bd5	-0.46188226
128	0xbe8af73d	-0.27141753
129	0x3ef3f8f8	0.47650886
130	0xbeac1958	-0.33613086
131	0x3ee71ea7	0.45140573
132	0xbe6bc25a	-0.23023358
133	0x3d8c76f6	0.068586275
134	0x3d88a10c	0.06671342
135	0xbeaab788	-0.33343148
136	0xbeedbbce	-0.46432346
137	0xbdf1f127	-0.11813574
138	0x3f971762	1.1804011
139	0x3f47b7c3	0.78014773
140	0x3f017c63	0.50580424
141	0xbe8df4fd	-0.27725974
142	0xbeeba238	-0.460222
143	0x3ee4aef7	0.44664738
144	0x3ed24411	0.41067556
145	0xbf11c670	-0.56943417
146	0xbef09fa7	-0.46996805
147	0xbe9aa7d4	-0.30206168
148	0x3f2c1e81	0.67234045
149	0x3e08b093	0.13348608
150	0xbe514a81	-0.20438577
151	0x3f2e9920	0.682024
152	0x3e59200b	0.2120363
153	0xbcc2c33b	-0.023774734
154	0x3e01fe2f	0.1269462
155	0xbdd31e66	-0.103085324
156	0x3d0273bd	0.031848658
157	0x3f805794	1.0026727
158	0x3e6b7b0d	0.22996159
159	0x3e5b3a75	0.21409018
160	0xbe93cda3	-0.28867826
161	0xbedb297d	-0.4280509
162	0x3f9459fa	1.1589959
163	0x3e8e8182	0.27833182
164	0x3e512d34	0.204274
165	0xbe40039b	-0.18751375
166	0x3f31ddd5	0.69479114
167	0xbe781d99	-0.2423004
168	0xbef223a9	-0.47292832
169	0x3d1a9f16	0.037749372
170	0x3f05bc36	0.5224031
171	0x3ea42525	0.3205959
172	0xbdef03e9	-0.11670668
173	0x3d702bd8	0.058635563
174	0xbe4d7240	-0.20063114
175	0xbf02b07a	-0.5105053
176	0xbf07c4ed	-0.5303486
177	0x3d9fc820	0.07801843
178	0xbe377ff6	-0.17919907
179	0x3e6e2006	0.23254403
180	0x3e0229b6	0.12711224
181	0xbebabcc8	-0.36472154
182	0x3ec2a6d4	0.38017905
183	0xbe5a713a	-0.21332255
184	0x3f1b7473	0.6072456
185	0x3e17f9ab	0.14841335
186	0xbdff877f	-0.12477016
187	0xbe2cf909	-0.16891874
188	0xbe543e14	-0.20726806
189	0xbe0c853b	-0.13722698
190	0xbf119c35	-0.5687898
191	0xbe50e81a	-0.2040104
192	0xbddf82cd	-0.1091362
193	0xbf1567d9	-0.58361584
194	0xbebaf57c	-0.36515415
195	0xbe968bde	-0.29403585
196	0xbe0416f5	-0.12899382
197	0x3c3d618b	0.011558901
198	0x3e196372	0.14979342
199	0xbeae3aac	-0.34029138
200	0xbe68cb1a	-0.22733727
201	0xbeff554e	-0.4986977
202	0x3f2d02a3	0.6758215
203	0xbebccb5b	-0.36873898
204	0xbf352ea4	-0.7077429
205	0xbe4ad805	-0.19808967
206	0xbf6b9caa	-0.92035925
207	0x3e11f44f	0.14253353
208	0xbf000a1f	-0.50015444
209	0x3f3e147d	0.7425001
210	0xbe8dab35	-0.27669683
211	0xbe0f43e4	-0.13990742
212	0xbeabbc6c	-0.33542192
213	0x3d99fc4b	0.07518824
214	0xbe6bd181	-0.23029138
215	0x3ef8feb3	0.4863182
216	0x3eaabf78	0.33349204
217	0xbf4d05df	-0.80087084
218	0x3d3f3ab1	0.04668683
219	0xbcf6ac95	-0.03011159
220	0xbf01a327	-0.50639576
221	0xbdf30e30	-0.118679404
222	0xbea4eaee	-0.32210487
223	0x3f1eb4dc	0.6199472
224	0x3c31c97a	0.010851258
225	0x3e6fc705	0.23415764
226	0xbe26461d	-0.16237684
227	0xbde6df2c	-0.112730354
228	0x3eb03f48	0.3442328
229	0x3d814ff4	0.06314078
230	0xbe8faf54	-0.28063452
231	0x3e9e0de6	0.3086998
232	0xbf233e6c	-0.63767123
233	0x3da13439	0.07871289
234	0xbf0cb4bf	-0.54963297
235	0x3e12e4a1	0.14345028
236	0xbe3fb3be	-0.1872091
237	0xbf47811d	-0.77931386
238	0x3e385832	0.18002394
239	0x3ee95908	0.45575738
240	0x3e80a2bc	0.25124156
241	0xbe2cf0b3	-0.16888694
242	0x3e036742	0.12832358
243	0x3f09e3db	0.53863305
244	0x3ecb51ab	0.39710745
245	0xbed3e7e7	-0.41387865
246	0x3e407998	0.18796384
247	0xbe87fa63	-0.26558217
248	0x3e1d553c	0.15364546
249	0xbf0a2762	-0.53966343
250	0xbe88b892	-0.26703316
251	0x3ec55237	0.38539287
252	0xbefb84fb	-0.49124894
253	0x3d723ebe	0.059141867
254	0xbe5c385b	-0.21505873
255	0x3eac22bd	0.33620253

bias f4 [120]
0	0x3e58d475	0.21174796
1	0x3dd04b3b	0.10170599
2	0x3d9489cd	0.07252846
3	0xbe6c6125	-0.23083933
4	0x3e435778	0.19076335
5	0x3e549dcd	0.20763321
6	0xbe06e15f	-0.1317191
7	0xbe4f38b5	-0.20236476
8	0x3e4d308d	0.20038052
9	0x3e853763	0.2601882
10	0xbe3cecab	-0.18449657
11	0x3e92605a	0.28589135
12	0xbe73e2e6	-0.23817024
13	0xbe31f10d	-0.1737711
14	0x3b54c3e1	0.0032465386
15	0x3deb36cb	0.1148506
16	0x3e5e356a	0.21700063
17	0xbdd48587	-0.10377031
18	0xbdc153a1	-0.09439779
19	0x3e0312d6	0.12800154
20	0x3e0059da	0.12534276
21	0x3eac71e4	0.33680642
22	0xbdd5ef8f	-0.10446083
23	0xbc510692	-0.012757914
24	0xbe87781a	-0.26458818
25	0x3c2dd8b2	0.010610746
26	0xbcffbfd3	-0.031219399
27	0xbe5b758c	-0.2143156
28	0xbe4a2dce	-0.19744036
29	0x3e32ae4f	0.17449306
30	0x3e496138	0.19665992
31	0xbe33b584	-0.17549711
32	0xbe06387f	-0.13107489
33	0x3dffb18e	0.12485038
34	0xbd324fd7	-0.043533172
35	0x3e053fef	0.1301267
36	0x3ec01ce4	0.37522042
37	0x3e67afca	0.22625652
38	0x3e1f29f6	0.1554335
39	0x3b8a789c	0.0042258035
40	0xbe71635c	-0.23573059
41	0x3e6b013b	0.22949688
42	0x3e3d8018	0.18505895
43	0x3d4c58e5	0.049889464
44	0x3cd954d7	0.026529713
45	0x37b6517d	2.1734037e-05
46	0x3e0da166	0.138311
47	0x3c8e41cd	0.01736536
48	0x3e090813	0.13381986
49	0x3e290a9c	0.16507953
50	0xbe51c515	-0.20485337
51	0x3d2f0e25	0.0427381
52	0xbcad2fa1	-0.021140875
53	0x3e94b8f9	0.29047373
54	0x3e859fdc	0.26098526
55	0x3df21b26	0.118215844
56	0x3ddc9783	0.10771086
57	0xbcbb8dfb	-0.02289485
58	0x3e817ef7	0.2529218
59	0x3de6d055	0.11270205
60	0xbd41d0fa	-0.047318436
61	0x3dd44713	0.10365119
62	0x3ea26fa6	0.31725806
63	0x3d20f7f4	0.039298967
64	0xbc46cfb5	-0.012134482
65	0xbbc3c378	-0.0059742294
66	0x3d68809a	0.05676327
67	0xbccb5cb2	-0.024824474
68	0x3e1fb84c	0.15597647
69	0xbe137d94	-0.14403373
70	0x3d38edae	0.045148544
71	0x3e3e57c2	0.18588164
72	0x3e35ee68	0.17766726
73	0x3cc946c7	0.024569882
74	0xbccb3e0f	-0.024809865
75	0x3e74ded0	0.23913121
76	0x3cc0efc0	0.023551822
77	0x3e656835	0.22403033
78	0xbd66a535	-0.056309897
79	0xbe03bb69	-0.1286446
80	0x3e2f75df	0.17134808
81	0x3e6e26c0	0.2325697
82	0xbe0707be	-0.13186547
83	0xbd89e717	-0.0673353
84	0x3e129121	0.14313175
85	0xbec42f05	-0.38317123
86	0x3dd8008a	0.10546978
87	0x3e4075a1	0.18794872
88	0xbe23231a	-0.15931359
89	0x3cef4b1b	0.029210618
90	0x3d6c622a	0.057710804
91	0x3e22d3ce	0.1590111
92	0xbe8262b2	-0.25465924
93	0x3d1b61da	0.037935115
94	0xbe2fe97c	-0.17178911
95	0xbe0ae827	-0.13565122
96	0xbcd27f1b	-0.025695374
97	0x3d1a6b83	0.037700187
98	0xbdda99dc	-0.106738776
99	0x3e87e935	0.2654511
100	0x3d0ad338	0.03389284
101	0x3e0c21eb	0.13684814
102	0x3e05541b	0.13020365
103	0x3d19fb31	0.03759307
104	0x3e958dcf	0.29209754
105	0x3e76dfde	0.24108836
106	0x3d992791	0.0747825
107	0x3e28fa8b	0.16501825
108	0x3e1ce7d4	0.1532281
109	0xbe0c7890	-0.13717866
110	0x3e86c692	0.26323372
111	0x3b8c551d	0.004282607
112	0xbcb27a1d	-0.021786744
113	0xbe131b38	-0.14365852
114	0xbe868a52	-0.26277405
115	0xbe59a48a	-0.21254173
116	0x3e77478b	0.24148385
117	0x3e87e12e	0.26538986
118	0x3e6f2f9c	0.23358005
119	0x3d9cbb6d	0.07652936

weight f4 [120, 120]
0	0xbd1a4843	-0.03766657
1	0x3e0b8e4c	0.136285
2	0x3e9dd1ca	0.3082412
3	0x3b68f81c	0.0035548275
4	0x3db439bd	0.08800075
5	0x3c5d4205	0.01350451
6	0x3e9bf8b2	0.30463177
7	0xbd3a7fd2	-0.045532055
8	0x3e620e74	0.22075826
9	0x3e6d56cc	0.23177642
10	0xbeff15fb	-0.49821457
11	0x3def5ca1	0.116875894
12	0xbe67280c	-0.2257387
13	0x3e3a9239	0.18219842
14	0x3e08021e	0.13282058
15	0xbf0bf67a	-0.5467297
16	0x3e32b311	0.17451121
17	0xbe89bc2e	-0.26901382
18	0x3ec1cc3a	0.37851125
19	0x3e0d676d	0.13808985
20	0xbdb55de1	-0.088557966
21	0x3dc3a125	0.0955222
22	0x3e497a04	0.19675452
23	0x3dec2799	0.1153099
24	0x3db7f95a	0.08983107
25	0x3d2d4b9c	0.042308435
26	0xbe12bc9f	-0.14329766
27	0xbc302d85	-0.01075304
28	0xbd5a6b34	-0.053324893
29	0x3dd4eda3	0.10396888
30	0x3de67421	0.112526186
31	0x3f18e966	0.5973114
32	0xbd2d2718	-0.04227361
33	0x3c081ead	0.008308095
34	0x3e1ff36d	0.15620203
35	0xbde7a708	-0.113111556
36	0x3bfa7ed6	0.0076445146
37	0x3df6395e	0.12022661
38	0xbf1d6a69	-0.61490494
39	0x3d955ddc	0.07293293
40	0x3d301cc0	0.042996168
41	0x3e31623b	0.17322628
42	0x3e3a6d8c	0.18205851
43	0x3d526ba5	0.05137219
44	0x3e2a5b10	0.166363
45	0xbdb5e7ad	-0.08882079
46	0x3e1d1e69	0.15343632
47	0xbd2f38cb	-0.04277877
48	0xbec09dca	-0.37620384
49	0x3debf71f	0.11521744
50	0x3e6e8467	0.23292695
51	0xbe1cc183	-0.15308194
52	0x3eb01cd5	0.34396997
53	0x3e4d0adc	0.20023674
54	0x3d2b73df	0.04185855
55	0xbefbe15f	-0.49195382
56	0xbdbe09a3	-0.09279182
57	0xbdd8351b	-0.10557004
58	0x3ca1d6de	0.019755777
59	0xbf26e003	-0.65185565
60	0xbe9e7b92	-0.30953652
61	0x3e7fd06a	0.24981847
62	0x3e3dac09	0.18522657
63	0xbee72be5	-0.45150676
64	0x3e3f8a81	0.18705179
65	0x3b2c0a9a	0.0026251436
66	0xbd93d5bd	-0.07218502
67	0xbd696d1f	-0.05698883
68	0xbd58eb55	-0.052958805
69	0xbf15d756	-0.585317
70	0xbeec890d	-0.4619831
71	0xbc907961	-0.017636003
72	0x3ea20bed	0.31649724
73	0x3b95c1a8	0.0045702048
74	0x3d22e3e1	0.039768104
75	0x3d0e24b6	0.03470298
76	0x3dbc8a33	0.09206047
77	0x3e5c6bf7	0.2152556
78	0xbda18eba	-0.07888551
79	0x3e3dd8e1	0.18539764
80	0x3df43f5f	0.119261496
81	0x3d9ab959	0.075548835
82	0x3cd37161	0.0258109
83	0xbea083c1	-0.3135052
84	0xbec7802f	-0.38964984
85	0xbee542ef	-0.4477763
86	0x3e221741	0.15829183
87	0xbdf082c2	-0.1174369
88	0x3dac3203	0.084079765
89	0xbd27f1b8	-0.041002005
90	0x3f12f6a2	0.5740758
91	0x3aff09f1	0.0019457919
92	0x3f070fdf	0.5275859
93	0x3ebd1e42	0.36937147
94	0xbccbf1b0	-0.024895519
95	0x3d091d7c	0.033475384
96	0x3f47c546	0.7803539
97	0xbcb3326f	-0.021874635
98	0x3e5c5075	0.21515067
99	0xbd0e2076	-0.034698926
100	0x3e5e3d22	0.21703008
101	0x3ce06d4e	0.02739587
102	0xbe4fe6de	-0.20302913
103	0x3ebac7c7	0.36480543
104	0x3da731a6	0.081637666
105	0xbe2fabb4	-0.17155343
106	0xbf28f30a	-0.6599585
107	0xbe7b52d1	-0.2454331
108	0x3c5695f4	0.013097275
109	0xbd4b47eb	-0.049629133
110	0x3db2c2e0	0.08728576
111	0x3e70532d	0.23469229
112	0x3e80642d	0.25076428
113	0xbeaefac5	-0.34175697
114	0x3d979b72	0.07402696
115	0x3e9fa6c3	0.31181917
116	0x3ce82926	0.028339934
117	0x3dcf8814	0.10133377
118	0xbc9425d6	-0.018084448
119	0x3d620b54	0.055186585
120	0x3b970533	0.004608774
121	0xbdb80739	-0.089857526
122	0x3d1af7d2	0.037833996
123	0x3db96f32	0.09054412
124	0x3d4f80c7	0.05065992
125	0xbd716fdc	-0.058944568
126	0x3c8896ae	0.016673412
127	0x3d9a0f72	0.07522477
128	0x3d1bda36	0.0380499
129	0xbda12986	-0.07869248
130	0xbd51b08f	-0.05119377
131	0xbdc1fe40	-0.094723225
132	0xbde1d62a	-0.11027177
133	0xbd1f7511	-0.038930003
134	0xbda35595	-0.07975308
135	0x3da8fd26	0.08251409
136	0x3c995074	0.01871512
137	0xbdd01828	-0.101608574
138	0x3d40a002	0.047027595
139	0xbda97cfa	-0.082757905
140	0xbdd36a78	-0.10323042
141	0x3d7fb78f	0.062430914
142	0x3da186ed	0.07887063
143	0x3d5152b1	0.05110425
144	0xbbcd4a40	-0.006264955
145	0x3d75c463	0.060001742
146	0x3c829632	0.01594076
147	0x3bf5b23f	0.007498055
148	0xbdb93615	-0.090435185
149	0xbdd57cb3	-0.10424175
150	0x3d38e1f8	0.045137376
151	0x3ce86011	0.02836612
152	0xbd72b29c	-0.059252366
153	0xbd192918	-0.037392706
154	0xbba9f44b	-0.0051865927
155	0xbd98ccb0	-0.07460916
156	0x3c980c3c	0.018560521
157	0xbd449087	-0.047989395
158	0xbce42491	-0.027849467
159	0xbd950f10	-0.072782636
160	0x3db32b64	0.087485105
161	0xbddf9fb2	-0.10919131
162	0x3d5b5b7f	0.053554054
163	0x3d5f2d78	0.05448672
164	0xbd98fdab	-0.07470258
165	0xbb6a830c	-0.0035783676
166	0xbbc7cae6	-0.0060971854
167	0xbda31ac3	-0.07964089
168	0xbc13c515	-0.009019156
169	0xbd39b2ba	-0.045336463
170	0x3d3643b4	0.04449816
171	0x3cd4687f	0.025928734
172	0x3da66c5a	0.08126135
173	0x3c4724f0	0.012154803
174	0xbd203ac3	-0.03911854
175	0xbba1c8f1	-0.004937284
176	0xbd1059b6	-0.035241805
177	0xbdb1d38e	-0.08682929
178	0x3c032dfd	0.00800657
179	0xbb05f0e0	-0.0020437762
180	0xbdb8a7e1	-0.09016395
181	0x3d8b5106	0.06802563
182	0xbbdb2194	-0.0066873524
183	0xbd396ab4	-0.045267776
184	0xbd868f76	-0.06570332
185	0xbd71e0d7	-0.059052315
186	0xbc613568	-0.013745643
187	0xbbc6233d	-0.006046681
188	0x3d9eb904	0.07750133
189	0xbd85fe24	-0.06542614
190	0x3cb1abff	0.02168846
191	0xbc526968	-0.012842514
192	0xbc98ddd3	-0.018660462
193	0x3cafeb2d	0.021474445
194	0xbd322716	-0.043494307
195	0xbcd02e15	-0.025412599
196	0x3d80c017	0.06286638
197	0xbd48d691	-0.04903275
198	0x3d51d2f8	0.051226586
199	0xbd42337a	-0.047412373
200	0xbad09ad5	-0.0015915284
201	0x3d5e39e0	0.054254413
202	0xbd2fb665	-0.042898554
203	0xb930fb74	-0.00016878342
204	0x3c572b70	0.013132915
205	0x3d021993	0.03176267
206	0xbc0dc5f3	-0.008653152
207	0xbdbae4e6	-0.0912569
208	0x3d54f898	0.05199489
209	0xbd6cc311	-0.057803217
210	0x3d677560	0.056508422
211	0x3d596e8c	0.05308394
212	0xbc07cfd2	-0.008289294
213	0xbd990fb5	-0.07473699
214	0x3d326067	0.043548968
215	0xbcde0190	-0.027100354
216	0xbd18f90a	-0.037346877
217	0x3c9c9f2b	0.019118866
218	0xbd3313bb	-0.04371999
219	0xbcee6d14	-0.029104747
220	0xbd982b1f	-0.074301
221	0xbd0870a2	-0.03331054
222	0xbd185ad8	-0.03719601
223	0xbd336f68	-0.043807417
224	0xbc83c8e0	-0.016086996
225	0xbd44f87e	-0.048088543
226	0x3d96bf84	0.073607475
227	0xbd61f7db	-0.055168014
228	0xbdbd0dda	-0.092311576
229	0xbd3533a7	-0.044238713
230	0xbdb548b2	-0.08851756
231	0xbd024ec4	-0.031813398
232	0x3d622ca6	0.05521836
233	0x3d8b980e	0.068161115
234	0x3c504f50	0.012714222
235	0xbd4f87ff	-0.050666805
236	0xbcb32d47	-0.021872176
237	0xbcdfc24c	-0.027314328
238	0xbdcc93e2	-0.09989144
239	0xbc3aebe9	-0.011408784
240	0xbbf7d33f	-0.0075630243
241	0x3c942797	0.018085284
242	0x3d84968c	0.06474027
243	0x3d5dc7a5	0.054145474
244	0x3d4a5533	0.04939766
245	0x3dcd3fc2	0.100219265
246	0xbe3057ad	-0.17220946
247	0x3c172f98	0.009227656
248	0xbe212940	-0.15738392
249	0x3d7c80b2	0.06164617
250	0xbe893574	-0.26798594
251	0xbd6c4fec	-0.057693407
252	0xbda9a15c	-0.0828273
253	0x3d5b8f11	0.053603236
254	0x3d8717c4	0.0659633
255	0x3ca957c1	0.020671727

bias f4 [120]
0	0x3e057db0	0.13036227
1	0xbca77e44	-0.02044595
2	0xbc55c92a	-0.0130484495
3	0x3cd0972c	0.02546271
4	0x3d6d5f6c	0.05795233
5	0xbcd6695a	-0.026173282
6	0xbda54c89	-0.080712385
7	0x3c887e9b	0.016661933
8	0x3d4e2f2c	0.050337955
9	0xbc022059	-0.007942283
10	0x3ca5b837	0.020229442
11	0x3c653bd8	0.013991319
12	0x3e019426	0.1265417
13	0xbcc1301d	-0.023582513
14	0xbd8a2a3a	-0.06746335
15	0x3cde4c2f	0.027135937
16	0x3d106c15	0.035259325
17	0x3ad634f1	0.0016342682
18	0xbd740f24	-0.05958475
19	0xbb25d2e2	-0.0025302698
20	0x3dc2f211	0.09518827
21	0x3b5b985b	0.003350756
22	0x3dd82e97	0.10555761
23	0x3d60dc4b	0.054897588
24	0x3d3d362a	0.046194233
25	0x3d3dc405	0.046329517
26	0xbddfd9a3	-0.10930183
27	0xbd96177c	-0.07328698
28	0x3d8a2fdc	0.0674741
29	0xbcd249f0	-0.025670022
30	0x3cbc1296	0.022958081
31	0x3dbfbf3e	0.093626484
32	0x3cc3703e	0.023857232
33	0x3ccc6e0c	0.024954818
34	0x3cd7deef	0.02635142
35	0xbd18f0f6	-0.037339173
36	0x3daec8fb	0.08534428
37	0xbdb36c1e	-0.08760856
38	0x3d8cda3a	0.06877561
39	0x3dcf1db9	0.10113091
40	0x3d2d85ad	0.04236381
41	0x3d5d2d0b	0.053998034
42	0x3babcd77	0.005242999
43	0xbd2f8efa	-0.042860962
44	0xbd791c68	-0.060818106
45	0x3ce6ce37	0.028174503
46	0x3d053dfb	0.032529812
47	0x3c8d739b	0.017267039
48	0xbd69eb46	-0.05710914
49	0xbd2b0edf	-0.04176223
50	0x3ba42ce7	0.0050102356
51	0x3ddf1be7	0.10893994
52	0xbdfb2ced	-0.12264428
53	0xbca0dbc1	-0.019636037
54	0x3d32fca4	0.043697968
55	0xbd04b51e	-0.03239929
56	0x3d82845c	0.06372902
57	0x3dbd4b87	0.09242921
58	0xbd3c8c3d	-0.04603218
59	0xbd9a7d4d	-0.075434305
60	0x3d5139f6	0.051080666
61	0x3dcd447c	0.10022828
62	0x3de12917	0.109941654
63	0x3cbeb742	0.023280744
64	0xbcab09df	-0.02087873
65	0xbc846283	-0.016160255
66	0xbc2dcfb0	-0.010608599
67	0xbdaa21c3	-0.08307221
68	0xbdce22b3	-0.10065212
69	0xbae51f7d	-0.0017480698
70	0x3d731920	0.059350133
71	0xbca55a88	-0.02018477
72	0x3dac5573	0.08414736
73	0x3cfa1bb3	0.030530786
74	0x3e00c5ac	0.12575406
75	0x3dca773d	0.09886024
76	0xbd5c7cbe	-0.0538299
77	0xbb964750	-0.004586138
78	0x3d76e665	0.060278315
79	0x3d83ac45	0.06429342
80	0x3be2f8d2	0.0069266343
81	0x3cead73a	0.028667081
82	0xbd109871	-0.03530163
83	0x3dbb0ccc	0.091333
84	0xbd45b17b	-0.04826496
85	0x3ae1cdcd	0.0017227471
86	0x3d859275	0.06522075
87	0x3ccd4580	0.025057554
88	0x3b3e9cfc	0.002908527
89	0x3d9ca621	0.07648874
90	0x3dc4d5e6	0.096111104
91	0xbc0c8593	-0.008576768
92	0x3dcefa63	0.10106351
93	0x3dfceb4d	0.123495676
94	0x3db430c9	0.087983675
95	0x3b40c7d9	0.0029415993
96	0x3d8caff1	0.06869496
97	0x3d8ec195	0.069705166
98	0x3d3bb73a	0.045829035
99	0x3d7b3f97	0.06133994
100	0x3d77e299	0.060518835
101	0xbc7783e4	-0.015107129
102	0x3d6b2ac6	0.05741384
103	0xbdb8552f	-0.090006225
104	0xbb638bb3	-0.0034720718
105	0x3da3714c	0.07980594
106	0x3cf6caaf	0.030125944
107	0xbb5df342	-0.0033866917
108	0x3dcbf766	0.09959297
109	0x3d4b0a06	0.049570106
110	0xbde3fc05	-0.11132053
111	0x3cd64e1c	0.026160292
112	0x3d06f45f	0.032947894
113	0xbd731808	-0.05934909
114	0x3c6cd4ac	0.014455002
115	0xbd143480	-0.03618288
116	0xbc9e4dd5	-0.019324223
117	0xbd180706	-0.037116073
118	0x3b032fc8	0.0020017494
119	0x3e02c143	0.12769036

weight f4 [120, 120]
0	0xbe079ccb	-0.13243406
1	0xbd4f81d8	-0.050660938
2	0x3d1af2c1	0.037829164
3	0x3d3ab961	0.045586947
4	0x3d43b0d3	0.047776055
5	0x3d1cc3b1	0.038272563
6	0x3d9112cf	0.070836656
7	0xbd4898d1	-0.048973862
8	0xbdd71301	-0.105016716
9	0xbdee34af	-0.11631142
10	0xbe3b82fa	-0.18311682
11	0xbd1de4b6	-0.038548194
12	0x3c42ec76	0.011897197
13	0x3e235c4f	0.15953182
14	0x3db8ff60	0.09033084
15	0x3d97d7e4	0.07414225
16	0xbde98586	-0.11402421
17	0x3e0e9595	0.13924249
18	0xbeb5f38e	-0.3553738
19	0x3cbb6b2c	0.022878252
20	0x3de87f0e	0.11352359
21	0x3eea2b4b	0.45736155
22	0x3e1497e3	0.14511065
23	0xbea70b21	-0.32625678
24	0x3da05d95	0.07830349
25	0x3d331e3e	0.043730013
26	0xbcedf075	-0.029045323
27	0xbcf05c7b	-0.029340973
28	0x3e0a056d	0.13478632
29	0xbe0c153f	-0.1367998
30	0x3e1b54bb	0.15169041
31	0xbda48fa0	-0.08035207
32	0xbd9ea4c1	-0.07746268
33	0xbe1492a8	-0.1450907
34	0xbcf6215b	-0.030045202
35	0xbd8ac756	-0.067763016
36	0x3c2aa566	0.010415411
37	0xbcc07324	-0.023492403
38	0xbcf7d2d5	-0.0302519
39	0xbd2d94f2	-0.042378373
40	0xbdb7ff52	-0.08984245
41	0x3e4deb44	0.20109278
42	0x3da134f3	0.078714274
43	0xbd9557d9	-0.07292146
44	0x3e99f832	0.3007217
45	0xbd82d9a0	-0.06389165
46	0xbc719688	-0.014745362
47	0x3d993315	0.07480446
48	0xbdadb2a8	-0.084813416
49	0x3dc4ec3f	0.09615373
50	0xbcf55b67	-0.02995081
51	0x3d5f54cd	0.05452423
52	0xbd34b6ef	-0.04411977
53	0x3c20f303	0.0098235635
54	0xbe13cd34	-0.14433748
55	0xbdb576c0	-0.088605404
56	0x3e223c5c	0.15843338
57	0xbe3e0a75	-0.18558677
58	0xbd4e4864	-0.050362006
59	0xbbc24480	-0.005928576
60	0xbdb05f77	-0.086119585
61	0x3cbcb778	0.023036703
62	0x3e9b3e13	0.30320796
63	0xbdb80979	-0.08986182
64	0x3d6033db	0.054736953
65	0xbd0ba702	-0.034094818
66	0x3d80584d	0.06266842
67	0xbcd6d3c5	-0.026224026
68	0x3b4c97ae	0.0031218338
69	0xbced2bcb	-0.028951546
70	0xbda75736	-0.08170931
71	0x3e2e0943	0.1699572
72	0xbe349fa6	-0.17639026
73	0xbce653a7	-0.02811606
74	0xbe539348	-0.20661652
75	0xbd9ba265	-0.07599334
76	0x3c9ea708	0.019366756
77	0xbdb286c8	-0.08717114
78	0xbe370189	-0.1787168
79	0xbdcb6e02	-0.09933092
80	0x3db880f0	0.09008968
81	0x3e17f655	0.14840062
82	0xbe06ac6e	-0.13151714
83	0xbcd71fad	-0.026260221
84	0xbd45bafa	-0.048274018
85	0x3e02d672	0.12777117
86	0xbc33ead7	-0.010981283
87	0x3da880ce	0.082276925
88	0xbdca55bb	-0.09879633
89	0x3e051b59	0.12998714
90	0xbca60867	-0.020267678
91	0x3dcc6faa	0.09982236
92	0x3d499385	0.04921295
93	0xbdb251f9	-0.08707041
94	0xbcdcd17f	-0.026955364
95	0x3e053e2e	0.13012001
96	0x3dd72e3a	0.10506864
97	0x3d502bb8	0.050822943
98	0xbbc05575	-0.0058695623
99	0xbde04c8e	-0.10952102
100	0xbde5a2b6	-0.11212675
101	0xbea67d01	-0.32517245
102	0xbdc37be0	-0.09545112
103	0x3d95c873	0.07313623
104	0x3d261124	0.04054369
105	0xbbf5d2a3	-0.0075019165
106	0xbd85bac2	-0.06529762
107	0x3e7e95b5	0.24861796
108	0xbdad3ebe	-0.08459233
109	0x3e0c5f99	0.13708343
110	0x3c56b02c	0.013103526
111	0xbd763e0e	-0.060117774
112	0xbdbcabd0	-0.09212458
113	0xbcc95310	-0.02457574
114	0xbda8a59e	-0.08234714
115	0xbdd1f51b	-0.10251828
116	0xbd944034	-0.07238808
117	0xbce6464d	-0.028109694
118	0x3d77a367	0.060458567
119	0xbdd71a36	-0.10503046
120	0xbed4fafb	-0.41597733
121	0xba36fde2	-0.00069805805
122	0xbd2b8288	-0.04187253
123	0xbe7e16db	-0.24813406
124	0xbd3743c8	-0.044742376
125	0xbc9d8a28	-0.019230917
126	0x3c8f1025	0.017463753
127	0xbe19cce9	-0.15019573
128	0x3db4e6de	0.08833097
129	0x3e9a55fd	0.3014373
130	0xbcc45406	-0.023965847
131	0x3c0e8761	0.008699269
132	0xbe91f74e	-0.2850899
133	0x40088237	2.1329477
134	0xbd9eff38	-0.07763523
135	0x3f21743e	0.63067997
136	0xbc61674d	-0.013757539
137	0x3d3567fc	0.04428862
138	0xbdb7a91e	-0.089678034
139	0xbe451d10	-0.19249368
140	0xbdc04437	-0.09388011
141	0xbfdd463e	-1.7287061
142	0x3e250f4b	0.16119115
143	0x3f0ae953	0.54262275
144	0x3e841302	0.25795752
145	0x3de678bb	0.11253496
146	0x3c3712a4	0.011173878
147	0x3e2c7b44	0.16843897
148	0x3d826b58	0.063681304
149	0x3d1a368b	0.037649672
150	0x3d11d7ac	0.03560607
151	0xbe91e590	-0.28495455
152	0x3e9e8882	0.30963522
153	0xbf6e7632	-0.931491
154	0x3e6ea015	0.23303254
155	0xbeb9f789	-0.36321667
156	0xbe005977	-0.12534128
157	0xbdb6feb7	-0.08935302
158	0x3d97790a	0.07396133
159	0xbe8a0b86	-0.26961917
160	0xbc2913b2	-0.010319637
161	0xbeb33e9e	-0.3500871
162	0xbf242fd8	-0.64135504
163	0x39f47fd5	0.0004663455
164	0x3ebdb6d7	0.37053558
165	0x3e266312	0.1624873
166	0xbed6847e	-0.4189796
167	0x3e8ac8d6	0.2710635
168	0xbdb5063f	-0.08839082
169	0xbd71d7f1	-0.05904383
170	0xbe0ffae6	-0.14060554
171	0xbe0b6985	-0.13614471
172	0x3d60b6fa	0.054862
173	0x3d0cc3e8	0.03436652
174	0xbe35a1af	-0.17737459
175	0x3d265410	0.040607512
176	0xbe1b3ca2	-0.15159848
177	0xbda10690	-0.0786258
178	0x3d204b2e	0.039134197
179	0x3cda4500	0.02664423
180	0xbc3558a4	-0.011068497
181	0x3c3d59fc	0.0115570985
182	0xbeff6599	-0.498822
183	0xbe3f435c	-0.1867804
184	0xbd8d675c	-0.0690448
185	0xbc8e8966	-0.017399501
186	0x3ce80379	0.028321968
187	0xbd32b3a4	-0.04362835
188	0xbc73cd3f	-0.014880477
189	0x3e1c7014	0.1527713
190	0xbe81755c	-0.2528485
191	0xbf4f2be7	-0.80926365
192	0x3e6cc1a2	0.2312074
193	0xbecd9a0f	-0.401566
194	0x3e2121d3	0.15735559
195	0x3bba3d9e	0.005683615
196	0xbd6cf8a6	-0.057854317
197	0x3bba5050	0.0056858435
198	0x3e41beb4	0.18920404
199	0x3e804bdb	0.25057873
200	0xbd18d9e8	-0.037317187
201	0xbf8203c6	-1.0157402
202	0x3c671f15	0.014106532
203	0xbe9b46e1	-0.30327514
204	0x3d7208df	0.05909049
205	0xbdddd74e	-0.10832082
206	0xbee40a2a	-0.44539005
207	0xbd30d713	-0.04317386
208	0x3d006732	0.031348415
209	0x3e530baf	0.20609926
210	0xbe1f6cda	-0.15568867
211	0x3db72056	0.089417145
212	0xbd7129ca	-0.058877744
213	0x3d7fbd99	0.062436674
214	0x3e235997	0.15952145
215	0xbc35db1c	-0.011099603
216	0x3ed24372	0.41067082
217	0x3e3925df	0.18080853
218	0xbe7b854d	-0.24562569
219	0xbe986015	-0.29760805
220	0xbe4bac95	-0.19890054
221	0xbe92a809	-0.28643826
222	0x3c441cc3	0.011969748
223	0xbd823cfe	-0.063592896
224	0xbea709dd	-0.32624713
225	0x3e97755c	0.29581726
226	0xbe2c5c8e	-0.16832182
227	0xbf0819eb	-0.5316455
228	0xbd3888b9	-0.045052264
229	0xbf0bba0b	-0.54580754
230	0xbda53066	-0.08065872
231	0xbd2050ea	-0.039139666
232	0xbd2ef0b8	-0.042710036
233	0xbbebad7b	-0.0071923113
234	0x3d6409f9	0.055673573
235	0xbd8a34cc	-0.067483515
236	0xbe62240b	-0.22084062
237	0x3ea10249	0.31447056
238	0x3e12be97	0.14330517
239	0x3e5d0288	0.21582997
240	0xbd8e3799	-0.06944198
241	0xbd3c1d98	-0.04592666
242	0xbd08796f	-0.033318933
243	0x3e931588	0.28727365
244	0xbdf6d29f	-0.120518915
245	0x3d74fd11	0.059811655
246	0x3d993181	0.07480145
247	0xbe051e3f	-0.12999819
248	0x3ce3c58a	0.027804155
249	0x3d67fcbd	0.056637514
250	0xbe230c2d	-0.15922613
251	0x3c7daa6d	0.015482527
252	0x3c200b21	0.009768278
253	0xbded7d3e	-0.11596154
254	0xbda86b56	-0.08223598
255	0xbdef1d22	-0.116754785

bias f4 [120]
0	0x3d18911c	0.037247762
1	0x3d4930fc	0.04911898
2	0xbdc24b1d	-0.09486983
3	0xbcd0ccc2	-0.025488261
4	0x3d8106a1	0.063000925
5	0xbd131d2b	-0.03591649
6	0xbd497900	-0.04918766
7	0xbc508d87	-0.012729055
8	0x39c2aa31	0.00037129366
9	0x3d597b9a	0.05309639
10	0xbd704620	-0.058660626
11	0xbdb54abb	-0.08852144
12	0x3d54cf24	0.051955357
13	0x3cfa791e	0.030575331
14	0x3cf617fe	0.030040737
15	0x3d2c9c94	0.042141512
16	0xbd4c413f	-0.04986691
17	0xbc439187	-0.011936552
18	0xbd965553	-0.07340493
19	0x3ddfecf0	0.10933864
20	0x3d9a6122	0.07538058
21	0x3d6f357c	0.058400616
22	0x3c41aa69	0.011820414
23	0x3db13bde	0.08653997
24	0x3dc271be	0.09494351
25	0xbc9615c5	-0.018320927
26	0xbc1c1230	-0.009525821
27	0xbc840cad	-0.016119326
28	0x3c779d65	0.015113209
29	0xbd9f8f05	-0.07790951
30	0x3d0e6637	0.03476545
31	0xbd0c0579	-0.034184907
32	0xbd8c6ce4	-0.06856707
33	0xbd19e70f	-0.03757387
34	0xbd9e23b0	-0.077216506
35	0xbd946879	-0.07246489
36	0xbc98e824	-0.01866538
37	0x3d81f1a3	0.06344917
38	0x3ca996b2	0.02070174
39	0x3d40f9ea	0.047113337
40	0xbd8d04d6	-0.06885688
41	0x3d5d238f	0.05398899
42	0x3ce3d71f	0.027812539
43	0xbc10f511	-0.008847491
44	0x3b2fd0ed	0.002682741
45	0xbdd2fe28	-0.10302383
46	0xbdc53cd3	-0.09630742
47	0x3da1c16d	0.07898221
48	0x3d5a9e25	0.053373475
49	0xbd95ffe0	-0.07324195
50	0x3d40fb9c	0.047114953
51	0x3d347c4f	0.044063862
52	0xbd048507	-0.032353427
53	0x3d003339	0.03129885
54	0x3bb9226d	0.005649856
55	0x3ce9fd8b	0.028563282
56	0xbda5e0cc	-0.08099517
57	0x3d2f8c99	0.042858694
58	0x3cab7268	0.020928577
59	0xbad58864	-0.0016291258
60	0x3d56214f	0.05227786
61	0x3bf7b21b	0.0075590736
62	0xbda34c7c	-0.079735726
63	0x3d854a13	0.06508269
64	0xbdc8290b	-0.09773453
65	0xbc13e410	-0.009026542
66	0x3d3802cf	0.044924553
67	0x3ca074f0	0.01958701
68	0x3d2358ad	0.03987949
69	0x3be0297f	0.006840884
70	0x3c413e71	0.011794672
71	0xbd879516	-0.06620233
72	0xbd2e884e	-0.04261046
73	0x3dc6e59b	0.097117625
74	0x3d62108d	0.055191565
75	0xbc2de624	-0.010613952
76	0xbd907c78	-0.070549905
77	0xbd0e5cf8	-0.03475663
78	0xbd65e4fd	-0.056126583
79	0xbddabb23	-0.10680225
80	0x3d9017ff	0.07035827
81	0xbdabc6b7	-0.08387511
82	0xbd16aaaa	-0.03678385
83	0x3cf9bca2	0.030485455
84	0x3d004174	0.03131242
85	0x3bed789b	0.0072470433
86	0xbd0eb18a	-0.034837283
87	0x3d420b43	0.04737402
88	0xbd88f11c	-0.06686613
89	0xbd96e581	-0.07367993
90	0xbc631253	-0.013859349
91	0xbd8e288b	-0.06941327
92	0x3cc9393e	0.024563428
93	0x3d647a66	0.05578079
94	0x3cfc2e44	0.03078378
95	0x3da2dc8c	0.07952222
96	0xbd85ddb6	-0.06536429
97	0xbdc69b49	-0.09697587
98	0x3d7a6158	0.06112799
99	0xbca82195	-0.020523826
100	0x3d14be7e	0.03631448
101	0x3c571f90	0.013130084
102	0xbd65acbb	-0.05607293
103	0x3b10374a	0.002200561
104	0x3cd25d69	0.025679307
105	0xbd0afd52	-0.03393299
106	0x3d0db13c	0.034592852
107	0x3ceb3385	0.02871109
108	0x3d471415	0.048603136
109	0xbce27903	-0.027645594
110	0x3b898623	0.0041968985
111	0xbdd6d6c9	-0.10490186
112	0xbd76b7f1	-0.060234014
113	0xbd28685a	-0.041115142
114	0xbb785f2c	-0.0037898524
115	0xbce3b8be	-0.027798053
116	0xbbeaf6f4	-0.0071705524
117	0xbdb689c9	-0.08912999
118	0x3d426c14	0.047466353
119	0xbdbeb8b2	-0.093125716

weight f4 [14, 120]
0	0xbdc4c983	-0.09608748
1	0x3e05877a	0.13039961
2	0x3d9aeeea	0.075651005
3	0x3ded23bc	0.115790814
4	0xbcaa524a	-0.020791192
5	0x3d6814de	0.056660526
6	0x3db1e944	0.0868707
7	0xbe16c4aa	-0.14723459
8	0xbdc37c99	-0.095452495
9	0xbd8fd613	-0.07023253
10	0xbddb84d7	-0.107186966
11	0x3de1f062	0.110321775
12	0x3d6a37e1	0.057182197
13	0xbdc0e41f	-0.09418511
14	0x3ddda1d9	0.108218856
15	0xbde214f0	-0.1103915
16	0xbdacba68	-0.08433992
17	0x3d47e6ee	0.048804216
18	0x3d913108	0.0708943
19	0x3ce9c62f	0.028536884
20	0x3cc37c52	0.023862991
21	0xbdad6731	-0.08466948
22	0x3dedb548	0.11606842
23	0xbd27bd59	-0.04095206
24	0xbd893a19	-0.067005344
25	0xbdfc05e3	-0.1230581
26	0x3d45e075	0.048309762
27	0x3df848ab	0.12123235
28	0x3d1d0a84	0.038340107
29	0xbe1107bb	-0.14163105
30	0xbcc51aaf	-0.024060575
31	0xbd4b0aa1	-0.049570683
32	0xbd6529c1	-0.055948023
33	0xbdb290be	-0.08719014
34	0x3d4e1c45	0.05031993
35	0x3d3849b8	0.04499218
36	0xbd440dbb	-0.047864657
37	0xbd17eed3	-0.037092995
38	0xbdf58129	-0.11987526
39	0x3e0a3eca	0.13500515
40	0xbdac97f4	-0.0842742
41	0xbdc5e1ca	-0.096622065
42	0xbe049f5b	-0.12951414
43	0xbd8d965c	-0.069134444
44	0x3dcb2047	0.09918266
45	0x3d852f30	0.06503141
46	0xbdde30ad	-0.10849128
47	0x3e13db1b	0.14439051
48	0xbde9b987	-0.1141234
49	0x3db4b80b	0.08824166
50	0x3dfb15ac	0.12259993
51	0xbde41f6a	-0.11138804
52	0x3da0de4a	0.07854898
53	0xbd9e12c2	-0.077184215
54	0xbd056024	-0.03256239
55	0x3d2be2c4	0.041964307
56	0xbdb6f963	-0.089342855
57	0x3dd31f18	0.10308665
58	0x3dcd7092	0.10031237
59	0xbdd25d29	-0.10271675
60	0x3d33b096	0.043869577
61	0x3dd9df73	0.10638323
62	0xbdbb4afe	-0.09145163
63	0x3d5a9aa6	0.05337014
64	0xbcb2bc51	-0.021818312
65	0xbcb51712	-0.022105727
66	0xbd7002e4	-0.058596507
67	0xbd5f9772	-0.05458779
68	0xbdfaf104	-0.12253001
69	0xbdd3defd	-0.10345266
70	0x3d8d56fb	0.06901356
71	0x3de95a6d	0.113942005
72	0x3dfd4291	0.12366212
73	0x3d9942b7	0.07483428
74	0xbc37ed54	-0.011226017
75	0xbc2e96e1	-0.0106560895
76	0xbd3e3787	-0.046439674
77	0xbd1fcc7e	-0.03901338
78	0x3da0674b	0.078322016
79	0x3c11def1	0.008903251
80	0x3d9858b8	0.07438797
81	0xbd985910	-0.07438862
82	0x3da4b9a2	0.08043219
83	0x3e051f67	0.1300026
84	0x3d17269c	0.036902055
85	0x3d9da1d9	0.076968856
86	0x3beecbcf	0.0072874795
87	0xbcda3b5b	-0.026639631
88	0xbd95cbe4	-0.0731428
89	0xbd04fac1	-0.0324657
90	0x3dbf09f3	0.093280695
91	0x3d8cc809	0.06874091
92	0x3da45122	0.08023287
93	0x3da3214c	0.07965335
94	0xbd672c63	-0.056438815
95	0x3d32bc3f	0.043636557
96	0x3c036bcd	0.008021307
97	0x3e1d2aef	0.15348409
98	0xbd3b194a	-0.045678414
99	0xbdcf1529	-0.10111458
100	0xbdf67c67	-0.120354466
101	0xbde1df19	-0.110288806
102	0x3dee064b	0.11622294
103	0x3db6f276	0.089329645
104	0xbdfdc688	-0.123913825
105	0x3d811b0e	0.063039884
106	0x3d4876c4	0.04894139
107	0x3c8e3823	0.017360752
108	0xbe0860b7	-0.13318144
109	0x3bf100b7	0.0073548215
110	0x3dc72dd0	0.09725535
111	0xbd2d1ac6	-0.04226186
112	0x3d81ce73	0.06338205
113	0x3de86d70	0.113489985
114	0x3b838870	0.0040140674
115	0xbd74a5f7	-0.05972859
116	0xbdd2d798	-0.102950275
117	0x3d824b5e	0.063620314
118	0x3de2d95c	0.11076614
119	0x3d44651a	0.04794798
120	0x3e0e3aa1	0.13889553
121	0xbd6ec10d	-0.058289576
122	0xbd05acec	-0.032635614
123	0x3d0ac118	0.033875555
124	0xbdc3e681	-0.095654495
125	0xbca112c9	-0.019662278
126	0xbdcf6757	-0.101271324
127	0x3dfe6362	0.124212995
128	0x3dc63b82	0.09679319
129	0xbdb288cc	-0.08717498
130	0xbdcc3cb7	-0.09972518
131	0xbd8eb363	-0.06967809
132	0xbdccf940	-0.10008478
133	0xbd20f8fa	-0.039299943
134	0x3dfac89e	0.12245296
135	0xbd37543d	-0.04475807
136	0x3dfea90e	0.124345884
137	0x3d8fdaba	0.07024141
138	0x3d583826	0.052787922
139	0x3bbf86c2	0.005844922
140	0xbd366b4f	-0.04453593
141	0xbdcad321	-0.09903551
142	0x3db87e4a	0.09008463
143	0xbda6f560	-0.0815227
144	0x3cf6712a	0.030083258
145	0xbd04289b	-0.032265287
146	0xbd0a1e03	-0.033720028
147	0x3d299c93	0.041409086
148	0xbd4033a2	-0.04692424
149	0x3e025cfb	0.12730782
150	0xbc01ab7a	-0.007914418
151	0x3e2bbfba	0.16772357
152	0x3dc1afc0	0.0945735
153	0x3d17230c	0.036898658
154	0xbd415b3e	-0.047206156
155	0xbc62abdf	-0.013834923
156	0xbe0cb291	-0.13739993
157	0x3dce1ec7	0.10064464
158	0xbdbf5b8d	-0.09343634
159	0x3cb98c5a	0.022649933
160	0x3d1253ab	0.035724323
161	0x3bbb5dd3	0.005717972
162	0xbcc89b58	-0.024488136
163	0xbe08a33c	-0.13343519
164	0xbdc95498	-0.09830588
165	0x3e103802	0.14083865
166	0xbd620997	-0.055184927
167	0x3dc91dae	0.09820114
168	0xbddd23c4	-0.107978374
169	0x3dc84257	0.09778278
170	0xbd393614	-0.04521759
171	0xbd58d3cd	-0.052936364
172	0xbc8b00f5	-0.01696823
173	0x3e077495	0.13228066
174	0x3e3ba878	0.18325984
175	0x3de72119	0.1128561
176	0xbdaa74c6	-0.08323054
177	0x3dc11777	0.09428304
178	0xbd2bd9eb	-0.04195587
179	0x3e1e658c	0.15468425
180	0x3d064004	0.032775894
181	0xbd57a88e	-0.05265098
182	0xbd269edb	-0.04067884
183	0xbced680a	-0.028980274
184	0x3e15f465	0.1464401
185	0xbc6df224	-0.014523063
186	0x3e0f8bbc	0.14018148
187	0xbc18b4e0	-0.009320468
188	0x3c9c59a7	0.019085718
189	0x3e01232e	0.12611076
190	0xbd5a544f	-0.05330306
191	0x3cdc9cf6	0.026930314
192	0x3d913194	0.070895344
193	0x3df136b9	0.11778016
194	0x3e2362fb	0.15955727
195	0xbdcf2b9e	-0.10115741
196	0xbd3913bc	-0.045184836
197	0x3dd49178	0.103793085
198	0xbd1902a1	-0.037356023
199	0xbe1d5f44	-0.15368372
200	0xbe19c2da	-0.15015736
201	0x3c8703fa	0.016481388
202	0x3de97eec	0.114011616
203	0xbd9a7a71	-0.07542885
204	0xbd3d13ac	-0.04616134
205	0xbd749378	-0.05971095
206	0xbc00ac66	-0.007853603
207	0xbe016e1d	-0.12639661
208	0x3d9d146c	0.07669911
209	0xbdd1cf65	-0.102446355
210	0x3d423b94	0.0474201
211	0xbd3f6e1d	-0.04673587
212	0x3d9d5152	0.07681526
213	0x3d12b9f4	0.03582187
214	0x3d52cafe	0.05146312
215	0xbd3464e2	-0.04404152
216	0x3e046164	0.12927777
217	0x3bea4b47	0.007150087
218	0xbe06423f	-0.13111208
219	0x3e074d7f	0.13213156
220	0x3d8d7740	0.06907511
221	0xbd937908	-0.07200819
222	0xbe10365f	-0.14083241
223	0x3de4aa57	0.11165302
224	0x3d7b0397	0.06128272
225	0x3dbd0415	0.09229294
226	0xbe16fda8	-0.147452
227	0xbda93277	-0.082615785
228	0x3dc68d81	0.096949585
229	0xbe260d79	-0.16216077
230	0xbd9aa2ab	-0.07550558
231	0xbbdd751c	-0.0067583453
232	0xbd9644ec	-0.073373646
233	0x3d067665	0.032827754
234	0x3d939424	0.0720599
235	0x3e19bdc6	0.15013799
236	0x3ca8e3cf	0.02061644
237	0x3d87ed70	0.066370845
238	0x3ddf3b0e	0.10899936
239	0xbc93e207	-0.018052114
240	0xbcd45640	-0.025920033
241	0x3d8dd85c	0.06926033
242	0x3cc73c0a	0.024320621
243	0xbd303ca8	-0.043026596
244	0x3d7cce2f	0.06172007
245	0xbddd2cc9	-0.10799558
246	0x3d60ec99	0.054913137
247	0xbd420c68	-0.047375113
248	0x3cc65950	0.02421251
249	0x3b3cfc7b	0.0028837014
250	0x3d860f5b	0.065458976
251	0xbcc33ea1	-0.023833575
252	0x3c222e3e	0.00989872
253	0xbbf701a0	-0.0075380355
254	0xbcecbf34	-0.028899767
255	0xbc508fc5	-0.01272959

bias f4 [14]
0	0xbd9f28c2	-0.07771446
1	0xbdb4de4b	-0.088314615
2	0x3d827535	0.06370012
3	0xbd28cd82	-0.041211613
4	0x3d8d619b	0.069033824
5	0xbc8b7431	-0.017023178
6	0x3d8f38c4	0.06993249
7	0xbd395fed	-0.045257498
8	0x3dace7cb	0.084426485
9	0x3d5f7499	0.054554556
10	0x3da2f1c3	0.07956269
11	0xbd2f1e9d	-0.042753804
12	0xbdb04cc3	-0.08608391
13	0x3c1fd953	0.009756404
