python/mod/re/mod.pth (torch, 133711 bytes, 8 tensors)

weight f4 [120, 14]
000000 e1 35 13 3e eb 15 2e 3e 00 12 99 3e d3 88 83 bd
       0.14376022 0.17000549 0.29896545 -0.064225815
000010 00 25 0f 3f 69 65 bb 3e bd dc 05 bf 2b 6d 87 3e
       0.5591583 0.36600807 -0.52289945 0.26450476
000020 8d 56 4a be 17 e3 9d be 4a 33 dc be ab e2 32 3d
       -0.19759579 -0.30837318 -0.4300788 0.0436732
000030 3b 7f e1 3e 1d 93 f2 be 80 8d e2 bd 7a f6 c8 3d
       0.44042382 -0.47377864 -0.11062145 0.09812637
000040 39 94 06 3e b3 b7 ab 3e fd 7d 38 3d 4f e6 20 be
       0.1314248 0.3353859 0.045042027 -0.15712856
000050 e4 ee 9a be 9e c5 9a be 24 c5 63 bd 80 3e 81 bc
       -0.30260384 -0.30228895 -0.05560793 -0.015776873
000060 01 86 84 bd a0 05 d6 be 6a ae 03 be 83 5c d3 3e
       -0.06470872 -0.41801167 -0.12859502 0.41281518
000070 8d 52 18 3c 5b 83 5e be 7b fb 9c 3e a0 09 dd 3e
       0.009297025 -0.21729796 0.30660614 0.43171406
000080 61 c1 81 bd 44 4b 19 bf b8 c9 4c bf 78 fc dd bd
       -0.06335712 -0.5988047 -0.799953 -0.1083917
000090 0f 5f 01 3e de ac 2e 3f 89 cd d7 bd e6 26 00 3e
       0.12633918 0.68232524 -0.105372496 0.12514839
0000a0 58 5e 56 3f 67 24 ae 3e d2 0b eb 3d 3d 75 14 3c
       0.8373771 0.34012148 0.11476864 0.009061155
0000b0 91 57 31 be 8a f3 b8 3e 4f 6d 51 3e e9 85 9c 3e
       -0.1731856 0.36123306 0.20451854 0.30570915
0000c0 ec 64 12 3e 41 5a 35 3e 17 fc 06 3f c6 c1 42 be
       0.14296311 0.1771021 0.5272841 -0.19019231
0000d0 5c 76 2b 3d 28 36 05 3e 8f 3c a6 3d 83 a1 15 3f
       0.041860923 0.1300894 0.081170194 0.5844957
0000e0 53 72 9d 3d 69 29 98 bd 33 70 55 3d f1 b2 9e 3e
       0.07687821 -0.07429773 0.052108955 0.30995896
0000f0 bc f9 26 bf 49 eb 98 3d f5 ad 9e 3e c1 dd ec 3d
       -0.65224814 0.07466752 0.30992094 0.11565734
000100 eb c5 2c be df 05 f7 bd 88 39 95 3e b7 69 67 3d
       -0.16872375 -0.12061667 0.29145455 0.056497302
000110 d3 6e 2c bf db d8 83 be 19 d9 86 3e 88 7b 8c be
       -0.67356604 -0.25751385 0.26337507 -0.27437997
000120 07 dc 4f 3e 7c cf 25 3e fe 45 b7 be 0f 51 08 bf
       0.20298778 0.1619243 -0.35795587 -0.53248686
000130 e3 36 87 be 9a be 05 bf 0c 2e cb 3e 58 4d b1 3e
       -0.26409063 -0.5224396 0.39683568 0.3462932
000140 19 d2 bc 3e 4c d2 24 bf 74 84 88 3e e5 a1 03 bf
       0.36879042 -0.6438339 0.26663554 -0.51418906
000150 cf a6 97 bd 12 0c 00 bd f8 97 8f be 7b 4b 00 3e
       -0.07404863 -0.03126151 -0.2804563 0.12528794
000160 ed 9e 16 be 7c dc f9 3e 33 e3 e2 be 0d 01 68 3e
       -0.14709063 0.4880103 -0.44313964 0.22656651
000170 68 f2 8a bd be 0b 13 be 4b 76 d4 3e 50 13 98 3e
       -0.067845166 -0.14359948 0.414965 0.29702234
000180 0f ed e1 3d c3 41 f4 3e 01 e5 bb be b5 58 f2 3d
       0.110315435 0.47706422 -0.36698154 0.11833326
000190 31 7d ad bb 84 3a f4 3d c1 26 80 be d4 d9 ef 3e
       -0.005294465 0.119252235 -0.25029567 0.46845877
0001a0 ad bd 18 3e 18 ff 8e be bd f9 6b be 7a 24 28 be
       0.14916106 -0.27928996 -0.23044486 -0.16420165
0001b0 30 8e 16 bd 9d f1 a7 be a1 a0 0e bd 92 4d 56 be
       -0.036756694 -0.32801524 -0.034821156 -0.20928028
0001c0 cc 5f 5b bd 40 55 a0 3d d8 a2 ac 3d b9 c8 7f be
       -0.053558156 0.0782876 0.084294975 -0.24978913
0001d0 83 06 54 be 68 13 94 bc c6 b1 5f 3e 32 94 72 3e
       -0.20705609 -0.01807566 0.21845159 0.23689345
0001e0 a0 ba 2e 3e b0 d8 ea 3c 02 04 5b 3e 94 f2 e9 3d
       0.1706338 0.028667778 0.21388248 0.11423221
0001f0 60 e0 44 be a0 cc 06 bc 8f e7 c8 be ed 45 b8 be
       -0.19226217 -0.008227497 -0.39239165 -0.3599085
000200 bc 21 64 be aa e4 2e bd 9b 1e 77 be f7 8b 68 be
       -0.22278494 -0.04269854 -0.24132769 -0.22709642
000210 c1 6e 1b 3e 48 c5 7d 3e bc d7 5f bd 06 64 27 be
       0.15178968 0.24782288 -0.0546491 -0.1634675
000220 0b 7f 33 3e 2c 91 c7 3e 64 41 5e 3d cb 12 d6 3e
       0.17528932 0.38977945 0.05426158 0.41811213
000230 2c a4 bf be ea 33 8c be 84 f9 e1 be 1d 2a 8e 3e
       -0.3742994 -0.27383357 -0.44135678 0.27766505
000240 00 1d 50 be 04 01 97 3e 85 67 a4 3e bf 39 94 3c
       -0.20323563 0.29492962 0.3211023 0.018093942
000250 98 fe 45 3e 3f d8 3d bf d6 ca 20 bf 24 7f e7 3d
       0.19335401 -0.7415809 -0.62809503 0.11303547
000260 46 ab 3d 3f b4 45 4b 3f 2b e9 85 3d 51 88 75 3e
       0.7408947 0.79403234 0.06538614 0.23977782
000270 12 86 0e 3e b1 8c 90 be ee 25 3d be 16 46 5e 3e
       0.13918331 -0.2823234 -0.184715 0.21706423
000280 7e 8b 00 bf 81 f6 86 3e 16 59 3c be 0f db 2d bf
       -0.5021285 0.26359943 -0.18393359 -0.6791238
000290 99 be 8b be 4e 70 2e 3f 48 60 47 bc af b6 82 3f
       -0.27293852 0.68140113 -0.012168951 1.0212001
0002a0 20 04 9a be 58 f7 0c be 4d a8 5b 3d 4b eb bc 3e
       -0.30081272 -0.13766229 0.0536273 0.36898264
0002b0 0e f1 b4 be f8 bd 6c be 6f 54 23 3e aa b2 16 be
       -0.3534016 -0.23119342 0.15950178 -0.14716592
0002c0 7f f0 6e 3e 39 c0 b7 bd 1e 48 6c 3e ae b3 fb bc
       0.2333393 -0.089722104 0.23074386 -0.030725326
0002d0 7f a1 d2 3e 56 6d 04 be 0e 23 b5 bc 51 71 16 be
       0.41138837 -0.12932333 -0.022111442 -0.14691664
0002e0 56 d4 f6 3d b3 e6 dc 3d c3 89 ca be a2 90 f4 3e
       0.120522186 0.1078619 -0.3955823 0.47766596
0002f0 fc 72 c0 bd 7a 31 ca 3d ac ed 41 3e 73 05 a1 bd
       -0.093969315 0.09872718 0.18938321 -0.078623675
000300 c6 e9 c2 3d 5f 9d 75 3d 2d 1d 19 3e 46 e0 fc 3e
       0.09517245 0.059964534 0.14952536 0.49389857
000310 18 a0 ee 3c c5 4a 06 3e 2b f8 cd bd 06 af 86 bd
       0.029129073 0.1311446 -0.100571 -0.06576352
000320 0b 8c d9 be c1 c6 1f 3e 33 e5 85 3e f5 a5 ba be
       -0.42489657 0.15603162 0.26151428 -0.3645474
000330 8d ac c7 3e 6e 40 a6 bd 83 f9 b5 3d 86 ec 82 3d
       0.38998833 -0.08117758 0.08885481 0.063927695
000340 97 37 c0 3d 94 db f6 3d 1d cd 1c 3d d8 4e 99 3d
       0.09385603 0.120536 0.03828155 0.074857414
000350 5e 9e 74 bd 6d b3 c1 3e 16 65 02 be 0d 8a 33 3d
       -0.059721343 0.37832204 -0.12733874 0.043832827
000360 78 24 a3 be 3b df f9 3d 9f 4b c6 be 2d ef 3d be
       -0.3186376 0.12200781 -0.3872957 -0.1854827
000370 8c 78 e1 be 78 2d 96 bd fe fa 92 3e 2c a9 31 3e
       -0.44037282 -0.07332891 0.28707117 0.1734969
000380 a6 42 f8 bc e4 1a 9f 3e 58 ae ad be ef 97 bc 3e
       -0.030305218 0.31075203 -0.33922076 0.36834666
000390 f0 08 94 be 0d f5 ba be 15 71 66 be 2d eb 36 bb
       -0.2891307 -0.36515084 -0.22504075 -0.0027911172
0003a0 4f 44 b7 3d 6e c0 74 3e 1d 7f 98 be 08 ec c0 be
       0.08948576 0.23901531 -0.2978448 -0.37680078
0003b0 df 95 0c bd 92 41 0b bc 6e 89 81 3e a1 90 4e 3e
       -0.034322616 -0.00849952 0.25300163 0.20172359
0003c0 b1 88 9a 3e a3 85 f7 bd d8 eb 4e be a1 82 82 be
       0.30182412 -0.12086036 -0.20207155 -0.25490287
0003d0 13 c9 94 3d 2c 91 24 3e 01 e4 d5 bc 6c df 96 bb
       0.07264914 0.16071004 -0.026109697 -0.0046042707
0003e0 82 fb 4a be 8e b5 ce bc 6c a6 7c 3e 95 ce 33 be
       -0.19822505 -0.025233056 0.2467286 -0.17559274
0003f0 b7 98 25 3e dd 79 6c 3e e9 74 22 3e 88 a3 e4 bc
       0.16171537 0.23093362 0.1586491 -0.027910009

bias f4 [120]
000000 ee 9c ed 3d fd f7 42 3d 6f 89 dc bd 34 8d 16 3e
       0.116021976 0.04759978 -0.10768401 0.14702302
000010 8e 5e ef 3b a5 6e 50 3d 60 aa 18 3d cb f4 7f 3e
       0.007304973 0.05088677 0.037271857 0.24995725
000020 10 03 6f be b6 cd 8a 3e 93 a5 d5 3b cf fa ee 3c
       -0.23341012 0.2711007 0.006519982 0.02917233
000030 1c f6 cc bd a4 84 55 3d 7f 67 00 3e 93 1b b8 3d
       -0.10007879 0.05212845 0.1253948 0.08989634
000040 65 ab bb 3d b8 a6 5b 3e c6 e1 69 be 16 42 f3 bd
       0.0916355 0.21450317 -0.22840032 -0.11877839
000050 39 e0 10 bc 99 08 26 3d 74 5b 13 3e c7 0a fb 3d
       -0.008842521 0.040535543 0.14390355 0.12257915
000060 77 5b af 3d d6 8e 36 be 3e 72 53 3e 88 61 3e be
       0.085623674 -0.17827925 0.20649049 -0.18591893
000070 1f 36 65 3e 3e c6 a6 3d 5c c2 62 be b6 6d 0b be
       0.22383927 0.081432804 -0.22144455 -0.1361607
000080 ff e8 a6 3d 4a c8 13 be 9c 98 1d 3e 28 34 6c 3d
       0.08149909 -0.14431873 0.15390247 0.057666928
000090 9c 26 b6 3d f4 44 8f bd 8c 4d cd 3b e4 79 93 bd
       0.08894083 -0.06995574 0.006265348 -0.07200983
0000a0 fd de 19 3e 3a 09 68 3e 0f ec c6 3d a0 38 09 3e
       0.1502647 0.2265977 0.09712993 0.13400507
0000b0 f0 d0 c2 3d f9 d5 5f be fb 64 f2 3d f0 8f 7c 3e
       0.09512508 -0.21858968 0.11835667 0.24664283
0000c0 91 24 f0 3c 12 a9 83 bc a6 1b 5a be 66 73 2a 3e
       0.029314311 -0.01607183 -0.2129961 0.16645584
0000d0 12 61 0d 3d 98 ce d8 3d 25 c9 47 bd f5 c7 1f 3e
       0.0345164 0.1058628 -0.04877581 0.15603621
0000e0 7d 6a d4 3d e2 80 36 3d 70 b2 34 be d0 14 6d be
       0.103718735 0.044556506 -0.17646194 -0.2315247
0000f0 83 ce 81 3e 98 79 48 be 7e 0d 3d bd 2a 99 88 be
       0.25352868 -0.19577634 -0.046155445 -0.26679355
000100 37 c7 ad 3b f1 4e 54 bd c9 84 3f 3e a2 22 9e bd
       0.0053032893 -0.051833097 0.18702997 -0.077214494
000110 43 cc ae 3d 62 55 bd 3d 07 22 47 3e be 97 77 be
       0.085350536 0.09244801 0.19446574 -0.24178979
000120 89 3b 39 be a2 97 83 be bc 27 1c be d5 6f 85 3b
       -0.18089117 -0.25701624 -0.15249532 0.0040721693
000130 06 d0 20 3e 18 2e aa 3d e6 5b 16 3e 8a 81 6c 3d
       0.15704355 0.08309573 0.14683494 0.057740726
000140 fe 42 2d 3d 08 25 26 3d 9e f6 fb 3d 20 d8 3c bd
       0.042300217 0.04056266 0.12302898 -0.04610455
000150 67 65 ee 3d d6 63 9a bc 1c 67 8d 3d 2c 4d 86 3d
       0.11640435 -0.018846434 0.06904432 0.06557688
000160 74 59 60 3e 3b 43 3e 3d 39 82 0b 3e 53 13 50 3d
       0.21909124 0.046450835 0.13623895 0.05079968
000170 84 c9 9d 3d c8 9a 07 3e ee 5f 4a 3e 07 41 8d 3d
       0.07704452 0.13242638 0.19763157 0.068971686
000180 32 7b 62 3e 4a 55 10 3d 6c 59 59 3d 82 76 e9 bd
       0.22117308 0.035237588 0.053063795 -0.11399557
000190 00 c2 72 3d 61 6c 26 3e b8 52 4b 3e 6e ef 2f 3e
       0.059267044 0.16252281 0.19855773 0.17181179
0001a0 b5 dd 82 3d 55 c5 68 3e 9a c9 65 bd b2 e4 7d be
       0.063899435 0.22731526 -0.056100465 -0.24794272
0001b0 f9 b9 25 3e ce 70 5c be 30 f6 4a 3e a9 40 78 be
       0.16184224 -0.21527407 0.19820476 -0.24243416
0001c0 4c 97 84 be 6d 1a 9b 3d 11 71 66 3d 9c de 37 be
       -0.2589668 0.075734 0.056260172 -0.17956012
0001d0 50 81 45 3e 0b 44 c8 3d a9 9b 85 be d6 af 8e 3d
       0.1928761 0.09778603 -0.26095322 0.06967132

weight f4 [120, 120]
000000 42 e4 60 3d 62 74 2b 3c 41 32 bf be 7f 99 b5 3d
       0.054905184 0.01046476 -0.37343028 0.08867168
000010 ea 37 4d 3d 40 5f 44 be c0 93 7d 3e 6a 3f ec 3b
       0.050102152 -0.1917696 0.24763393 0.007209708
000020 38 02 a7 bc 4c 2e 29 bd 72 13 cc bd 03 b8 22 3e
       -0.0203868 -0.041303918 -0.099646464 0.15890507
000030 60 90 e4 3d 9d b0 f1 3c 96 96 3f 3d f0 d1 a5 bd
       0.1116035 0.029503161 0.04677447 -0.08096683
000040 88 45 5a be 2d 35 59 3d dc 69 76 bd 5d 49 a5 bd
       -0.21315587 0.053029228 -0.06015955 -0.080706336
000050 3f e6 11 3e 93 5d 10 3b de 2b 0e 3e 7b aa a4 bc
       0.14247988 0.002202843 0.13883922 -0.020100823
000060 5b 5e 32 3e 78 bd 99 3d 73 2b be bd 60 2f ca 3c
       0.17418806 0.075068414 -0.09285631 0.024680793
000070 85 3b e9 3d 39 49 74 bd 6c 07 57 3d 65 62 de be
       0.113883056 -0.059640143 0.052497312 -0.43434444
000080 9c 97 31 be 90 e6 9e 3b fa be 2b 3d 24 dc fa bd
       -0.1734299 0.0048492625 0.041930176 -0.1224902
000090 e7 a0 bd 3d e9 68 af 3e 99 45 6c 3e 0d e3 83 bd
       0.09259205 0.34259728 0.23073424 -0.06439791
0000a0 04 6e 98 3c 19 ed b6 3d d1 02 e7 3d 34 d5 67 bd
       0.018607147 0.089319415 0.11279834 -0.05659981
0000b0 89 fe 41 3d 53 6c 7f bc 23 cb b8 bc d5 4d 51 bd
       0.047361884 -0.015589791 -0.0225578 -0.051099617
0000c0 70 9c be 3e 95 23 67 bd 30 9a e3 3b b2 e3 52 3e
       0.37228727 -0.056430418 0.006945871 0.20594671
0000d0 d6 06 32 3d 0c 62 a0 3c cf d6 6f 3e 6f ce 19 bd
       0.04346355 0.019578002 0.23421787 -0.037550386
0000e0 75 48 c6 3d 04 0d 8f bd 20 2e ce 3c 02 40 9e bd
       0.09681789 -0.069849044 0.025168478 -0.07727052
0000f0 a0 ae af 3d c3 9d f8 3c 1a 9b 86 3e 18 e2 13 3d
       0.08578229 0.030348664 0.26290208 0.03610429
000100 76 12 d7 3d a0 2f b0 be 3d b4 a8 bd 22 fc 41 be
       0.10501568 -0.34411335 -0.08237503 -0.18943837
000110 1b 08 ac 3d e0 b6 68 3d dd 71 22 bc c0 d5 ab ba
       0.083999835 0.05681503 -0.009914842 -0.0013109967
000120 f9 24 8f 3d 04 b5 8f bc 5e 76 5f bd 04 30 97 3e
       0.06989474 -0.01754237 -0.054556243 0.2952882
000130 17 ac 9f 3d 15 cf 85 3c 7a 0a ef bb aa 15 27 3e
       0.077964954 0.016334096 -0.00729495 0.16316858
000140 54 cc 74 be 64 07 b8 3d df be 9f 3d 8c 62 3b 3e
       -0.2390607 0.08985785 0.07800078 0.18299311
000150 91 64 1b bb 43 c1 80 3e 30 5d f5 bc 0a 88 91 bd
       -0.0023711065 0.25147447 -0.029951662 -0.071060255
000160 7c 11 9a 3c 1a 23 17 be ad d8 8f 3d 0e 5b ec 3d
       0.018807165 -0.14759484 0.070237495 0.11540805
000170 88 7a 43 3d 7b c8 0f bd 03 39 f4 3c cd 28 d8 3d
       0.047724277 -0.035103302 0.029812342 0.10554657
000180 9c 67 b1 bc e9 7d 4c 3c 62 a2 fe bb 08 e6 95 3d
       -0.02165585 0.012481191 -0.0077708224 0.073192656
000190 2e 75 b4 3d f1 9e dd bc 82 97 35 be 05 e4 bd 3d
       0.08811413 -0.027053328 -0.17733577 0.09272007
0001a0 16 33 dc 3d 29 ff 2a 3d 2b 87 d1 3e a5 aa 13 3d
       0.10751931 0.041747246 0.40923437 0.03605141
0001b0 55 78 27 3d 40 ed 21 bd 95 66 0d 3e 04 bb f6 bc
       0.040886242 -0.0395329 0.13808663 -0.030118473
0001c0 95 a4 18 bd e5 93 6d 3d f4 75 1e be 38 8a 25 3d
       -0.037266333 0.05800237 -0.15474683 0.04041502
0001d0 ff 8d ba bd 2e 19 b3 3d c2 b2 aa 3d ae 3d 08 bd
       -0.09109115 0.08745037 0.083348766 -0.033261947
0001e0 ca 69 92 bd 52 95 17 3d 57 d6 94 be 79 57 04 3e
       -0.07149084 0.037007637 -0.29069778 0.12923993
0001f0 6d ea 27 3d 25 4f 19 3d 6f c5 c3 3d ba 66 1e 3c
       0.04099505 0.037428994 0.09559142 0.009668047
000200 90 11 2f 3d db 74 8a 3d 40 03 1b bd ae 5f 09 3e
       0.04274136 0.0676057 -0.037844896 0.13415405
000210 5d 97 96 3b 32 5c e2 3d ca 55 2f 3e b1 44 e3 bd
       0.0045956806 0.11052741 0.1712257 -0.11097086
000220 07 13 91 3c 5b 4a b4 3c f8 37 c2 3d dc f2 9b bd
       0.017709268 0.022008112 0.094833314 -0.07614681
000230 38 55 8c 3d c2 7d 77 bd 97 99 ac bd 85 8f 86 bd
       0.06852192 -0.060422666 -0.084277324 -0.06570343
000240 22 cf b6 3d 8a 81 f8 bc 1e 1c 0b 3e 60 0f 9d 3c
       0.08926226 -0.030335207 0.13584945 0.01917237
000250 73 18 83 3d d7 34 ca 3c 99 60 0b bd 37 db fd bd
       0.06401148 0.0246834 -0.03402767 -0.123953275
000260 2f f8 ac 3d e4 b4 99 bd d8 41 f8 3c d6 45 ea bd
       0.08445775 -0.07505205 0.030304834 -0.114391014
000270 d5 f6 93 3c 5f a9 b6 be 3c c2 cd b8 ca e4 38 3d
       0.018062035 -0.35676095 -9.811341e-05 0.045140065
000280 73 be 5f 3d f3 8d d9 3d 02 c2 ae 3c de da ab 3d
       0.054624986 0.10622778 0.021332745 0.08391355
000290 7f e2 97 3d a6 4f 50 3d 1b aa 75 bb 20 37 01 3d
       0.074162476 0.05085721 -0.0037485424 0.031546712
0002a0 a9 ec 29 3e ad 3f 51 3a c6 2b a9 3d 00 93 87 3d
       0.16594185 0.0007982206 0.08260302 0.06619835
0002b0 1d c2 8c bd a4 0c 58 3d e0 86 ac 3e 1a 49 d3 3d
       -0.06872962 0.05274643 0.3369665 0.103166774
0002c0 6a 42 89 3d f7 0b b9 bd 80 df 54 3d 4f 19 79 3c
       0.067021206 -0.09035485 0.05197096 0.015203788
0002d0 25 f0 27 bb b2 f0 16 bc 39 7d 13 be f4 6a 80 bd
       -0.0025625315 -0.00921266 -0.14403237 -0.062704
0002e0 4a 9e f9 3d 28 f0 fa bd 07 13 50 3d 39 62 b0 3c
       0.12188394 -0.122528374 0.050799396 0.021531211
0002f0 2a 7e 69 be d1 f5 10 3d 54 a3 20 3d 1c c3 2c 3d
       -0.22802034 0.03539068 0.03921826 0.04217826
000300 0b 4d 4c bb 2e e6 eb bc 38 d6 af 3c 68 ca 7d bd
       -0.003117385 -0.028796282 0.021464452 -0.061960608
000310 1d 9c 79 bc 80 5f 00 ba dc 58 61 3d 7c ba bf 3d
       -0.015234974 -0.0004897043 0.055016384 0.09361741
000320 56 8f e2 bd 6a 54 57 bd 18 db c4 3c 3f c0 94 3e
       -0.110624954 -0.052570738 0.024030253 0.29052922
000330 42 73 18 3d 52 3d 7e 3d 74 4d 56 bd 5b 30 0d 3e
       0.037219293 0.0620702 -0.05231996 0.13787977
000340 1d df 1e 3e 5e c1 ee bd 71 21 96 bd bf 85 9e bd
       0.15514798 -0.116579756 -0.07330597 -0.07740354
000350 3f 9f 1f 3d 64 36 78 3d 76 47 b3 bd 4a 4e 0c 3e
       0.03897023 0.060598746 -0.087538645 0.1370174
000360 87 c9 a4 3d ac e3 26 3e e5 c7 40 be 70 a8 42 3d
       0.08046251 0.16297787 -0.18826254 0.047523916
000370 52 f3 93 3d 68 9b 9e bd ce 28 11 be 30 1d ab bd
       0.07224144 -0.07744485 -0.14175722 -0.083551764
000380 21 ca 96 3d b6 52 13 3e 20 8f 1b 3c 30 8f 96 bd
       0.07362772 0.1438702 0.009494573 -0.073515296
000390 66 91 e1 bc 5b 1f 4f 3d 9f d3 4a bd 98 4f 6b 3d
       -0.027535152 0.050567012 -0.049518224 0.057448953
0003a0 3c a0 9b 3d 5b fa 88 3d e8 c5 ce 3d 90 17 fd bc
       0.07598922 0.066883765 0.10096341 -0.030895025
0003b0 35 02 62 3d 95 58 e9 bd b2 08 99 bd 0c e7 7f 3d
       0.055177886 -0.11393849 -0.074723616 0.062476203
0003c0 07 58 85 3d c4 b0 5f bd fc b5 3d 3d 40 c1 c7 bd
       0.065109305 -0.054611936 0.046316132 -0.097536564
0003d0 3e 7e da bc a3 fc d0 3c d5 ff 05 bd 92 79 07 3d
       -0.026671525 0.025511092 -0.032714684 0.033074923
0003e0 4a 61 8e bd b1 c0 d2 bd b0 65 88 3d ff b0 a3 bd
       -0.0695215 -0.10290659 0.0666002 -0.07992744
0003f0 e6 d1 8d 3c 7a 6c d7 3c 2f cd 46 bd c6 60 17 bd
       0.017312001 0.026296843 -0.048535522 -0.036957525

bias f4 [120]
000000 3e ad 1d 3d d9 ac 6d 3d 8b fb 94 bd 2b 2c ca bc
       0.038495295 0.05802617 -0.072745405 -0.024679264
000010 10 63 85 3c 3a d9 b0 bc 3d 87 92 bd 6f 57 0d 3e
       0.016282588 -0.021587957 -0.07154701 0.13802885
000020 7d 6d 97 3c e3 d2 08 3d e8 80 d3 bc 71 e9 ab bd
       0.018484825 0.033404242 -0.025818303 -0.08394135
000030 2d e8 10 bd 66 fe 85 3d 26 e0 cd b9 ed 41 73 bc
       -0.03537767 0.06542663 -0.0003926765 -0.014847261
000040 60 54 8f bd f6 d7 88 bc 55 f6 3a bd 50 65 c8 3d
       -0.06998515 -0.01670454 -0.045645077 0.09784949
000050 92 b2 46 bd 28 5f 8b bd 04 8e 00 3c e1 1c 4b 3d
       -0.04851014 -0.06805259 0.007846359 0.049588088
000060 6a 07 e5 3b ec fc 61 bd a4 c2 f5 3d 1b 4c 66 bd
       0.006989409 -0.055172846 0.120000154 -0.056224924
000070 b3 a2 26 3d ac 7b 95 bd a1 12 91 bc e6 f7 a5 ba
       0.040682506 -0.07298979 -0.017709078 -0.001266238
000080 e8 48 65 3d 7a 7c ff bc 58 65 fd 3d 33 2b 77 3d
       0.055977732 -0.031187285 0.123728454 0.060343932
000090 12 96 28 3b 53 8a c2 3d 11 3e a7 3d 2f ee 02 3d
       0.0025724215 0.094990395 0.08166135 0.03196543
0000a0 32 fa 32 3d 00 3a 12 bc 89 ab c2 3c d7 a8 4a 3d
       0.043695636 -0.008924961 0.023763435 0.049477424
0000b0 1d e8 f9 3c 1d 64 87 3d 72 26 36 bc 40 09 20 bd
       0.030506188 0.06610892 -0.0111175645 -0.03907132
0000c0 8c c0 bb bd db e0 ed bc 39 aa 30 3d 48 85 53 bd
       -0.09167585 -0.029037884 0.043131087 -0.05164078
0000d0 ab a9 47 bc ba b4 05 3e 39 c8 4d 3d ea 56 62 3d
       -0.012186448 0.13057223 0.050239775 0.05525867
0000e0 1d f2 8d 3d da 17 5c 3d 0e 23 1f bd d9 46 7e bd
       0.06930945 0.053733684 -0.03885179 -0.062079284
0000f0 43 03 61 bd c3 f7 3e bd f9 2b c3 bc 34 46 5d bb
       -0.05493475 -0.046623003 -0.023824679 -0.0033763768
000100 d2 dc 06 bd e7 e8 86 3d 50 06 55 3d 5b 1a df 3c
       -0.032925434 0.06587391 0.052007973 0.027234247
000110 dd 1b cb 3d 98 a6 d4 ba 52 76 e2 bc 58 11 87 bb
       0.09917424 -0.0016223965 -0.02764431 -0.0041219406
000120 84 fd 83 3d 38 d0 b9 38 cf bd 82 bd 32 7a bd 3c
       0.06444839 8.860271e-05 -0.06383859 0.023129556
000130 80 75 9e bc 5c db da ba 8f f0 67 bc 1e 57 9f bd
       -0.019343138 -0.0016697454 -0.014156475 -0.07780288
000140 c2 d3 b0 bd 95 8d a2 bd 38 11 cf bb 98 6e 6a bd
       -0.086341396 -0.07937161 -0.0063191913 -0.057234377
000150 23 6d f9 3c 9b a6 b4 bd 1d 1c c2 3d 98 cd 93 bc
       0.030447548 -0.0882084 0.094780184 -0.01804237
000160 91 96 36 3d 3f d6 31 bd d0 71 84 3c a5 a7 3e 3d
       0.044577185 -0.04341721 0.016167551 0.046546597
000170 1d 9c 06 bd 77 6e bb 3c 6b 35 81 bd d0 ae d2 3c
       -0.032863725 0.022879822 -0.06309017 0.025718123
000180 34 03 07 3e 12 62 ff 3d db 8f 83 3c 80 bf 1e ba
       0.13184816 0.12469877 0.016059807 -0.00060557574
000190 9f d6 a4 3c ea fe ca 3c 8f 6f 84 bd 3b c4 d4 bc
       0.02012187 0.024779756 -0.064665906 -0.025972476
0001a0 cd 75 7f 3d 3e c4 e8 3d 08 e6 3e bd 32 2e 5e bd
       0.062368203 0.11365555 -0.046606094 -0.054243274
0001b0 40 c6 7a 3c ee 5d 63 3c bb 0e b0 bd fa e6 29 3e
       0.015306056 0.013877375 -0.085965596 0.16592017
0001c0 84 db df 3d 1b 4d 87 3d fe 71 59 3d 82 6e 5f bd
       0.10930541 0.066065036 0.053087227 -0.054548748
0001d0 ac 7b 00 3e cf 99 77 bd 11 34 a6 3c 73 43 b9 bd
       0.12547177 -0.060449418 0.0202885 -0.09046068

weight f4 [120, 120]
000000 20 5e 8e 3c 2e 0a d1 bd 0b 61 78 3d 60 75 a2 3c
       0.017378867 -0.1020702 0.060639422 0.01983136
000010 70 f9 c5 bd df 0a 0a bd 28 1b 97 bd 2a a1 36 be
       -0.09666717 -0.033701774 -0.073782265 -0.17834917
000020 f7 56 7c be fd 70 96 3c b7 b5 29 be e8 01 af 3c
       -0.2464255 0.018364424 -0.16573225 0.021363214
000030 7a 82 1b 3d d3 98 06 be 2b 78 e1 bc cd 3f 18 3b
       0.03796623 -0.13144235 -0.02752312 0.0023231388
000040 fc 26 b7 3d ad c2 01 bd 00 8e 67 bd 40 46 b8 bd
       0.089429826 -0.031679798 -0.056531906 -0.08997774
000050 b8 93 65 be 30 a6 ad 3d 51 78 bb 3d c9 68 26 3c
       -0.22419631 0.084789634 0.09153808 0.010156819
000060 c6 2a 29 be 0e 3f d5 3c 71 f9 e0 bd ee b6 77 bd
       -0.16520223 0.026031043 -0.10985077 -0.06047719
000070 34 7f 81 be 35 c6 3c 3c ce cd 65 3d 4f b7 cf bd
       -0.2529236 0.011521866 0.056104474 -0.10142385
000080 bb 82 14 be c9 46 28 3e 88 de 51 bd ea 76 37 be
       -0.14502995 0.16433252 -0.051237613 -0.17916456
000090 c3 3a 1a 3d ea 63 cd bd 0f 1e 8d bd 1c 98 10 3d
       0.037653696 -0.10028823 -0.06890499 0.035301313
0000a0 d6 57 10 be 10 06 23 be 47 ac 0b bd 80 7d 8f 3d
       -0.14096007 -0.15920281 -0.034099843 0.07006359
0000b0 78 df 81 3d f3 17 79 3d 10 26 01 3e 73 fe e3 bc
       0.063414514 0.060813855 0.12612176 -0.027831292
0000c0 b0 75 c8 3e 0b 99 1f bd ef 68 20 be e3 5a ed 3e
       0.39152288 -0.038964313 -0.15665029 0.46358404
0000d0 4a 1b 30 3d f9 90 a3 3b 47 54 93 bc 02 9d 51 3d
       0.042994775 0.0049916473 -0.017984523 0.051175125
0000e0 1b 32 02 bd ce c8 05 be 60 b5 43 3d 6a 25 9e bd
       -0.031786066 -0.13064882 0.047780395 -0.0772198
0000f0 68 79 3b 3c 2d 2a de bd aa ba 99 bd b6 84 af bc
       0.01144252 -0.10847888 -0.075063065 -0.021425586
000100 68 1f a7 bd bf f7 10 3e 9c 00 ec bd d3 08 79 3d
       -0.08160287 0.14157008 -0.11523554 0.06079943
000110 a0 b2 0b be e2 0a 83 be 81 cb b5 bd af d6 22 3e
       -0.13642359 -0.2559424 -0.08876706 0.15902208
000120 7e f3 5f 3d fb 6b c7 bb 91 24 56 3d 2b 02 4e 3e
       0.05467557 -0.0060858703 0.052280966 0.20118015
000130 37 d1 96 bd eb 1c 4c bd 6a 72 87 3c ca 10 b7 3c
       -0.07364123 -0.049832266 0.016534049 0.022346873
000140 da 66 6f bd 32 18 b6 38 3e ee f7 bd 0f d9 06 bd
       -0.058447696 8.682943e-05 -0.12105988 -0.032921847
000150 f7 c5 44 bd 60 1c 57 bc 69 1e 85 3d 7f b4 b5 bd
       -0.048040356 -0.013129324 0.06499941 -0.088723175
000160 c6 29 5e 3d 3e 7b 93 bd 13 0f 11 bd 44 03 ad bc
       0.054239057 -0.07201241 -0.035414767 -0.021119721
000170 9a 9e ae 3d 66 34 73 3d bd 02 04 3d 72 ba 53 bd
       0.085263446 0.059376143 0.032229174 -0.05169148
000180 16 a1 f1 bd 3d 98 e3 bd 89 67 99 3d 42 b1 9d 3d
       -0.11798303 -0.111130215 0.07490451 0.07699825
000190 39 c7 6a ba d2 e2 6d be 99 a8 a0 bc aa f8 1a be
       -0.0008956078 -0.23231056 -0.019611644 -0.1513392
0001a0 f0 61 b0 bd 2b 79 db 3c cc ff 94 3d 43 d1 97 3e
       -0.0861243 0.026791176 0.07275352 0.29651842
0001b0 6b 12 20 be 3e 92 0e 3d 1c b9 f0 3c 6a 7f 44 bd
       -0.15632026 0.034807436 0.029385142 -0.047973074
0001c0 c6 6a 16 be 6f d4 4e b9 6d d1 d6 bc 51 fb 2e 3e
       -0.14689168 -0.00019724829 -0.026222909 0.17088057
0001d0 44 8a aa bd 64 4a d5 3c f5 33 5f bd ce 88 0c bd
       -0.08327153 0.026036449 -0.05449291 -0.034310155
0001e0 78 26 2d 3c fb 22 7f bd f8 23 09 3d 26 80 b3 bd
       0.010568254 -0.06228922 0.033481568 -0.08764677
0001f0 6a 33 7d bd a7 7d a4 3d 00 08 07 3d c3 9e bf bd
       -0.06181661 0.08031779 0.032966614 -0.09356453
000200 3b 98 0a 3c 5e a2 ab bc f6 df 3d bd 1c 3a aa bd
       0.008459146 -0.020951446 -0.046356164 -0.08311865
000210 50 f6 13 bd 35 31 a6 bd 25 bb 40 3d ba f9 b6 3c
       -0.036123574 -0.08114854 0.047053475 0.022335876
000220 00 db 4e 3c 5d b0 4a bd af 13 6e bd 7b f3 39 3c
       0.012625456 -0.0494846 -0.05812424 0.011349554
000230 2c c1 ce 3d 2c 79 e8 3c 95 49 0e be 6d e1 c1 bd
       0.10095438 0.028378092 -0.13895257 -0.09466825
000240 c5 95 bc 3d 97 87 69 bb 9a bf a4 bd 1c 0b 2f be
       0.09208254 -0.0035633796 -0.080443576 -0.17094082
000250 82 bd c7 3c 3c 0b ac bd 4d 90 aa 3d f1 b5 08 3c
       0.024382357 -0.0840058 0.083283044 0.008344159
000260 97 43 6f bd f7 a4 5d be b7 5f ec bc 99 88 e2 bc
       -0.058414068 -0.2164496 -0.028854234 -0.027653025
000270 c1 80 b9 bc bd 01 4b bb 56 9a 96 bd 31 fc 7c bd
       -0.022644402 -0.0030976378 -0.07353656 -0.061763946
000280 85 2c a2 3d 9e a1 aa bc 7c 47 8a 3d 2e 82 25 bd
       0.07918648 -0.020829018 0.06751916 -0.040407352
000290 8f b6 86 bd 77 d3 42 bd 06 36 95 bc 5a 98 72 3c
       -0.06577789 -0.04756495 -0.018214237 0.014806831
0002a0 97 60 53 3e 7b ba 9c 3d 9c 26 98 bc c2 8f 0d be
       0.20642315 0.07652756 -0.018573098 -0.1382437
0002b0 8e c7 5d bc b9 62 fc bc 1f 0e ae bd 80 fb 14 be
       -0.013536347 -0.030808793 -0.08498787 -0.14549065
0002c0 51 69 a3 bd 74 d7 ca 3d be a2 65 bd 77 37 2e bd
       -0.07979072 0.09904376 -0.056063406 -0.042533364
0002d0 f0 95 b6 3d 96 35 55 be 43 3f 89 3d 4f a5 98 bd
       0.08915317 -0.20821223 0.06701519 -0.07453405
0002e0 d5 68 c6 3c ab cd da 3b ff cc 15 be d5 00 2c be
       0.02421991 0.0066773496 -0.14628981 -0.16797192
0002f0 f6 59 bd 3c 3b 8d 0f 3e 73 51 4a be 80 9e 58 3b
       0.023114186 0.14018719 -0.19757633 0.0033053458
000300 50 45 86 bd e8 42 03 be 6e e9 b7 bd 7e f1 0e be
       -0.06556189 -0.12818491 -0.0898007 -0.1395931
000310 4c 45 85 bd 57 14 8b 3d 28 b9 93 be 9f c2 a2 bd
       -0.06507358 0.06790989 -0.288522 -0.07947277
000320 e3 28 91 bd c9 76 68 bd 18 89 23 3e 92 47 a5 3d
       -0.07087877 -0.056753907 0.15970266 0.080702916
000330 51 11 ca 3d 8b a4 1e bd 0e e3 8e 3c 7a 12 80 3d
       0.09866584 -0.03873114 0.017442252 0.06253524
000340 cf 40 a8 3d 5f be c9 bb c4 b3 3f bd a5 d2 53 bd
       0.08215486 -0.006156727 -0.046802297 -0.05171456
000350 9b ae 9f bd 9f 44 18 3b 20 c3 00 bd 7c b9 ef bd
       -0.07796975 0.002323426 -0.031436086 -0.117053
000360 93 c3 6f bc 7a 9e 98 3d 7f 13 82 3d 12 7a 17 bd
       -0.014634031 0.07452102 0.06351375 -0.03698165
000370 fd f0 60 bd 3f 3b 0a 3e 53 b1 51 3d 30 fe 29 38
       -0.054917324 0.13499163 0.0511945 4.052947e-05
000380 da 02 c8 bd 7a b0 90 bd 9b b5 54 bd 17 1b 32 3e
       -0.09766169 -0.0706491 -0.051931005 0.17393146
000390 30 54 fd 3d 16 fa a4 bd 43 6b 61 bd 42 cd 68 3c
       0.12369573 -0.080555126 -0.055033933 0.0142090935
0003a0 99 0c f0 3d 1c ad 85 bd ea 1e 85 bc 6a db 1e be
       0.11721153 -0.065271586 -0.016250093 -0.15513387
0003b0 7a 26 c7 3d 01 dc 0e bd d4 96 c8 3d e9 54 9a 3b
       0.09724136 -0.03487778 0.09794393 0.004709829
0003c0 ca 2c 8e bb 28 d9 d2 bc 54 88 a0 bd 2f 03 7d bd
       -0.0043388354 -0.025738314 -0.078385025 -0.061770614
0003d0 ee 2b 6d be d4 ba 86 bd e9 ea 7c 3d 97 df d9 ba
       -0.23161289 -0.065786034 0.061747465 -0.0016622421
0003e0 90 bf f2 3d 2a 4f 32 3b de 57 a3 bd 7e 5f 15 bd
       0.11852944 0.002720783 -0.07975744 -0.03646802
0003f0 2d 2b 6f bd 38 57 a0 3d 5a ce d9 bd 4c 64 7c 3d
       -0.058390785 0.07829136 -0.106350616 0.061619088

bias f4 [120]
000000 85 eb 10 be 92 af 4d 3c df 0b b7 bd ab 2f a9 bd
       -0.14152344 0.012554066 -0.08937811 -0.08261045
000010 11 48 84 bd cd a7 2c bc 1f d7 b5 3c ad 5f 81 bc
       -0.06459058 -0.010538054 0.022197304 -0.015792692
000020 a0 78 13 bd e3 b4 96 bb 47 bb 84 bd 4a 2b e1 bd
       -0.03600371 -0.0045992 -0.06481033 -0.10994585
000030 7f 4f 3b bc 24 34 10 bd 73 78 78 3c 16 3e a5 bd
       -0.011432528 -0.035205975 0.015165436 -0.080684826
000040 84 f4 1d bd 01 e1 a9 bd 78 63 23 39 a3 d4 80 bd
       -0.038563266 -0.08294869 0.00015581946 -0.06290557
000050 84 49 b4 3b 49 4d aa 3c e0 c4 e6 3c d6 50 ad bc
       0.005501928 0.020788806 0.02817005 -0.02115671
000060 e1 0a 44 bd 8c 42 f3 bc 1b 5d c3 bd 51 b8 99 bc
       -0.047861937 -0.029694818 -0.09539243 -0.018764647
000070 fb 3e 23 be 3d ae 59 3d 9a fc bb 3c ec b3 a5 bd
       -0.15941994 0.053144682 0.022947598 -0.08090958
000080 41 fa 3d 3d d6 73 20 3d 58 50 04 be 7e 40 30 bd
       0.04638124 0.03917297 -0.12921274 -0.043030255
000090 2b 0e 3b bd 17 ea 12 bd 1c 75 65 bd f8 30 e6 bd
       -0.04566781 -0.035867777 -0.056019887 -0.11239809
0000a0 09 c2 51 3c 59 17 7e bd a6 4b c5 bc b7 87 99 bd
       0.012802609 -0.062033985 -0.024083924 -0.07496589
0000b0 c6 43 c2 bd 71 e2 cd bc b6 00 6c bd 9d 57 ba bd
       -0.09485583 -0.02513239 -0.057617866 -0.09098742
0000c0 60 28 31 3d dd a8 ea bd 6a 0c b3 3c 2f fe f1 bd
       0.043251395 -0.11457989 0.021856505 -0.1181606
0000d0 20 8e 17 3d c4 4e 29 bd c9 b8 30 bd b6 7e b6 bd
       0.037000775 -0.041334882 -0.043144975 -0.08910887
0000e0 95 7a b8 bc f8 c6 5e 3d 8f b7 c9 bd fe 31 38 3c
       -0.02251939 0.05438897 -0.09849464 0.011242388
0000f0 56 e7 77 3c 63 57 7a bd c2 31 ff bd 7b 21 66 3c
       0.015130838 -0.061118495 -0.124606624 0.014046068
000100 e4 71 0c be e2 b1 cd bd 26 33 26 3d 3f 62 e9 bd
       -0.13715321 -0.10043694 0.040576123 -0.11395692
000110 4f c9 48 bd 16 c8 03 bd 02 2a a0 bd 78 f8 25 bc
       -0.049020108 -0.03217324 -0.07820512 -0.01013004
000120 16 87 0c 3b ee 6e ce bc 6f a7 f0 bd 85 b8 eb bd
       0.0021442822 -0.02519938 -0.117506854 -0.11509804
000130 fc 97 a4 bd 0e d5 2c 3c 2f 06 a3 3c 37 55 95 bd
       -0.08036801 0.010548843 0.01990041 -0.07291644
000140 35 75 65 bc 66 bc 82 bd 16 6f ee bd 74 d6 b1 bd
       -0.014004995 -0.063835904 -0.11642282 -0.08683482
000150 e0 54 dd 3c b5 93 01 3d 44 9b ee bd 75 f7 9c bd
       0.02701801 0.031635005 -0.11650708 -0.07664386
000160 94 55 fc bd 01 97 cd 3c ad b6 e9 bb 84 f6 29 bc
       -0.1232101 0.025096418 -0.0071323724 -0.010373715
000170 1e 40 cd bd b2 21 14 3d dd 1b cd bd 8b c1 15 be
       -0.10021995 0.036164947 -0.1001508 -0.14624612
000180 e4 5f 0e bd 85 03 95 bd 0e a2 df bc b4 d0 f5 bd
       -0.034759417 -0.07276062 -0.027298953 -0.120026976
000190 b0 e7 4d 3c b6 18 b6 bd 8b cb 04 be df d2 f8 bd
       0.012567446 -0.08891432 -0.1296827 -0.121495955
0001a0 d8 79 f3 b9 30 59 6a 3d 78 ca 0c 3c 82 5c c1 bd
       -0.00046439352 0.057213962 0.008593194 -0.094414726
0001b0 06 54 6b 3c e0 b1 dc bd e7 7c ca bd e6 d0 4c 3c
       0.0143632945 -0.107761145 -0.098871045 0.012500977
0001c0 c8 14 c0 bd 67 7f af 3b c8 82 14 3d dd 9f 09 be
       -0.09378964 0.0053557637 0.036257535 -0.13439889
0001d0 23 08 89 bd 9d ac b6 bc d9 01 c5 3c 70 93 9a 3a
       -0.06691005 -0.022299105 0.024048733 0.0011793207

weight f4 [14, 120]
000000 ac 8d c8 bc 35 ef 68 3d 7d fb ad bd 05 57 10 3d
       -0.024481617 0.05686875 -0.08495233 0.03523924
000010 79 b5 1a bd fb 7c 25 bd b9 c6 b3 bc 41 36 4c bd
       -0.037770722 -0.040402394 -0.021945344 -0.049856428
000020 a2 e2 c1 3d 92 24 62 bc 54 6d 2e 3d c6 42 51 3c
       0.09467055 -0.013802664 0.042584732 0.012772268
000030 7d 2e f9 bc d6 8d 3f 3d d2 e4 04 3d aa 02 31 3d
       -0.030417675 0.046766125 0.032444783 0.04321543
000040 7b a0 59 bd e3 7c 5a 3d 33 10 ae bd c1 57 ad 3d
       -0.05313156 0.053341758 -0.084991835 0.08464003
000050 35 08 77 3d 4f 0b 62 3d 27 cd 26 bd 52 3e ff bc
       0.06031056 0.055186566 -0.040722992 -0.031157646
000060 ae 89 94 3c 79 d8 85 bd b4 33 6f 3d c0 3a 82 bd
       0.018132057 -0.065354295 0.058398917 -0.06358862
000070 63 9a 1a bd 90 8d 46 3d c1 76 9c bd 19 9f 85 bd
       -0.03774489 0.04847485 -0.07639838 -0.06524486
000080 49 4e aa 3d b9 ad 0b bd d3 0c c8 3d 7f 71 05 3d
       0.08315713 -0.03410122 0.09768071 0.03257894
000090 96 e6 62 3d 51 6b b5 3d 55 1e 91 3d 2d 39 3b bd
       0.055395685 0.088583596 0.070858635 -0.045708824
0000a0 24 45 21 bd df c3 e0 bd a8 8a 92 3c 82 4c 37 3c
       -0.03937258 -0.109748594 0.017888382 0.0111876745
0000b0 a2 0a 17 3d 2f 32 89 bd a1 57 7b 3d 6e 98 84 bc
       0.036875375 -0.06699025 0.061362866 -0.016185965
0000c0 49 65 4f bd 64 fc a5 3d 97 80 e2 3d a6 d8 88 3d
       -0.050633702 0.0810478 0.11059683 0.066819474
0000d0 5f 2e 54 bc b4 75 a9 3c 3a 77 b7 bd 2f e3 39 3d
       -0.012950509 0.020686008 -0.089582875 0.045382675
0000e0 36 bf 9f bd 24 79 89 3d 30 32 ad 3d fa eb 90 bc
       -0.078001425 0.06712559 0.08456838 -0.017690647
0000f0 57 28 9b 3d b0 59 55 bd c3 ca 52 bd 33 73 22 3d
       0.075760536 -0.052087486 -0.0514629 0.039660644
000100 ae 98 6d bd 6f 69 da 3d ad eb 84 bd 6d 81 ff bc
       -0.058006935 0.10664641 -0.06490264 -0.031189645
000110 72 7a 5b 3b fe ac 87 3c 81 bb 86 bd fe 7d 80 bd
       0.003348973 0.016561981 -0.06578732 -0.06274031
000120 3c 7c d4 bd 1f 97 a5 3c c6 55 61 bd e8 78 83 3d
       -0.10375258 0.020213662 -0.05501344 0.064195454
000130 89 85 69 bd 1e 97 99 3d 46 44 03 3d 9a f5 d3 3c
       -0.057012115 0.074995264 0.032047532 0.025873948
000140 ec 44 8f bd 08 bb 40 3c ea 57 48 3d f2 7d 1b 3d
       -0.06995568 0.011763342 0.048911966 0.037961908
000150 13 95 95 bd b9 3d 1d bd 98 f8 4e bc 40 25 75 bd
       -0.07303824 -0.03838894 -0.012632512 -0.059849977
000160 9f 6a 05 bd 4a 9b b2 bc bf e7 45 3d 61 94 73 3d
       -0.032572385 -0.021802563 0.048316713 0.059467677
000170 e9 0e 6d 3d 6d bd 94 3d 31 ac b9 bd 80 99 52 bd
       0.057875548 0.072626926 -0.09066046 -0.05141592
000180 ca b1 42 bd be 94 aa ba ad 42 be bd 82 28 28 3d
       -0.047532834 -0.0013014299 -0.09290061 0.041054256
000190 17 3a 98 3d 54 2f c1 3d d8 6f 0c bd fc 09 9d 3c
       0.07432955 0.09432855 -0.03428635 0.0191698
0001a0 a3 54 46 3d 6e 90 93 3d c6 28 61 3c 72 d3 dc bd
       0.04842056 0.07205282 0.013742631 -0.107825175
0001b0 32 36 b6 3d 21 26 09 bd eb 62 b7 3c ea 1b 8f bd
       0.08897056 -0.03348363 0.022386035 -0.06987746
0001c0 2d d2 44 bd 21 d6 1c 3d 9a 9e 90 bd 86 4d 34 bd
       -0.048052 0.038290147 -0.07061501 -0.044019245
0001d0 de cc 88 3a e3 26 68 bd 57 f9 1e 3d db 2d 89 3d
       0.0010437032 -0.05667771 0.038812008 0.06698199
0001e0 95 7e 7f 3a c7 34 20 3d fc d8 bd 3d 17 89 77 3c
       0.000974634 0.039112832 0.09269902 0.015108368
0001f0 ce 7b da bd d9 2a a5 bd 53 5a a8 bd fc 64 a3 3d
       -0.10668145 -0.08064813 -0.08220353 0.079782456
000200 3e df de 3c e5 12 bb bc d2 ed 07 3d 4a 7a 3c 3d
       0.02720606 -0.022836158 0.033185787 0.04601506
000210 a8 0e c2 3d 3c 50 89 bd c4 12 b2 bd 82 65 89 bd
       0.09475452 -0.067047566 -0.086949855 -0.06708814
000220 ad 0b 1a bd 57 64 8a bc ed 67 69 bd 93 8e 1d 3d
       -0.03760879 -0.016893549 -0.056983877 0.038466047
000230 74 e5 39 bd a1 df 02 3d bd 3f 31 bd 92 4e 94 3d
       -0.04538484 0.03195155 -0.043273676 0.072415486
000240 75 10 1f 3d 66 74 cc bd 8a ef 2e bc 0a 96 bb 3b
       0.038834054 -0.09983139 -0.010677228 0.005724673
000250 ec d8 c8 3d cd e8 b6 bd 53 59 91 bd 30 4f df 3c
       0.098069996 -0.08931122 -0.07097115 0.02725944
000260 b6 08 82 3d fc 06 db 3d a9 1c eb 3c 5c 82 97 bd
       0.06349318 0.106946915 0.02870019 -0.07397911
000270 13 30 aa bd 52 0f a6 3d 2e 73 86 39 a9 20 75 bd
       -0.08309951 0.08108391 0.00025644287 -0.0598456
000280 2b 09 38 3d d8 8f ae bc 44 41 a5 3d a2 56 88 3c
       0.04493062 -0.021308824 0.08069089 0.016642872
000290 58 59 ab bb a5 d3 a4 bd a0 2e c0 3d 4c 86 1d bc
       -0.0052291565 -0.080481805 0.09383893 -0.009614538
0002a0 6c 75 f3 bc 35 d9 5c bc ae 60 5a 3d d3 02 e9 bc
       -0.029719077 -0.013479521 0.053314857 -0.02844373
0002b0 5f 12 17 3d c8 48 9c 3c d9 99 d3 bd d4 9e 31 3d
       0.036882754 0.019077674 -0.103320785 0.04336436
0002c0 38 1c c2 bd 3b 61 9b bd 03 39 c5 3d 28 6f 2b bc
       -0.094780385 -0.075869046 0.09630015 -0.010463513
0002d0 77 6d 26 bd e3 28 cc bb f8 1f 23 bd 22 a9 70 bd
       -0.040631738 -0.00623046 -0.03982541 -0.058755048
0002e0 c1 fe b7 bd f1 6f db bc 75 d9 d4 39 59 d7 a5 bc
       -0.08984137 -0.026786776 0.0004059781 -0.020244287
0002f0 27 f7 52 bb 06 8c db 3c 77 37 9a 3c 5b d0 24 3d
       -0.0032190771 0.026800167 0.018825276 0.040237766
000300 d1 ac 2e bd 0c 21 4a bd ab 07 28 bd 6e cd a4 3d
       -0.04264528 -0.049347922 -0.041022938 0.08046995
000310 3e f3 72 3d 5d 75 88 3d 22 88 8b 3d d9 3a c7 bd
       0.059314005 0.0666301 0.06813075 -0.09728021
000320 76 93 dd 3a ce 2e 00 bd a0 a5 8d 3d 46 90 ae 3b
       0.0016904909 -0.031294636 0.06916356 0.0053272573
000330 01 84 90 bc 7e f7 a8 3c 41 21 c8 3c 0e 2e b0 bd
       -0.01764107 0.020625826 0.02442992 -0.08602534
000340 9a 17 cb bd 5f 04 95 3d 63 9c 87 bd 86 e3 0d 3d
       -0.09916611 0.07276224 -0.06621625 0.03464081
000350 57 26 27 bb cf 2a 2d 3d 2b f1 e2 ba 66 63 ad 3d
       -0.002550503 0.042277154 -0.0017314305 0.08466224
000360 69 91 85 3d 98 5e bf bd f2 78 82 3d 09 2c 13 3c
       0.065218754 -0.09344214 0.06370725 0.008982667
000370 58 46 b0 3d cf b9 bf bc 1c 70 a4 3d b8 f8 9a bc
       0.08607167 -0.02340403 0.08029196 -0.018917426
000380 dc 27 5d bd fa 03 2c bd 2e 82 28 bd fc 5c 3c bc
       -0.05399309 -0.04199598 -0.041139774 -0.011496779
000390 0e 5c 9c bd c1 53 ea ba 6b ba 3f bd ee c6 8b 3d
       -0.076347455 -0.0017877744 -0.04680864 0.06825052
0003a0 45 65 11 bd a3 88 ea 3c 5e c8 b4 3d f0 a8 aa 3d
       -0.03549697 0.028629607 0.088272795 0.083330035
0003b0 c5 bc 84 3d 70 f0 30 3c e0 df 90 bc 2e 35 c8 bd
       0.064813174 0.010799512 -0.017684877 -0.09775768
0003c0 98 74 c2 bd bb 5f 83 3d cd a4 91 3d d3 6e b8 3d
       -0.09494895 0.064147435 0.071115114 0.09005513
0003d0 73 80 c5 3b 79 fc 7a bd cd 3f 53 bc ba 7d 23 bd
       0.006027275 -0.061275933 -0.012893629 -0.039914824
0003e0 e5 80 b7 bd 82 06 2c bb 21 a3 a2 3c df cc 5f 3d
       -0.089601316 -0.0026248996 0.019853177 0.05463874
0003f0 37 94 6c 3d 79 c8 9e bd c2 01 0a bb 42 08 b1 bd
       0.057758536 -0.07753081 -0.0021058177 -0.08644153

bias f4 [14]
000000 89 b6 53 bd ca f1 0f 3c e2 5a 28 3d db 03 b9 3d
       -0.05168775 0.008785674 0.041102298 0.090339385
000010 9c db fe 3c 4d 85 0a 3c 00 5d 81 bd ea 7e a2 3d
       0.031110577 0.008454633 -0.063165665 0.07934363
000020 50 4e a9 bd 4d 91 25 bc 50 d8 2c bd 00 67 a2 3b
       -0.0826689 -0.010105443 -0.04219848 0.004956126
000030 4d f6 62 bd 93 3d 90 3d
       -0.055410672 0.07042994
