python/mod/re/modgive.pth (torch, 133711 bytes, 8 tensors)

weight f4 [120, 14]
00000000: 492b 1fbe f47e 74be 01c8 603e 0ca7 723e
00000010: 08ba 3dbe 5113 55bf eda1 283e 27e7 d63e
00000020: 7b09 d33e 8a84 9e3e 8168 5abe 2198 48bd
00000030: a189 43be 4560 8d3f d686 653e d6ea 69be
00000040: 292a a9be a90f 31bd ae21 79be 90e3 12bf
00000050: 56dd 80be 4bc4 553f 514e f1bb fb11 423e
00000060: 07f3 bb3e dc4b dabd b2f7 d7be b098 203e
00000070: b209 663e 4b13 753e 2e8f 36be ca8d 41bd
00000080: faea 423d e176 b63e 6d32 583d 30e6 cabe
00000090: 4d80 7cbd c69d 2a3e 7bc2 ae3e 4f3b 1cbe
000000a0: eb79 063d e203 06bf 6cc4 8cbe f2c2 2bbe
000000b0: f517 c3bd 7100 3b3e 91f6 3b3e 31e1 c9be
000000c0: 5175 f03c aa59 183e df14 a2be 7318 8e3e
000000d0: b59c 50be de9a 443c ff7d 02bf b151 8ebd
000000e0: e257 93be 2875 14bd d04b 90bd 994b 91be
000000f0: 45ff 6c3e c4bd 893e ae3b 0c3e a3d9 063d
00000100: 5825 1ebd 5e56 82bd f349 4fbe 6548 a83e
00000110: 5979 963e 0e6b 0cbf 2077 15bd f25e 3ebe
00000120: 88b6 573d 6c78 c8bd 4004 6cbe 48c2 59bd
00000130: dc7a c83d ceaf 5b3e 523c 0b3e ec40 5d3e
00000140: f0ef b43c 1cab 913d d65c cabd 0c84 c03d
00000150: 42c7 863d a5ca 7fbd f126 143c 34f0 733e
00000160: 6cf2 20bf 8e49 a93e 17ee 9e3e 60ba 91be
00000170: 83ee 6cbe d0ad a2be 53b3 3bbd 54cb 59bd
00000180: d9a6 18bf 541f dcbe 6dcf 58be 7040 71be
00000190: 9243 28be 44ca ec3d a797 013d 447b a03e
000001a0: 700d 3dbe ccd0 f43e 1551 76bc 415c b93e
000001b0: b570 c6be 14dc d9be b6d3 4fbd e949 bbbd
000001c0: 585a 933e fc6a 3c3e d6e7 d3bd 89e8 36bc
000001d0: 6322 f63d 9135 3d3e e7a6 443d 9634 6c3c
000001e0: 9e3d 783e 71ae 273e 862c 8cbd 33e9 5c3e
000001f0: b1f8 99be 87bb 953e d6bb 213d 40eb 8dbe
00000200: 454c bdbd cc5e b6bd ec12 4e3e 9c05 d23e
00000210: e11f a0be ed12 003f 434e 913e aa0f af3d
00000220: e632 9c3e 1625 a4be c22c e83e 1fb0 cebd
00000230: ef38 983e f3ae 953d 5140 d43e ea39 80be
00000240: 42fd 9a3e ae5b 2cbe 7997 9cbe 057b c33d
00000250: 165b 45be 52c8 12be 2b11 7b3e 90b4 de3e
00000260: 7d8f bf3e ee9f 29bf 23b8 893e 03a7 91bd
00000270: c5be 00bf e800 003f 2af3 cb3c 0f6d c73d
00000280: c4b3 83be c59a 9fbe 7d8d bc3e 231b d8be
00000290: 3bb0 ed3d 8359 043e 0bbb 253d 6368 e3be
000002a0: e040 5e3e 9073 54be 13ca b7be 4852 1bbe
000002b0: cc67 2fbf ead9 17bd f523 a23e 2de0 a8be
000002c0: dea1 ec3d 3587 94be 92ef 44bd 597b b73d
000002d0: b854 b5be ff57 e33e 0954 2dbe 9e35 b43d
000002e0: 80b2 75bf d628 123e b688 513e b9d3 7c3d
000002f0: 49d5 82be 33fc b3be fba7 9d3e def4 803d
00000300: 1595 26bf 0738 45bc 5fdd 023e 07bf 383f
00000310: a08a 2b3c b120 863e 58d3 7ebe f2df fbbd
00000320: aaad 0c3e deeb c4bd 40db cfbc 447c f93d
00000330: b0f8 0f3d 1850 e9bd 7d71 79be e87c 48be
00000340: 8443 e23d 4031 d6bd 97fe 3cbe 29d4 b63e
00000350: 21c9 e83e 9124 2bbe f359 98be 0932 953e
00000360: e845 aabd 3069 96be cd91 b2be a3ba 72bd
00000370: 92ed 32bd f4dc bf3d 1270 01bf c9c8 4a3d
00000380: a940 18be 9c55 86bd 4856 6cbe 08ed 46be
00000390: 66c7 573e 17c9 2dbe 866f 773e c5a0 873e
000003a0: 4041 0c3d af87 0cbe 9632 653e 600f 913c
000003b0: dc67 6a3e 9e27 483e 0781 8bbe 7cc3 06bd
000003c0: 9988 cd3c 7d7e b5bc 8037 01be 59d0 3abe
000003d0: e2fb 1fbd aa7b 31be 782c 67bb d3fc d7bc
000003e0: 9f89 60be d4ee c03e bd22 51bd d971 31bf
000003f0: ec2a 52be 08be 0ebe 5c23 f9bb b4fc a1bd
-0.15543856 -0.23876554 0.21951295 0.23696536 -0.18527997 -0.832326 0.1646802 0.4197323
0.4121817 0.30960494 -0.21328928 -0.048973206 -0.1909547 1.1045004 0.22414717 -0.22843489
-0.33039978 -0.043227825 -0.24329254 -0.5737848 -0.25168866 0.83502644 -0.0073640724 0.18952172
0.36708853 -0.10659 -0.42181164 0.15683246 0.22464636 0.23933141 -0.17828056 -0.04725436
0.047587372 0.35637572 0.052782465 -0.39628744 -0.061645795 0.16661748 0.34132752 -0.15257
0.032831114 -0.52349675 -0.27493608 -0.16773584 -0.09526054 0.18261887 0.18355776 -0.3942962
0.029352816 0.14877954 -0.31656548 0.27753028 -0.20372279 0.011999814 -0.50973505 -0.06949175
-0.28777987 -0.03624454 -0.0704571 -0.2837799 0.23144253 0.26902592 0.13694641 0.0329224
-0.038609833 -0.063641295 -0.20243053 0.32867733 0.29389456 -0.5485085 -0.03649056 -0.18590906
0.05266431 -0.09788594 -0.23048496 -0.053163797 0.097890586 0.21453783 0.13597229 0.21606797
0.022087067 0.07112715 -0.09880988 0.09400186 0.06580974 -0.062449116 0.0090424875 0.23822099
-0.62869906 0.3306393 0.31041023 -0.28462505 -0.2313786 -0.31773233 -0.045825314 -0.053172424
-0.5962959 -0.4299265 -0.21172877 -0.23559737 -0.16432026 0.115620166 0.031638768 0.31344044
-0.18462157 0.4781555 -0.01503398 0.36203197 -0.38757864 -0.4255072 -0.050739013 -0.091449566
0.28779864 0.18400186 -0.103469536 -0.011163839 0.120182775 0.18477465 0.048010733 0.014416834
0.24242255 0.16375138 -0.0684443 0.21573333 -0.3007255 0.29244635 0.039485775 -0.27718544
-0.09243063 -0.089048 0.20124406 0.41019905 -0.31274322 0.5002888 0.2838002 0.085479096
0.30507582 -0.32059544 0.45346648 -0.10092186 0.29730937 0.073087595 0.4145532 -0.25044185
0.30271345 -0.16831848 -0.30584314 0.095449485 -0.19273028 -0.14334229 0.24518268 0.43497133
0.3741416 -0.6625966 0.26898298 -0.07111933 -0.5029109 0.5000138 0.024896223 0.09737598
-0.25723088 -0.31172767 0.36826697 -0.42208204 0.11605879 0.12924771 0.04046158 -0.44415578
0.21704435 -0.20747209 -0.35896358 -0.15168107 -0.68517756 -0.037073053 0.31668058 -0.32983533
0.11554311 -0.29009405 -0.048080035 0.089590736 -0.35416198 0.44403073 -0.16926588 0.08799289
-0.95975494 0.1427339 0.20462307 0.061725352 -0.2555335 -0.3515335 0.3079222 0.06296705
-0.6507123 -0.012037284 0.12779759 0.72166485 0.0104700625 0.26196817 -0.24885309 -0.122985736
0.13738123 -0.096153006 -0.025373101 0.12181905 0.035149276 -0.1139223 -0.24359699 -0.19578898
0.11048034 -0.104586124 -0.18456493 0.3570874 0.4546595 -0.16713168 -0.29756126 0.29139736
-0.08314115 -0.29377127 -0.34876862 -0.059260022 -0.043683596 0.09368315 -0.5056163 0.04950789
-0.14868416 -0.065592974 -0.23079789 -0.19426358 0.21072158 -0.16971241 0.24163637 0.26489845
0.034241915 -0.13723634 0.22382578 0.017707527 0.22891182 0.19546363 -0.27246878 -0.032901272
0.025089549 -0.02215504 -0.12618828 -0.18243541 -0.039058574 -0.1733233 -0.0035274308 -0.026365673
-0.21927498 0.3768221 -0.05105852 -0.6931434 -0.20524186 -0.13939679 -0.007603092 -0.079095274

bias f4 [120]
00000000: 1956 1c3c 4b5d 3d3e c3ae d23d f2b8 983d
00000010: d203 313d 1a3f 68be b5b4 0f3d c3ea 333e
00000020: efa3 133e 77ed 263e 5cd4 1e3d b713 a03c
00000030: 722a 2f3e b0e1 cdba 222b 05be 2738 8abd
00000040: 12dd 71be 1d2e b1bb fcb6 413c c9e8 793a
00000050: 0b8c ca3d 00f2 543e 5881 253e 8f4c 7a3d
00000060: b574 77be b7f8 9f3d 4a1c ce3d 68b6 713d
00000070: 3288 5ebe 20ce 053d 1c0e 70be e6a7 46be
00000080: 9596 6fbe 0655 53be cb5e d93d bba4 37be
00000090: 4bc4 eabd 74f2 95bd a7fb b73d 602b 5cbe
000000a0: f252 26be aa54 343e b93e cc3b ffe7 03bd
000000b0: d68d 793e f78a 3e3d 9101 993c b81a 87be
000000c0: d8f9 b93c c3bb fd3d 321d 8f3d 5425 b6bd
000000d0: 1923 313c 9029 56be e0dd 1cbe 2143 0a3e
000000e0: 7465 77bd 7a69 473e 2ffc d43d 6fb8 a9bd
000000f0: 2885 67be e5a4 82bd 2f7f ed3d 6570 12be
00000100: 1814 78be 7c36 87bd 316e a43d 9ee7 fcbd
00000110: bc0f 703d 7eca 81be e9aa e33d fe39 953d
00000120: e676 5cbe 34d8 4a3d c472 933d ac27 8d3c
00000130: 85de f93d 3f21 0f3d 0b60 f13b f973 653d
00000140: 0ea5 923d 90bd bf3d 5ddc c4bd 3626 773e
00000150: cdf8 92bd 1aaf 463c 3819 6c3e ead9 a13d
00000160: ff5d d93d 4047 5ebe c76e 1dbe 90bd c4bd
00000170: b255 f23d 8419 44be dc37 3cbe ce10 373d
00000180: 48c8 8f3d cab0 503e aa36 8b3d c2db 06be
00000190: 150d db3d 0afb acbc 9799 1c3e 1aec 6fbd
000001a0: 6519 06be 6f82 453e d727 d6bd 213c c3bc
000001b0: 02e2 34be e93a 75bc 1f43 79ba 3b4f ca3d
000001c0: d9b0 2b3e 3a64 383e a41c 4b3e 64f6 883d
000001d0: 8fd7 87be 790c 57be f7d7 02be ef42 4a3e
0.009542012 0.1849262 0.102872394 0.074571505 0.043216534 -0.22680321 0.035084445 0.17570023
0.14418004 0.16301523 0.03877674 0.01954065 0.17106035 -0.0015707519 -0.13004735 -0.067489915
-0.23619488 -0.0054071085 0.011823412 0.0009533284 0.09889992 0.2079544 0.16162622 0.06110817
-0.24165614 0.078111105 0.100639895 0.059011847 -0.21731642 0.03266728 -0.23442882 -0.19399986
-0.23397286 -0.20637903 0.106137834 -0.17933933 -0.11463221 -0.07321635 0.08983546 -0.21500921
-0.16242579 0.17610422 0.006233063 -0.03220367 0.24370512 0.046519246 0.018677505 -0.26387572
0.022702143 0.12389328 0.069879904 -0.088938385 0.010811591 -0.20914292 -0.15319014 0.1350217
-0.060399488 0.1947383 0.10399663 -0.08287131 -0.22609389 -0.063791074 0.11596524 -0.14300688
-0.24226415 -0.06602189 0.0802883 -0.12348865 0.058608755 -0.25349802 0.11116583 0.07286452
-0.21529731 0.049522594 0.07199624 0.017230831 0.12200645 0.034943815 0.0073661855 0.056018803
0.07160388 0.09362328 -0.096123435 0.2413567 -0.07176361 0.012126708 0.23056495 0.07902892
0.106136315 -0.21706867 -0.1537429 -0.09606469 0.11832751 -0.19150358 -0.18380684 0.04469376
0.070206225 0.2037994 0.06797536 -0.13169768 0.106958546 -0.021115799 0.15292965 -0.058574773
-0.13095625 0.19288038 -0.104568176 -0.023832383 -0.1766434 -0.014967659 -0.0009508598 0.09878393
0.16766681 0.18006983 0.19835144 0.0668762 -0.26531646 -0.21000852 -0.12777697 0.19752096

weight f4 [120, 120]
00000000: 72b8 193c 2944 acbd 1912 b03d f4a6 0c3d
00000010: b060 fc3d b054 453d 2271 0b3d 6575 a83d
00000020: 88cc f23c 30ef adbd 3c6a 78bc 1669 393e
00000030: cd70 88bd 0215 183c e840 a93d ddbf ce3d
00000040: 1a52 9abd 167e 8d3d a0a9 973d ee3f f5bd
00000050: 32cd 11bc cc80 99bd 0ea9 e83b acec 37bc
00000060: 982b 0c3d 68b3 5ebd 406b 2ebd 2d9b 353b
00000070: 9061 29bc 9702 6f3d ec55 883d 741f 3f3d
00000080: 12a7 b0bd 233a b43b 47fb 77bc c504 823d
00000090: f5d7 563d 7cd4 a5bd c231 1cbd 43ce 94bd
000000a0: 830c b9ba bde8 5bbd 3333 5dbd 4f34 ed3d
000000b0: 1f31 803d 8d99 a6bc 454b 4a3d 2c04 793d
000000c0: d8e7 1dbd d887 8f3a 2322 bbbd c8b1 a2bd
000000d0: 5a66 703e 0077 9eb9 c402 303d aa0d 893d
000000e0: 0e26 2dbc e3bb cb3d ea53 75bd 5baf 74bc
000000f0: e296 933d 7dab 1bbe 4fc9 b73d bcd4 93bd
00000100: de6a 983d d0a7 4a3e 304e 2b3c b142 0b3c
00000110: 1e97 bd3d 30f6 a63c c36c d63d f8ac 4dbd
00000120: 8403 85bd e948 0c3e 94b0 9e3c 4c28 213e
00000130: 3b9a 9eba 5653 da3c 238f fabd f1fc 603d
00000140: e634 b8bc d4d0 91bd da3e 0f3c de3e 4f3d
00000150: b516 183d b6db fb3c fbd7 4b3d 1b4b a53d
00000160: 02bf f03c 5091 40bd 7909 0dbc 969f 80bc
00000170: 88c0 da3d 1492 89bc 650d 39bd 5639 ab3d
00000180: 558c 963c 569f 993d c4a0 c5bc 8a05 68bd
00000190: 2701 2abb 893f b73c 8067 bd3d ac29 1a3e
000001a0: 891e fdb9 b0a7 503d 76ca b63d ed49 b9bd
000001b0: f670 b03d 8128 4a3d c636 0a3d 87aa 0a3d
000001c0: 3675 d83d 687e a53d 6957 b6bd 79ed 5bbd
000001d0: 9f97 36bd 9315 9ebd 5e2f a0bd a1f3 643d
000001e0: eecd 353e 46d8 7a3d 5193 a3be 545d 3fbd
000001f0: 901f 7b3c 485a 593d 4775 783c 901c 423d
00000200: 4952 353c dc7b 3abc 07e3 b83d c71e 673e
00000210: c7e7 513d 44d0 8a3d 3024 fa3c 43a9 0e3e
00000220: 394a 8dbd 609a 443a 6363 993d 998a 943d
00000230: 3a6d 623d 8916 2b3c 815c cf3d a1bf 02be
00000240: 59cd 3dbd 826c a4bc 4bf8 8e3d 0afa e83d
00000250: b52e 2ebd 1b2f 793e e095 6e3d 14f9 143d
00000260: a0ce 7d3d 0084 41bd aef6 45be 3602 afbd
00000270: 9d66 9c3b 69dc c2be 9917 363d 38c1 02bd
00000280: 00bf 0ebd f6b8 1bbd f55a 0abe 5b39 533e
00000290: ba40 c13d 6ded 81bd 72ab 083e f98e a2bd
000002a0: b20c 0e3e 5982 9c3d 5288 94bd 5af0 a83e
000002b0: 97f9 ba3d dc09 8f3d 4c29 4c3d ab0f a8bc
000002c0: 8056 e73c e500 9c3c b182 953d 9f89 45be
000002d0: ec66 4bbd cc47 31be ffa4 963c bbc9 283d
000002e0: 50fc 5c3c f0ec 71bc 05c1 aabd 8c92 aabc
000002f0: cc43 fe3d 16d3 9bbd 80b4 8b3d 541e 433e
00000300: 992f babd 54fe 51bd 626d 393d b39a b13e
00000310: c8b1 d7bb 3601 103e f94f 043e c8c6 073e
00000320: a8d9 8bbd df23 83bd 0c8e 893e d054 9cbc
00000330: 1e70 933d fd1c 8e3e b6aa 183e d7a6 7fbe
00000340: 183e 3cbb f02e b03b 523e aabc ebda a7bc
00000350: c424 023d 34fc 1b3d 59c6 15bd baaa 8f3c
00000360: eac6 0b3e 8d70 38bd 8752 de3c 45ea 433d
00000370: 2f49 e83d 10b3 5ebe 0a36 f33d c338 d9be
00000380: 84d7 183d fd06 c4bc 1f09 edbc 34fe 11be
00000390: c0fe 85bb 5898 173d cbe6 b4bd dbdb d93d
000003a0: 124e c53d 1059 b53c 4191 29bd 63bd 523e
000003b0: f2ff 12bc 3642 893d c52b a43d 09fd ba3d
000003c0: 2140 93be cfe7 243d 239b 053e 4ae8 82bd
000003d0: 7106 993d bbcc 88bd e8d2 e93d f660 02be
000003e0: f37a 783d 36cd 83bc 0d3b 733e 251e 15be
000003f0: c7bd ce3c 9999 8fbd 2c2a c9bc 750f dc3d
0.009382354 -0.08411438 0.08597202 0.034338906 0.12323129 0.048176467 0.03404344 0.08225516
0.029638544 -0.08492887 -0.015162047 0.18106493 -0.0666214 0.009282352 0.08264333 0.10095189
-0.07535191 0.069088146 0.074054 -0.11975084 -0.00889902 -0.07495269 0.007100231 -0.011225861
0.03422126 -0.054370314 -0.04258275 0.00277109 -0.010338202 0.05835208 0.06657013 0.046660855
-0.08625616 0.0055000945 -0.015135593 0.06348566 0.052452046 -0.08097169 -0.03813339 -0.07265904
-0.0014118109 -0.053688753 -0.054003906 0.11582243 0.06259369 -0.02033689 0.04938819 0.060794994
-0.03855118 0.0010950519 -0.091373704 -0.07944065 0.23476544 -0.0003022477 0.042971388 0.06692059
-0.010568155 0.09947946 -0.05989448 -0.014934386 0.07206513 -0.15202136 0.089739434 -0.0721831
0.07442258 0.19790578 0.010455653 0.008499787 0.09257339 0.020381063 0.104699634 -0.050213784
-0.06494811 0.13699688 0.019371308 0.15738028 -0.0012100408 0.026651066 -0.122343324 0.054928724
-0.022486161 -0.07119909 0.008743012 0.050597064 0.03713103 0.030744415 0.049766522 0.08070966
0.029387955 -0.04701358 -0.0086082155 -0.015701097 0.10681254 -0.016793288 -0.04517879 0.08360545
0.018377462 0.07501094 -0.02412451 -0.056645907 -0.0025940628 0.022369163 0.09248257 0.15054959
-0.0004827867 0.05094117 0.08925335 -0.09047303 0.086152956 0.049355034 0.033743642 0.033854034
0.10569231 0.08080751 -0.08903391 -0.05369327 -0.04457819 -0.07718959 -0.078215346 0.055896405
0.17754337 0.06124141 -0.3194833 -0.046719864 0.015327349 0.053064615 0.01516468 0.04739052
0.011066982 -0.011382069 0.09027677 0.22570334 0.05124643 0.06778005 0.030534834 0.13931756
-0.068989225 0.00074998103 0.0748966 0.07252998 0.055279948 0.0104423845 0.101250656 -0.12768413
-0.046338413 -0.020071272 0.06980952 0.11375816 -0.042525012 0.24334376 0.0582484 0.036370352
0.06196463 -0.047245026 -0.19332382 -0.085453436 0.0047729746 -0.38058785 0.0444561 -0.03192255
-0.03485012 -0.03801819 -0.1351126 0.20627348 0.09436174 -0.063441135 0.13346651 -0.07937426
0.1387203 0.07642049 -0.072525635 0.32995874 0.09129637 0.069843024 0.04984407 -0.020515284
0.028239489 0.019043395 0.07300318 -0.1929078 -0.0496587 -0.17312545 0.018389223 0.04120801
0.01348789 -0.014765963 -0.08337597 -0.020821832 0.12415275 -0.07608621 0.06821537 0.19054538
-0.0909111 -0.051267937 0.04527033 0.3468834 -0.0065824725 0.14062962 0.12921132 0.13259423
-0.06828624 -0.06403326 0.26866186 -0.01908341 0.07199119 0.2775649 0.14908871 -0.24965988
-0.0028723534 0.005376689 -0.02078167 -0.02049013 0.031773344 0.038082317 -0.036566112 0.017537463
0.13650098 -0.04502921 0.027138961 0.04783084 0.11342084 -0.21747994 0.118755415 -0.42426118
0.037314907 -0.023929114 -0.028935013 -0.14257127 -0.0040892065 0.03701052 -0.08833083 0.10637637
0.09634031 0.022137195 -0.04139829 0.20580058 -0.008972155 0.06702082 0.08016161 0.09130294
-0.28759864 0.040260132 0.13047461 -0.06391962 0.07471932 -0.06679674 0.1141718 -0.127323
0.06066413 -0.016089063 0.23752995 -0.1456228 0.025236977 -0.07011718 -0.024556242 0.10745136

bias f4 [120]
00000000: aad3 aa3d de5a 81bd 714e a43c 12d1 823d
00000010: 4cd4 49bd 457f 1a3d e480 eb3d 708b 2e3c
00000020: 259f a3bd 7a01 19bd 828d cb3c 96c1 983c
00000030: 63b9 3cbd d09e 9d3d 5a16 4c3d 6811 273d
00000040: 05fc 493d 71dd fa3c 04dc 963c 69b1 913d
00000050: 5a95 603d b787 1d3d 1370 f73b 8940 9d3d
00000060: 9fcf a4bd 66af 9e3d 2b41 9d3d 506d b63d
00000070: 16b1 99bd ec81 9ebd dc6f 43bd 7192 143d
00000080: bc54 4cbd 5e78 f13d 5456 39be b93f 1d3d
00000090: 023d b03c 7f0b b33d 09bc c93c fff4 bebc
000000a0: 0017 7a3c 7b34 61bd dff5 4ebb 4313 83bd
000000b0: 8804 943d 0f94 b83d 675c 8b3d 670f 883c
000000c0: 6a37 593d 4eff bc3d 93ec 343d f220 49bc
000000d0: fae1 73bc a6c5 083e 5b81 013c ecde 9bbd
000000e0: 0f39 10bd f830 b5bd 0542 aabd a0a7 f9bc
000000f0: 81be bd3d bbe4 d2bb 3a8d 2b3d 0858 3abd
00000100: dce9 c03d 281e 97bd c3a4 9d3d 585f bb3d
00000110: cd26 6ebc 1d5f a9bd 8ee7 79bc f2d9 f53d
00000120: d1db 4c3d 6b59 80bd 0d37 093c 4ed1 5fbb
00000130: f210 703d bdb0 d53d 0b14 393d cfbe 9d3d
00000140: dd77 c13c 1c51 5fbd 4e23 633d 639d d1bc
00000150: 288f 753d 325f 5c3d e04e 963d c5b4 45bc
00000160: 3d87 eebc 6323 00bc 64ae 073d 0226 45bd
00000170: ba83 743d b9a0 623d ad14 1bbc 7065 80bd
00000180: 0018 ecbc fda6 163d a028 07bc aa92 2f3c
00000190: 7a44 0bbd 4585 a0bd bc75 0d3e 02d0 843d
000001a0: c89e 3abd 8c8d e3bc 005c 9fbd a534 ac3d
000001b0: 8438 583d df4a 133d 552e 3f3c 0624 64bc
000001c0: 313a 2abd 9490 d63c 772e d23d fea1 f1bc
000001d0: 9c1c 913d 60ec 0f3c bd79 b73d 2090 9fbd
0.08341153 -0.0631616 0.020056935 0.06387533 -0.049274728 0.03771903 0.11499193 0.010653362
-0.07989339 -0.037354924 0.02484775 0.018646996 -0.046075236 0.07696307 0.049826004 0.040788084
0.04931261 0.03062317 0.018415459 0.071139164 0.054829933 0.038459506 0.007551202 0.07678325
-0.08047413 0.07748298 0.076784454 0.089075685 -0.075044796 -0.077396244 -0.0477141 0.03627247
-0.049885496 0.11790536 -0.18099338 0.03839085 0.021513466 0.08742427 0.024625795 -0.023310183
0.015264273 -0.05498169 -0.0031579656 -0.06400158 0.07227427 0.09012615 0.06804734 0.016608907
0.053031363 0.09228383 0.044170927 -0.012275921 -0.01488542 0.13356647 0.007904376 -0.07610878
-0.035210665 -0.08847231 -0.083133735 -0.030475438 0.09264851 -0.006435958 0.04188273 -0.04549411
0.09419605 -0.07378799 0.076974414 0.09149045 -0.014535618 -0.082700945 -0.015252961 0.120044604
0.05001432 -0.06267055 0.008374942 -0.0034151855 0.05860991 0.10434101 0.04518513 0.077024095
0.023616726 -0.05452071 0.05545359 -0.025587743 0.059950978 0.053801723 0.07339263 -0.012067025
-0.029117221 -0.007820937 0.033125296 -0.04813195 0.059695937 0.05532906 -0.009465379 -0.06269348
-0.028820038 0.036780346 -0.008249432 0.01071612 -0.03400085 -0.07837919 0.13814443 0.06484987
-0.04556158 -0.027777456 -0.077812195 0.08408479 0.052788273 0.035960075 0.011668761 -0.013924604
-0.041559402 0.026191987 0.10262769 -0.02949619 0.07085535 0.008784384 0.089587666 -0.077911615

weight f4 [120, 120]
00000000: f5f7 c9bd eaa1 e13d 3043 1abe 9e75 8abd
00000010: bfe5 ffbd 0bdd 943d 3794 32bd de76 49be
00000020: 9890 4b3d 0bc9 933d 976f 8bbc 5030 3a3d
00000030: b803 883c 8911 473d fdd9 99bd 62c4 953d
00000040: c41f c7bc 7cba 36be 415e 4abd ffc5 3abc
00000050: 5c5d b5bc 6353 d83c cba6 67bd 78c1 983c
00000060: a754 24bd 16d3 2a3d bb23 2abd 705a d93c
00000070: 4c40 5a3e a870 233c 1ab5 ddbc 6ff7 10bd
00000080: 3e43 d3bc ebdb 793d b50a f43e 0e25 08be
00000090: 2deb 163d 1197 91be 6ca0 91bd 41eb 0f3d
000000a0: 7f8b b5bd 9f8c c9bd abd5 953c 530d 763c
000000b0: d3c1 c3bd 67f2 b73d 6ccc 12bc 256b 943c
000000c0: 759c 8f3c 201a d13a c2ca edbc 6189 a4bc
000000d0: 26c5 0abd 5234 65bd 1864 3fbd ec59 8c3d
000000e0: f800 d1bc 1845 173c 169e a0bd ac25 abbd
000000f0: 0f15 f8bd 42f7 d13d fef2 f2bc c245 99bd
00000100: 74c8 92bd 3cc2 73be 95ec 9cbc e8b6 b4bc
00000110: ef77 c0bd 367c 133c 5311 1bbd 0152 a6bd
00000120: e323 653c bbc5 c53c e121 643d 8eed 4b3d
00000130: 1b20 ed3c acca 00bd a3fe 01be 22a8 5cbc
00000140: 174d 6a3b a2b6 443d 9ba0 33bd 5830 fe3c
00000150: 7d0d 0a3d 3190 0cbc ddda 8e3b 3174 8ebd
00000160: 306b aa3c 5df8 14be 166e 1b3d aaff 5f3d
00000170: 1ff6 f3bd 830b cb3c 686e cbbb 6a6e 253d
00000180: 394a 713d 3f58 743d 7271 94bd a9cf 0b3d
00000190: 3f73 69be 7222 1dbd 5b46 853d a343 003c
000001a0: 8ce0 28bd 6497 b2bd b73f 353d e25f da3c
000001b0: cd1e a6bd 42ed c23b 5227 e139 7ee4 fa3d
000001c0: 8683 81be d218 1a3c b8c3 8e3d f743 9d3d
000001d0: 17e2 0e3c e977 e6bd 3f9a 1dbd 110c 51bd
000001e0: bf60 1cbd b570 48be a341 d93d d749 50be
000001f0: 715d b1bc ed3e 6e3d ffec cabd d26d f8bd
00000200: b88b 923d f8ee a1bb 32c7 8bbd ab6b a83d
00000210: fc23 173d 0c03 34bc 229d 97bd 5aba d53d
00000220: 1945 893d 9597 5cbd da8a 953d f192 24be
00000230: 4811 52be 3988 4e3e 269a 113e 09a8 ca3d
00000240: 142a abbc b1b8 e7bc b4fd 81bc 21ba aabe
00000250: 4a7f 133e 80e0 04ba 6de9 dbbb 7e5e 353e
00000260: 63a1 d03c e6c3 cabd 0951 41bd 480b 113d
00000270: b810 07be 354b 493d f0f1 13bc 00b5 a4bd
00000280: 9180 2f3e 0aab 623e 32de edbc bc7c d5bb
00000290: 4797 223d b6d9 8b3d ffa2 2ebe dbe7 84bd
000002a0: d280 ae3d 21e4 3dbc e267 323e b0c0 fbbc
000002b0: a9ce 1f3d d08b 59be 4a6c d5bd e49f 37bd
000002c0: b7d6 59bd d8d6 a53d a331 223d b99c 983c
000002d0: 5b97 0f3e 36d8 ff3c 7455 4e3d 5354 08be
000002e0: 2b71 cdbd 2d3d 4abe dcab 87bd 180f 16be
000002f0: a8e2 fbbb 6de0 dfbd 8462 e73d 13b3 afbd
00000300: f192 4e3e 1105 62bc a8d3 06bc 735b 633d
00000310: 8cb3 65bd b894 b9bd c5c1 f5bd 936d b43c
00000320: 1bc9 233c 2567 bb3d 19f8 93be 7023 8f3e
00000330: 7999 b6bd 5897 b33c 95b1 fa3d 58c7 efbd
00000340: e224 923d bbb5 d4bd 704e 0dbd b07f 873c
00000350: 87d7 a4bd 51dc 3fbd 10bf fb3d 4f3b 553c
00000360: 6f50 9abd 6c4b 03bd ea62 9f3d 4304 53be
00000370: e38e e4be 3b4d 42bc df00 903d 8787 983c
00000380: 9957 163d bc35 263e 2d4e d63b 896e 9cbd
00000390: ca58 533d 5f4c 45bd aad4 1f3c 517c 73be
000003a0: fa33 1f3e b91c 233d 6e72 0fbc 2834 3d3d
000003b0: a062 2ebd 18c5 1bbe 783a b23c a085 293d
000003c0: e34c c13d d94c 463e ee8b a5bd 00a2 ac3d
000003d0: 1ef8 9e3d 45dc f5bb aacc 843c c031 d2bb
000003e0: 1023 993b d39c 9abc 22b0 c2bd e585 c0bc
000003f0: 3040 a3bc 0f26 d43c 42b5 1ebe 4604 bd3c
-0.09861747 0.11017211 -0.15064692 -0.06760715 -0.124949925 0.07268723 -0.04359838 -0.1967425
0.049698442 0.0721608 -0.017020984 0.04545623 0.016603336 0.048600707 -0.07512281 0.07312848
-0.02430714 -0.17844576 -0.049406294 -0.011399745 -0.022139244 0.02640695 -0.05655555 0.01864694
-0.040119793 0.041705213 -0.04153798 0.026532382 0.2131359 0.00997559 -0.027063895 -0.03539222
-0.0257889 0.061000746 0.4766442 -0.13295385 0.036845375 -0.28435567 -0.07110676 0.035136465
-0.088644974 -0.098412745 0.018290361 0.015017825 -0.095584534 0.089817815 -0.008959871 0.018117497
0.01753066 0.001595322 -0.029027347 -0.020085039 -0.03387942 -0.0559581 -0.046726316 0.06853089
-0.025513157 0.009232782 -0.078426525 -0.08356795 -0.121133916 0.10252239 -0.029656883 -0.07484008
-0.0716714 -0.23804563 -0.01915578 -0.022059873 -0.093978755 0.009001782 -0.03785832 -0.0812111
0.013985607 0.024142137 0.055696372 0.049787097 0.028945973 -0.031443283 -0.12694792 -0.01346782
0.0035751516 0.048025735 -0.043854337 0.031028911 0.03370427 -0.0085793 0.0043595866 -0.069557555
0.020803064 -0.14547868 0.037946783 0.05468718 -0.11912178 0.024785763 -0.00620823 0.040388502
0.058908675 0.05965447 -0.072482005 0.034133587 -0.22797869 -0.038362928 0.0650756 0.007828626
-0.04122977 -0.08720282 0.044250216 0.026657049 -0.081113435 0.0059486935 0.0004294464 0.12250613
-0.25295657 0.009405332 0.06970924 0.07678979 0.008720896 -0.1125334 -0.03847718 -0.051036898
-0.0381782 -0.19574244 0.10608222 -0.20340668 -0.021651002 0.05816548 -0.09908485 -0.121303216
0.071555555 -0.0049418174 -0.06825103 0.08223661 0.03689955 -0.010987055 -0.074030176 0.10435934
0.067026325 -0.053855497 0.073018745 -0.16071679 -0.20514405 0.20169152 0.14218959 0.098953314
-0.020894088 -0.02828631 -0.015868045 -0.3334513 0.14404026 -0.00050688535 -0.006711176 0.17711827
0.02546758 -0.09900646 -0.04719642 0.03541115 -0.13189971 0.04914399 -0.00902985 -0.080423355
0.17138888 0.22135559 -0.029036615 -0.0065151136 0.03969505 0.068286344 -0.17054366 -0.064895354
0.08520664 -0.011590035 0.1742244 -0.030731529 0.039015446 -0.2124474 -0.10421045 -0.044830218
-0.053183284 0.08097619 0.03959812 0.018629419 0.14022581 0.031231027 0.050374463 -0.13313417
-0.10031351 -0.19749899 -0.066245764 -0.14654195 -0.0076869316 -0.10931478 0.11298087 -0.085790776
0.20173241 -0.013795153 -0.008229174 0.055507135 -0.056079432 -0.09061569 -0.11999849 0.022024905
0.009996678 0.09150533 -0.2890022 0.27956724 -0.08915991 0.021922752 0.12240902 -0.11707944
0.07135941 -0.10386225 -0.034498632 0.016540378 -0.08048921 -0.04684097 0.12292302 0.013014629
-0.07534873 -0.03205435 0.07782538 -0.20607094 -0.44640264 -0.0118592335 0.07031416 0.018619312
0.036704633 0.16231436 0.006540081 -0.076382704 0.051598348 -0.048168536 0.009755293 -0.23777892
0.15547171 0.039822314 -0.0087553095 0.04619232 -0.042574525 -0.15211904 0.021756396 0.0413872
0.09438493 0.19365253 -0.0808333 0.084293365 0.07762168 -0.007503065 0.016210873 -0.006414622
0.004673369 -0.018873608 -0.09506251 -0.023501346 -0.019928068 0.025897054 -0.15498832 0.023073327

bias f4 [120]
00000000: b478 1e3d 239c c9bd f67c f1bd 0ea2 1b3c
00000010: ab9f 053c 8ddc c7bd 1830 9dbd cf43 82bd
00000020: e91f c0bd 9053 7ebd d54f 49bd e201 9fbd
00000030: c04c 143d 3564 b6bd 635c 14bb a87b 59ba
00000040: a884 f6bb 94b6 52bd 17f4 93bc cc1f 11bc
00000050: 0abe 453d c3d2 e0bd 9db5 2abd aea4 6fbd
00000060: 602c 23bd 9870 83bd 6018 2fbc 5ade 17bd
00000070: 29a4 a93b 1c96 423c bd0f d7bd 7554 223d
00000080: 60a4 a8bd 4d5b 19bd a7e6 c2bd 0306 5cbd
00000090: 7a2c 593d 6a7c ef3c 8d66 bbbb 128b 4bbd
000000a0: bb18 a9bb 6da8 17bd 5650 503d e25f 15bc
000000b0: fb04 10be f597 783d 7352 9abd 7ecd 8cba
000000c0: fc4c a2bd d476 183d ce75 12bc fe35 a0bd
000000d0: cbf4 bebd 2146 7cbc 9ab1 7cbd 159b a4bd
000000e0: 23f5 a43c 9bd1 863c 0d8b 4d3d 71d5 02bc
000000f0: d29b 73bd 6fe9 94bd 2821 b8bd ae9c cdbd
00000100: a4b6 903c 0b34 183d 6db1 d1bd 2915 dfbd
00000110: 64ec 813b 4819 4ebb 4bf9 383d 803d 70bd
00000120: f426 103c b9d5 143d 66b3 723d 4a5e ca3c
00000130: 1a8b a1bd 3979 99bd 7d0c ccbc f1fc 91bc
00000140: c5f2 10bd bbcc c8bd 2952 d5bd ee52 553c
00000150: 7d4b a8bd add3 96bd 47e2 b8bd 1125 89bc
00000160: a214 963c 10c6 723c 6475 29bc 85a6 05be
00000170: 7632 60bd 83b6 adbd df09 25bd 98c7 71bb
00000180: 87f7 89bd 02d0 ef3c 6d1b 203c 66a2 a8bd
00000190: 4fb4 1c3c 628c 1e3d 59ad e7bd 62ed 1b3d
000001a0: 43ab 3e3d cb5c e8bd 5c97 75bd 5d37 21bd
000001b0: ab38 1fbc bc50 0bbd 5860 ddbd 0708 9fbd
000001c0: bf1a d43c 66ec 9bbc 9669 f3bc 6af2 23bd
000001d0: bb9e a03c d91e c5bd 2c28 b7bd 8938 b2bd
0.03868933 -0.09844234 -0.117914125 0.009499086 0.008155744 -0.097588636 -0.07675189 -0.0636059
-0.093810864 -0.06209141 -0.0491484 -0.07764031 0.036206007 -0.08905832 -0.0022638075 -0.0008296319
-0.007523138 -0.05144365 -0.018060727 -0.008857679 0.04827694 -0.109776996 -0.041677106 -0.05850666
-0.03983724 -0.0641796 -0.010686964 -0.037077285 0.00517704 0.011876609 -0.10501049 0.039631326
-0.08234477 -0.037440587 -0.0951665 -0.05371667 0.05302093 0.02923413 -0.005719012 -0.049693175
-0.005160419 -0.037025858 0.050857864 -0.0091170985 -0.140644 0.060691793 -0.07535257 -0.0010742394
-0.0792484 0.0372227 -0.00893922 -0.07822798 -0.09324034 -0.015397579 -0.06169281 -0.08037392
0.020136422 0.01645737 0.050181437 -0.007985459 -0.059474774 -0.072710864 -0.08990699 -0.1003965
0.017665215 0.037159007 -0.102389194 -0.10892708 0.0039649475 -0.0031448174 0.04515962 -0.0586524
0.00879835 0.036336634 0.05925312 0.024703164 -0.0788786 -0.074938245 -0.024908299 -0.017820807
-0.035387773 -0.09804674 -0.104160614 0.01302026 -0.08217523 -0.07364593 -0.09027534 -0.016741307
0.018320385 0.01481773 -0.0103429295 -0.13051803 -0.054735623 -0.08482077 -0.040292617 -0.0036892649
-0.06736665 0.02927399 0.009772164 -0.082341 0.009564473 0.0387081 -0.1131236 0.038068183
0.046550047 -0.11345824 -0.0599588 -0.03935944 -0.009718101 -0.03401254 -0.10809392 -0.07765203
0.02589166 -0.019033622 -0.029713433 -0.040026106 0.019606939 -0.09625024 -0.08943209 -0.087021895

weight f4 [14, 120]
00000000: 8e30 dd3c 1249 b63d 0f82 a8bd 5428 73bd
00000010: e768 d2bd 4761 b1bd 9df1 833d aa88 a9bd
00000020: f8a7 e0bd 9e2a 8b3d f489 c9bd 6579 9f3c
00000030: 552c 3cbd 1e9f 34bd 5c10 dbbd e366 bdbd
00000040: 3334 7abd ace6 3abd b4ed 2d3d 17d8 b63d
00000050: 2b76 19bc 884e 9abb f97a cbbc 47eb b3bd
00000060: 3d83 12bd e889 06bc 8e76 b2bd 16cb 3b3d
00000070: 8039 a9bd 9a26 a13d e5eb d6bd 05ec 1b3d
00000080: a251 e73b 1c42 1d3d 8462 843d be76 6cbd
00000090: 0cd5 953d 117e b53b b3ed a33c ed08 373d
000000a0: 0c06 f03c cd0a f53c c838 9abd 0e0c 92bd
000000b0: 9488 103d bd46 193d 9bfc 0e3d 333c 003d
000000c0: d036 abbd fd59 6d3d a461 813d 4533 343d
000000d0: 2f3e b73d f88c ac3d 655c ddbd f845 85bd
000000e0: 5996 c03d 8224 2fbd dbd9 7e3d 3b3e b53b
000000f0: 6fec 4e3d a3db 953d 875d 443c e56d f63c
00000100: 4114 023d 473d a0bd 2859 ad3d 73f0 47bd
00000110: 8d1d ae3c 2ce8 f03b cce7 ba3d e47e 7d3d
00000120: 77db ffbb 1f7c 763d c3f7 a2bd 55b0 1bbd
00000130: 8098 b23c f45a 9bbd f690 edbc fa5e 1c3d
00000140: 123e 093d cbc9 ffbb 2123 9e3d 0066 c0bd
00000150: ef22 983c 054a 7bbd 88d1 873d 4d17 93bd
00000160: 43a0 a83d e17c 463d 2e88 c0bd 84d5 983a
00000170: 489d aa3d 8c30 3dbd 3828 9ebb 801e 963d
00000180: a476 503d a3f1 b73d 49a8 253d d069 1bbc
00000190: d775 47bd dd9d be3b 9bb2 6f3d f1c4 1bbd
000001a0: ccea 633d e118 3abd e417 123d 4a4b c9bc
000001b0: 7787 9dbd a3d7 b83d 3eb9 c1bd ce8b b93d
000001c0: ca05 5fbd 8eee 89bd c140 6b3d 5ac5 1d3d
000001d0: e2d2 c83d 6c98 9cbd ee28 fcbc 988c b13c
000001e0: 9c80 3d3c f10e 443d 8d1f 9d3c 016f 34bb
000001f0: 6834 abbb 9602 553d 927a d2bd a1b3 d6bd
00000200: cb53 053c 8017 a2bc ce9b f5bb 43c4 02bd
00000210: bd56 ddbc 8fda cebd 022c 99bd 641c 5c3d
00000220: dbd2 77ba 136d 563d b856 693d 8617 883d
00000230: 2edd c8bc c6ce b53d c87b 68bd 4c5e eb3b
00000240: f501 693c 4e20 793d 6c47 06bd 973c 0dbc
00000250: 589f a8bd ce6c 153d 8ed7 503d 6d78 8ebd
00000260: b757 7d3d 078e 14bd d12a 86bd 4f5e 523c
00000270: e9a0 0c3d 70dc 98bd 033b 97bd ed10 c13c
00000280: 412e bf3d 254e a3bd 5f33 6cbd 6055 58bd
00000290: 3b0c bc3d 2afe f53c 649c 2f3d 06b8 33bd
000002a0: 3f69 4fbd fa4f ab3d 77d3 fc3c 405a a2bd
000002b0: 9a98 bb3c 29d1 ac3c 1a52 6c3c 3286 44bc
000002c0: 89b1 833d dedc 173b 0f79 96bd 3396 d03c
000002d0: 5ab3 4a3c bd46 74bb 3e33 18bd 98b0 be3d
000002e0: 312f ccbd efef 683d 18e9 babb 015f 3c3c
000002f0: b99f 0c3d 06cf 8b3c e04e 08bc 4817 0bbd
00000300: 986a b3bc 2db3 1f3d 6011 f13d 4327 6e3d
00000310: 4fce 83bd acb1 e6bd f555 453d 0144 1dbb
00000320: 899e b0bd 4d6a 42bd a3c9 9cbb ba14 95bd
00000330: d8ea 5c3c a991 9e3d f4e9 923d adba 01bd
00000340: 2cf0 903d 0734 5e3d 4d21 32bd 8097 d23a
00000350: ab40 3e3c aa43 f23b a7e7 ce3c 6c8f bb3d
00000360: 2b6b 063c aa4b 823d 1599 b5bd c792 863d
00000370: 5289 28bd d259 2f3d 5742 153c 1863 afbd
00000380: 7f1b c6bd 0bdf ef3c 2593 d6bd 781e 893d
00000390: 3b93 8cbd bfbc aabc 292f c83d be10 c0bc
000003a0: b2ec 64bd 604c 5bbd c191 1cbd be8c b2bd
000003b0: 1040 3ebc cd75 26bd 135c b8bd ea43 253d
000003c0: fe31 92bd 3ea1 d0ba 52fa 6e3c ba85 b83d
000003d0: cb59 383d 77e2 803d 0bc6 babc 64e5 973d
000003e0: 7321 fa3c 3b42 dbbd 9b88 75bd 211b 463d
000003f0: 7b4b b73c 852f 95bd 9419 a4bd 042e 843d
0.027000692 0.08900656 -0.08227932 -0.05936463 -0.10273915 -0.08661132 0.064425685 -0.0827802
-0.109695375 0.06795238 -0.098407656 0.019467065 -0.045940716 -0.04409706 -0.1069648 -0.0924814
-0.061084937 -0.045630142 0.04246302 0.089279346 -0.009366552 -0.0047090687 -0.024838911 -0.0878511
-0.03576969 -0.00821159 -0.08714019 0.045847975 -0.082629204 0.07868691 -0.10494212 0.038066883
0.007059292 0.038393125 0.06464103 -0.05773043 0.07316026 0.00553871 0.020010805 0.044686247
0.029299758 0.029912377 -0.075303614 -0.071312055 0.0352865 0.037420977 0.034908872 0.03130741
-0.08360064 0.057947148 0.063174516 0.043994207 0.089474075 0.08425325 -0.108086385 -0.06507486
0.094036765 -0.042759426 0.062219482 0.0055311 0.05051845 0.07317283 0.011985189 0.030081699
0.031757597 -0.07824188 0.08464271 -0.048813295 0.021254325 0.007351896 0.09126243 0.06188859
-0.0078081447 0.060176965 -0.07957413 -0.03800996 0.021801233 -0.07585707 -0.028999787 0.038176514
0.03350646 -0.007806038 0.07721544 -0.09394455 0.018571345 -0.061349887 0.06631762 -0.07182179
0.082336925 0.048458938 -0.09400974 0.0011660312 0.0833078 -0.046188876 -0.004826572 0.07330036
0.050894395 0.089816354 0.040443692 -0.009485677 -0.048696365 0.0058171586 0.05851994 -0.038029615
0.05564384 -0.045433883 0.035667315 -0.024572033 -0.076918535 0.090255044 -0.0945916 0.09059869
-0.05444888 -0.06734954 0.0574348 0.038518287 0.09805848 -0.0764626 -0.030781236 0.021673486
0.011566307 0.04786581 0.019180084 -0.0027531984 -0.005224753 0.05200442 -0.10277285 -0.1048348
0.008137654 -0.019786596 -0.00749538 -0.03192545 -0.0270189 -0.101002805 -0.07479097 0.053738013
-0.0009453722 0.052350115 0.056967467 0.06645112 -0.02451953 0.088773295 -0.056758672 0.007182872
0.014221658 0.060821824 -0.032782957 -0.008620403 -0.082335174 0.036480717 0.05098682 -0.06956563
0.06185123 -0.03626826 -0.06551135 0.012839868 0.034333143 -0.0746392 -0.073843025 0.023567641
0.09334994 -0.07973889 -0.05766618 -0.052815795 0.0918202 0.030028421 0.042873755 -0.04387667
-0.05063748 0.08364864 0.030862553 -0.0792737 0.022899915 0.02109583 0.014423871 -0.011994885
0.064303465 0.0023172419 -0.07347309 0.025462246 0.012371862 -0.0037273609 -0.037158243 0.09311026
-0.099699385 0.056869444 -0.0057040565 0.01149726 0.03433201 0.01706649 -0.0083195865 -0.03395775
-0.021901414 0.038989235 0.11770892 0.05814291 -0.064358346 -0.11264357 0.04817768 -0.0023996832
-0.08623988 -0.047464658 -0.004784779 -0.07279344 0.0134837255 0.07742626 0.07173529 -0.03167217
0.07077059 0.054248836 -0.04348879 0.0016066879 0.011612098 0.00739332 0.025256945 0.09158215
0.008204262 0.06362088 -0.08867089 0.06570964 -0.041146584 0.04281027 0.009110055 -0.085638225
-0.09673213 0.02928116 -0.10477284 0.066952646 -0.068640195 -0.020841954 0.0977462 -0.023445483
-0.055889793 -0.053539634 -0.03822494 -0.08718251 -0.011611953 -0.040639687 -0.09001937 0.04034797
-0.071384415 -0.0015917195 0.014586048 0.09009881 0.04500751 0.06293195 -0.022799512 0.074168
0.030533528 -0.10705992 -0.05994473 0.048365716 0.02237486 -0.07284454 -0.08012691 0.06454089

bias f4 [14]
00000000: 9dfb 363c eb7d 583d cc42 36bd 9103 153c
00000010: 079d 95bd acc1 a43d e672 9a3d b092 ac3d
00000020: b407 9d3d 4ecc 82bd d4df e1bb 1451 483d
00000030: 7fc7 5c3d 5855 95bc
0.011168388 0.05285446 -0.044497296 0.009095089 -0.07305341 0.080447525 0.075414464 0.08426416
0.07667485 -0.06386624 -0.0068931375 0.048905447 0.05390119 -0.018229172
