python/mod/re/modqig_seg2st1ss2verynice.pth (torch, 133711 bytes, 8 tensors)

weight f4 [120, 14]
0.22413951 -0.18391804 0.49761248 -0.2428293 0.20374961 0.41800037 0.5440475 -0.15553267
-0.52026707 0.18636088 0.20728196 0.6198834 0.61591667 -0.56920046 -0.51531273 0.35570872
0.43467867 0.30994716 -0.6344445 0.3760081 -0.863248 -0.5873887 -0.9498446 -1.056954
-0.38460562 -0.02641849 -0.62742525 -1.3722173 -0.12939964 -0.03553188 -1.1882918 -0.10993797
-0.7228049 0.7687569 -0.26209968 0.34460652 -0.23783246 -1.1212878 0.53663576 -0.6294414
0.6058134 -0.26388866 -0.0252696 -0.39768612 -0.05058797 0.2916608 -0.78124404 0.28320143
-0.19963466 0.60714567 0.9412446 -0.18321425 0.8930033 -0.1698498 -1.3681191 -0.33304977
0.043307316 0.09023682 0.35994202 0.28342503 -0.51437086 -0.37399083 0.54747397 -0.94757015
-0.37153664 -0.47250682 -0.77053607 -0.17545608 0.3835592 0.06721127 -0.16370384 -0.16706692
0.15034485 0.12320096 -0.002979212 0.15988183 0.13692124 -0.15701291 -0.0781832 0.19785148
0.06392081 -0.22087374 0.11024528 0.18742774 -0.5640503 -0.32419372 -0.18618207 0.27482277
0.6040827 -0.04930321 0.8029408 -0.11960801 -0.6898637 -0.10421458 -0.19214337 -0.87645346
-0.75191045 -0.7414564 -0.32863638 -0.010522315 0.05846444 -0.11860142 0.10404241 -0.14139718
0.015049109 -0.7886518 -0.80322725 -0.70988435 -0.7619144 0.73731387 0.83379 -0.7471494
0.16514352 -0.003759861 0.16979083 -0.18199311 -0.067556694 -0.036800742 0.15967986 -0.011441886
-0.016260892 -0.11128342 -0.11198622 0.25448123 0.14621177 0.16454664 0.37859997 -0.44989815
-0.07968903 0.01565483 -0.58708054 -0.66914475 -0.64058983 0.5903433 -0.509892 -0.45746365
0.3518474 0.3012089 0.21529675 1.0024781 -0.22382782 0.012362035 0.2771274 -0.5427241
-0.0084033115 -0.10087622 -0.30496708 0.8664649 -0.51407313 0.47782812 -0.17588711 -0.8180991
0.5707105 -0.7551316 -0.10589548 0.293426 0.018421032 -0.06061485 1.3951672 -0.0017463303
-0.9310492 -0.13295294 0.32044268 0.9315346 -0.11053503 -0.14271367 -1.3177716 0.80967337
-0.26148003 0.3565566 0.09162494 -0.24878184 0.90696913 0.023658397 -0.7177064 -0.13670543
-0.38953918 0.103718005 -0.8677297 0.30464956 -0.4786235 -0.12644142 -0.22238056 -0.20828703
-0.17543614 -0.048705406 0.014514221 0.69851303 0.8649107 0.30611905 -0.46540493 0.43721727
-0.24229838 0.058988776 0.27472565 0.11196054 -0.6232179 -0.13846926 -0.059194036 -0.033375908
-0.57088447 -0.5183882 0.45662862 -0.055001795 0.71557117 0.76089203 0.8738099 -0.025908863
-1.0933022 -0.39405915 -0.10540456 -0.11357411 -0.10789627 -0.10123903 0.10420911 -0.054303333
-0.15148902 -0.13352358 0.07087652 -0.12997185 -0.15741096 -0.222566 0.08896968 0.08498833
0.22663677 -0.39294052 0.32943395 -0.44538411 -1.4939839 -0.57393783 0.56692797 0.023782317
0.5524766 0.7692829 -0.4758541 -0.37046966 -0.9118253 -1.0778726 -0.10724027 0.2486213
-0.3511039 -0.0075684064 0.43887866 -0.55209 -1.2404797 0.24306217 0.43063664 -0.70425713
0.5614541 -0.7581078 0.9248167 -1.0355312 0.5160461 -0.5221493 0.31875545 -0.577246
00000000: d484 653e 0355 3cbe 10c7 fe3e 3ea8 78be
00000010: bda3 503e 2504 d63e b246 0b3f f543 1fbe
00000020: 3930 05bf 63d5 3e3e b941 543e aeb0 1e3f
00000030: b7ac 1d3f 1fb7 11bf 89eb 03bf 741f b63e
00000040: 348e de3e 65b1 9e3e f46a 22bf 2284 c03e
00000050: d2fd 5cbf 1b5f 16bf 0429 73bf 454a 87bf
00000060: 07eb c4be 976b d8bc f19e 20bf d1a4 afbf
00000070: 5781 04be e089 11bd f219 98bf 2927 e1bd
00000080: be09 39bf 41cd 443f ee31 86be 4470 b03e
00000090: 5a8a 73be 5c86 8fbf f660 093f 1223 21bf
000000a0: 9616 1b3f 6a1c 87be 3102 cfbc 849d cbbe
000000b0: 5535 4fbd 9054 953e 9cff 47bf c7ff 903e
000000c0: 076d 4cbe e66d 1b3f 68f5 703f 849c 3bbe
000000d0: dd9b 643f 1bed 2dbe 871e afbf 8085 aabe
000000e0: 0363 313d 15ce b83d 524a b83e 161d 913e
000000f0: cfad 03bf ba7b bfbe 4127 0c3f f593 72bf
00000100: 0d3a bebe 6aec f1be da41 45bf c2aa 33be
00000110: df61 c43e 10a6 893d fba1 27be 9713 2bbe
00000120: 00f4 193e c950 fc3d e23e 43bb 10b8 233e
00000130: 1535 0c3e fec7 20be 831e a0bd 9499 4a3e
00000140: eae8 823d ba2c 62be 47c8 e13d 0fed 3f3e
00000150: 9a65 10bf b8fc a5be 83a6 3ebe 92b5 8c3e
00000160: 2aa5 1a3f 2af2 49bd 878d 4d3f 0bf5 f4bd
00000170: e89a 30bf 746e d5bd 3bc1 44be 415f 60bf
00000180: 347d 40bf 16d0 3dbf 0743 a8be ca65 2cbc
00000190: 6978 6f3d 4de5 f2bd 3014 d53d 6cca 10be
000001a0: 8a90 763c 16e5 49bf 4da0 4dbf fbba 35bf
000001b0: d20c 43bf 9ac0 3c3f 4373 553f 2f45 3fbf
000001c0: 621b 293e 0068 76bb a6dd 2d3e 675c 3abe
000001d0: 2a5b 8abd 60bc 16bd 1e83 233e c076 3bbc
000001e0: 9035 85bc 90e8 e3bd 0859 e5bd 5d4b 823e
000001f0: 8ab8 153e ea7e 283e dbd7 c13e 0d59 e6be
00000200: 0134 a3bd 8f3e 803c e94a 16bf 124d 2bbf
00000210: b2fd 23bf bd20 173f 4888 02bf ad38 eabe
00000220: 5825 b43e 0e38 9a3e c076 5c3e 3451 803f
00000230: 1f33 65be 228a 4a3c a4e3 8d3e f7ef 0abf
00000240: 0bae 09bc 3198 cebd a524 9cbe a5d0 5d3f
00000250: 4c9a 03bf e3a5 f43e c01b 34be f16e 51bf
00000260: 151a 123f 4e50 41bf bbdf d8bd ef3b 963e
00000270: b4e7 963c 4747 78bd d794 b23f 1fe5 e4ba
00000280: 3e59 6ebf d124 08be 1011 a43e 0d79 6e3f
00000290: 3160 e2bd 8823 12be bdac a8bf c146 4f3f
000002a0: b6e0 85be 968e b63e dba5 bb3d abc0 7ebe
000002b0: 212f 683f 41cf c13c 9bbb 37bf 82fc 0bbe
000002c0: ae71 c7be 1b6a d43d 8923 5ebf 07fb 9b3e
000002d0: 240e f5be dc79 01be bbb7 63be 3249 55be
000002e0: 88a5 33be 527f 47bd 0ecd 6d3c c0d1 323f
000002f0: ca6a 5d3f a3bb 9c3e 8e49 eebe f1da df3e
00000300: 111d 78be 379e 713d d7a8 8c3e 914b e53d
00000310: 358b 1fbf e3ca 0dbe 7275 72bd 2db5 08bd
00000320: 7c25 12bf 17b5 04bf 3acb e93e 9049 61bd
00000330: ac2f 373f d2c9 423f 01b2 5f3f d33e d4bc
00000340: 54f1 8bbf 1fc2 c9be 59de d7bd 8b99 e8bd
00000350: b8f8 dcbd 6956 cfbd 966b d53d 2c6d 5ebd
00000360: f01f 1bbe 68ba 08be b527 913d 5717 05be
00000370: 5730 21be 57e8 63be bc35 b63d 5d0e ae3d
00000380: 7813 683e 802f c9be 91ab a83e 6309 e4be
00000390: dd3a bfbf 97ed 12bf 3122 113f 22d3 c23c
000003a0: 1b6f 0d3f b9ef 443f 26a3 f3be 33ae bdbe
000003b0: 626d 69bf bbf7 89bf c9a0 dbbd 9596 7e3e
000003c0: e4c3 b3be 6500 f8bb b4b4 e03e c555 0dbf
000003d0: 0ac8 9ebf 4ae5 783e 687c dc3e 324a 34bf
000003e0: 75bb 0f3f 5a13 42bf cac0 6c3f 498c 84bf
000003f0: 991b 043f 94ab 05bf ea33 a33e 65c6 13bf

bias f4 [120]
0.26259822 0.14536497 0.21040183 0.05494983 0.19796602 -0.15784429 0.022323817 -0.044421956
-0.25553358 0.0860692 0.2268046 0.21118967 0.25006753 0.13403817 -0.19197854 -0.2211031
0.116763584 0.22541235 -0.08354027 -0.15848857 -0.0012862791 0.036076266 -0.07369073 0.14589897
0.26377776 0.06794885 0.3806119 -0.19128364 -0.007201133 0.018545976 -0.21874359 0.14459234
0.058167636 0.18549307 0.09056086 0.20464821 -0.23423228 0.12796144 -0.25055778 0.06590164
-0.16148251 -0.12742123 0.18331003 0.05548107 0.13014293 0.17179023 -0.2613217 0.2856931
0.38922662 0.073027335 0.021658046 0.12742175 -0.08118932 0.24066383 0.2575879 0.15967207
-0.099194095 -0.13834275 0.1623151 0.1304469 -0.12998529 -0.19622101 0.17961253 0.15474911
-0.19884077 0.25395867 -0.20647936 0.0941668 -0.17941602 -0.13271901 -0.23208176 0.24618426
0.18408147 0.32246298 0.23259854 0.19359617 0.14536326 -0.1189082 -0.09328276 0.29600438
-0.01727687 0.13948311 -0.1540341 0.009507109 0.15499276 0.118997805 -0.24871765 0.027307065
0.07924503 0.30748457 0.19482699 0.2069205 -0.054947812 0.2714968 0.22854465 0.122215666
0.24912545 0.17817906 0.34285071 -0.23999435 0.21157949 0.113316625 -0.13956955 0.22323759
0.16727036 -0.2258185 0.074878775 0.2638184 -0.22564307 0.09206715 0.12765816 0.11232072
0.17939165 0.10744703 0.017732114 -0.12378934 0.12832056 0.21580684 -0.022195103 0.12167557
00000000: 4673 863e 8eda 143e 9473 573e 1313 613d
00000010: 9bb7 4a3e efa1 21be 70e0 b63c ccf3 35bd
00000020: 4cd5 82be 0c45 b03d 773f 683e 1b42 583e
00000030: da08 803e 4d41 093e 0696 44be da68 62be
00000040: bf21 ef3d 7fd2 663e 2917 abbd d44a 22be
00000050: 5d98 a8ba b5c4 133d 2aeb 96bd 8a66 153e
00000060: e10d 873e c428 8b3d 90df c23e dcdf 43be
00000070: 7bf7 ebbb bbed 973c 52fe 5fbe 0410 143e
00000080: 3041 6e3d e5f1 3d3e f977 b93d 4d8f 513e
00000090: 96da 6fbe 5308 033e 1c49 80be 70f7 863d
000000a0: ac5b 25be b67a 02be a0b5 3b3e 1e40 633d
000000b0: 3044 053e c7e9 2f3e f5cb 85be 5e46 923e
000000c0: b648 c73e 5b8f 953d 376c b13c d97a 023e
000000d0: 9646 a6bd 9470 763e 90e2 833e 1381 233e
000000e0: 4626 cbbd b9a9 0dbe ee35 263e df93 053e
000000f0: dd1a 05be 29ee 48be 59ec 373e 8d76 1e3e
00000100: ea9c 4bbe df06 823e 536f 53be 86da c03d
00000110: d5b8 37be 7ee7 07be d7a6 6dbe ba17 7c3e
00000120: da7f 3c3e de19 a53e 502e 6e3e 133e 463e
00000130: 1bda 143e 2486 f3bd 080b bfbd e38d 973e
00000140: 3988 8dbc a9d4 0e3e 1dbb 1dbe b5c3 1b3c
00000150: 6cb6 1e3e 1fb5 f33d d7af 7ebe 11b3 df3c
00000160: 384b a23d 9e6e 9d3e ba80 473e f8e2 533e
00000170: f510 61bd a101 8b3e 9c07 6a3e 354c fa3d
00000180: be1a 7f3e 9274 363e 218a af3e 14c1 75be
00000190: 4ba8 583e 8c12 e83d 52eb 0ebe 6598 643e
000001a0: ec48 2b3e f73c 67be 0b5a 993d 3513 873e
000001b0: fa0e 67be b48d bc3d d2b8 023e 6808 e63d
000001c0: 72b2 373e 300d dc3d f042 913c 4485 fdbd
000001d0: 7766 033e 78fc 5c3e 81d2 b5bc 0b31 f93d

weight f4 [120, 120]
0.040404126 -0.089479424 -0.009860832 -0.07869164 0.019462628 -0.08617124 0.054305527 -0.037887365
0.07186963 0.02830707 0.07760161 0.06977458 -0.062421482 -0.033345986 0.074189045 -0.043416686
0.033122215 -0.0013718939 0.02601885 0.02967681 -0.024069006 0.024024835 -0.021503842 0.072662786
-0.0025542423 0.030618727 -0.10087439 -0.05382522 -0.09600211 -0.071861826 0.060923383 -0.023857132
-0.09318593 -0.040964007 0.07236016 0.07696376 0.031166844 0.050739273 -0.06659394 0.0055734944
0.06717263 -0.09828206 -0.047044247 -0.0067146337 -0.06722996 -0.08384227 0.0858919 0.074806504
0.06478179 -0.018260024 -0.009179796 -0.074968934 0.06915599 -0.08737127 -0.079398245 0.061850928
0.019477721 -0.025073513 0.06893361 0.071221486 -0.058485877 -0.09483248 -0.042309694 0.05859077
-0.054899894 -0.017352888 -0.0027610362 0.073669225 -0.09048605 0.06306922 0.05826612 -0.10271911
0.031272314 0.07277422 0.04151881 0.01980534 0.02790511 0.07422956 0.060887832 -0.0620992
-0.014802196 -0.020142786 -0.02887066 -0.047972396 0.04216174 -0.048478317 -0.04704453 0.07111936
0.02326581 -0.10236105 -0.015125013 -0.047459554 0.03620122 0.063945785 -0.0124401795 0.02982994
-0.045160595 -0.05772116 -0.033468626 -0.0039662495 -0.039017297 -0.0836867 0.041046947 -0.07750995
-0.08461192 -0.06135442 0.040206846 -0.08098351 -0.0027334765 0.036346108 -0.056195363 0.009471018
0.0046373787 -0.05463985 -0.067338176 0.029207617 -0.0149037475 -0.06683966 -0.032170124 0.038621802
0.009714064 -0.081440404 0.09369849 0.06896855 0.3747453 0.05523597 -0.20545655 -0.06421272
0.018292166 0.17437449 -0.101188056 0.0472024 -0.03782416 -0.029793318 -0.20973593 0.022532424
0.08637655 -0.045385342 -0.3530708 -0.083204135 -0.2135268 0.12137339 -0.5043553 -0.1609274
-0.068217926 0.023040138 -0.012016503 0.096788414 -0.095882095 -0.1649985 0.044084072 0.060454544
-0.35622126 0.0995403 0.016351203 0.080415234 -0.02755382 -0.2832407 0.0505237 0.73422885
0.08529323 0.26715335 0.2988686 0.055649213 -0.078515045 0.32139853 0.08562867 0.021182543
0.06136774 0.0029770462 0.32411003 -0.060413085 -0.005197386 -0.018522529 0.054397766 0.18416564
-0.52408254 0.045357212 0.04519695 -0.07785827 -0.3490663 -0.0069631315 0.07229249 0.1322799
0.035821334 -0.07091085 0.03044141 -0.031667087 0.021606617 0.24501419 -0.025973268 0.35743767
0.11335777 -0.25308207 0.18853366 0.20282625 -0.05255122 0.43779835 0.06856607 -0.020907508
-0.07047922 -0.14672405 0.023345225 -0.18288602 -0.15392193 -0.081507705 -0.04499257 -0.31297874
-0.060804423 0.033437945 0.5047252 0.061897893 -0.20938638 0.018247146 0.11779574 0.037907567
-0.088761814 0.08967881 0.117488734 -0.017863706 -0.017507333 -0.06400564 -0.014444701 -0.040750124
0.07052319 0.26795885 0.5361404 0.014961074 0.06339353 0.67397165 0.16931544 0.036303498
0.03460272 -0.1870254 -0.055291682 0.02678699 0.05139105 -0.36797753 -0.14804862 0.02029843
-0.048886906 0.032127865 -0.18151322 0.4914215 0.023841634 0.081221834 -0.20215249 -0.14915766
-0.001107879 -0.021301717 -0.32249254 -0.045932427 -0.18733107 -0.6392086 1.2132915 0.04266412
00000000: cc7e 253d fd40 b7bd 548f 21bc 1529 a1bd
00000010: 1770 9f3c 8c7a b0bd 796f 5e3d c82f 1bbd
00000020: 6230 933d 3ae4 e73c 98ed 9e3d fae5 8e3d
00000030: abad 7fbd cd95 08bd 6df0 973d b2d5 31bd
00000040: 29ab 073d 1fd1 b3ba 7c25 d53c c81c f33c
00000050: 5d2c c5bc bbcf c43c d328 b0bc 3ad0 943d
00000060: 1365 27bb 20d4 fa3c 3b97 cebd d577 5cbd
00000070: c19c c4bd 4b2c 93bd cc8a 793d 0870 c3bc
00000080: 44d8 bebd e0c9 27bd 9031 943d 2d9f 9d3d
00000090: 9c51 ff3c fcd3 4f3d 6762 88bd dca1 b63b
000000a0: ce91 893d 1b48 c9bd 78b1 40bd 6e06 dcbb
000000b0: dcaf 89bd 7fb5 abbd 18e8 af3d 2734 993d
000000c0: 51ac 843d 0c96 95bc db66 16bc 5089 99bd
000000d0: a8a1 8d3d b5ef b2bd 8c9b a2bd 6657 7d3d
000000e0: be8f 9f3c f866 cdbc 112d 8d3d 92dc 913d
000000f0: e38e 6fbd 8837 c2bd ee4c 2dbd e0fc 6f3d
00000100: b6de 60bd a527 8ebc 80f2 34bb e4df 963d
00000110: c050 b9bd 6f2a 813d 74a8 6e3d 665e d2bd
00000120: 6617 003d a60a 953d a10f 2a3d cf3e a23c
00000130: 4299 e43c ab05 983d 8565 793d bb5b 7ebd
00000140: e984 72bc 7c02 a5bc 2a82 ecbc b47e 44bd
00000150: cab1 2c3d 3391 46bd c4b1 40bd 07a7 913d
00000160: f197 be3c aca2 d1bd e7ce 77bc f364 42bd
00000170: bb47 143d 02f6 823d e5d1 4bbc eb5d f43c
00000180: 51fa 38bd 066d 6cbd 6616 09bd 50f7 81bb
00000190: 9ad0 1fbd ef63 abbd d820 283d 89bd 9ebd
000001a0: 0449 adbd c64e 7bbd efaf 243d afda a5bd
000001b0: 2024 33bb a8df 143d 1c2d 66bd 542c 1b3c
000001c0: 27f5 973b 09ce 5fbd 99e8 89bd d044 ef3c
000001d0: d92e 74bc 3be3 88bd d2c4 03bd e531 1e3d
000001e0: bd27 1f3c 3aca a6bd fee4 bf3d 623f 8d3d
000001f0: 9ede bf3e 1d3f 623d 3463 52be f581 83bd
00000200: 74d9 953c 3a8f 323e af3b cfbd 4e57 413d
00000210: 82ed 1abd 1e11 f4bc 04c5 56be eb95 b83c
00000220: 30e6 b03d fbe5 39bd b2c5 b4be ee66 aabd
00000230: c5a6 5abe 9d92 f83d 6e1d 01bf 27ca 24be
00000240: d7b5 8bbd acbe bc3c dee0 44bc 0139 c63d
00000250: d55d c4bd 5ef5 28be 8091 343d 2f9f 773d
00000260: a262 b6be c9db cb3d f5f2 853c beb0 a43d
00000270: 8cb8 e1bc ed04 91be f0f1 4e3d 6cf6 3b3f
00000280: 38ae ae3d 53c8 883e 4e05 993e 6ef0 633d
00000290: 7fcc a0bd 598e a43e 165e af3d 0387 ad3c
000002a0: bd5c 7b3d 8c1a 433b c0f1 a53e b673 77bd
000002b0: d54e aabb 8fbc 97bc 31d0 5e3d eb95 3c3e
000002c0: 462a 06bf 7cc8 393d 7020 393d 2874 9fbd
000002d0: d1b8 b2be fb2a e4bb 160e 943d 6274 073e
000002e0: 64b9 123d b539 91bd 4460 f93c 59b5 01bd
000002f0: 5c00 b13c 00e5 7a3e e4c5 d4bc 1202 b73e
00000300: 1e28 e83d f993 81be f80e 413e afb1 4f3e
00000310: f33f 57bd 1b27 e03e 5e6c 8c3d 3946 abbc
00000320: 6957 90bd d43e 16be 7c3e bf3c 7946 3bbe
00000330: b69d 1dbe 83ed a6bd 214a 38bd c03e a0be
00000340: 0f0e 79bd 3af6 083d ac35 013f a588 7d3d
00000350: 6269 56be 0a7b 953c e53e f13d f744 1b3d
00000360: c1c8 b5bd 86a9 b73d ef9d f03d e856 92bc
00000370: 8a6b 8fbc 6415 83bd 78a9 6cbc 9ae9 26bd
00000380: 766e 903d e731 893e 7f40 093f 4b1f 753c
00000390: 78d4 813d 6889 2c3f 0761 2d3e fab2 143d
000003a0: 95bb 0d3d 9683 3fbe 8879 62bd 6470 db3c
000003b0: 6c7f 523d 8d67 bcbe 0f9a 17be e548 a63c
000003c0: a33d 48bd 8298 033d 9ade 39be 999b fb3e
000003d0: 884f c33c a257 a63d 1001 4fbe c9bc 18be
000003e0: 4036 91ba f080 aebc be1d a5be a423 3cbd
000003f0: b7d3 3fbe 2da3 23bf 234d 9b3f 93c0 2e3d

bias f4 [120]
0.003585978 0.120659895 -0.008394153 0.026345173 0.05324439 -0.05455434 -0.016106302 -0.087904975
0.059832096 -0.04954099 -0.08534609 -0.067433804 -0.049755495 -0.032077372 -0.028390452 -0.047557842
0.0036532292 -0.016030906 -0.049728826 -0.058325574 0.05094198 0.06776675 0.10417634 0.023177845
-0.03289473 0.03654061 0.0067613777 0.09982495 0.061216235 -0.10448121 0.061513733 -0.06576037
0.038882706 -0.0258558 0.0901197 0.07978916 0.040279314 -0.07130629 0.06285493 -0.08736961
-0.005993777 0.03221533 -0.048666492 0.00022294617 -0.075212374 -0.04638356 -0.03889068 0.016488146
0.04958715 0.073464066 0.03568766 -0.041606978 -0.08751893 -0.1153882 -0.011845351 -0.06606157
-0.041761793 0.0479016 0.042747773 0.079775244 -0.06023094 0.014756142 -0.002016996 0.11788913
-0.091465026 -0.0366132 0.038948294 -0.068094164 0.08910164 0.05477188 -0.058511525 0.06263745
0.04029717 -0.099686384 0.044441994 -0.082169466 0.00036160997 0.043737687 -0.04223496 -0.1126756
-0.05129192 0.004120494 -0.086101286 -0.08489256 0.04416661 0.016830832 0.05537048 -0.025264636
-0.02326734 -0.0469529 -0.054050535 -0.04849526 -0.049511604 -0.024544125 0.094504565 -0.09339653
0.0025207256 -0.0039576516 0.036239985 0.092613064 -0.12050643 0.038918957 0.07275798 0.09524176
0.014797229 -0.07539953 0.04652396 0.018030154 0.0042264927 -0.0014410012 -0.06464598 0.1732007
-0.007858404 -0.029199874 -0.044700053 0.012360962 0.08772543 0.10092412 0.09539648 -0.09048891
00000000: ba02 6b3b 891c f73d a187 09bc d5d1 d73c
00000010: ca16 5a3d 5f74 5fbd 5df1 83bc 8607 b4bd
00000020: 8012 753d 7eeb 4abd eec9 aebd bc1a 8abd
00000030: 6bcc 4bbd 9063 03bd 1893 e8bc 03cc 42bd
00000040: 046b 6f3b 3f53 83bc 74b0 4bbd cce6 6ebd
00000050: 8aa8 503d 4bc9 8a3d 685a d53d 77df bd3c
00000060: a0bc 06bd 9bab 153d 8c8e dd3b 0671 cc3d
00000070: e0bd 7a3d 3ffa d5bd d3f5 7b3d 5fad 86bd
00000080: 7943 1f3d 8bcf d3bc ad90 b83d 8068 a33d
00000090: ecfb 243d 0809 92bd 16ba 803d d7ee b2bd
000000a0: 7267 c4bb 39f4 033d 8456 47bd a8c6 6939
000000b0: f208 9abd b0fc 3dbd d54b 1fbd 2612 873c
000000c0: e51b 4b3d 5474 963d 392d 123d 146c 2abd
000000d0: 203d b3bd a650 ecbd 0113 42bc 4a4b 87bd
000000e0: 6a0e 2bbd 7834 443d 4a18 2f3d 3461 a33d
000000f0: b8b4 76bd bfc3 713c 942f 04bb db6f f13d
00000100: 0452 bbbd b9f7 15bd 3f88 1f3d f474 8bbd
00000110: ec7a b63d 7b58 603d c8a9 6fbd 1048 803d
00000120: a50e 253d 6028 ccbd cf08 363d 7748 a8bd
00000130: 7896 bd39 4a26 333d 91fe 2cbd 77c2 e6bd
00000140: 7a17 52bd 3505 873b df55 b0bd 27dc adbd
00000150: 0ce8 343d d0e0 893c 28cc 623d c8f7 cebc
00000160: 269b bebc af51 40bd 1864 5dbd f7a2 46bd
00000170: aecc 4abd c310 c9bc 9c8b c13d ae46 bfbd
00000180: c232 253b 30af 81bb 6170 143d ebab bd3d
00000190: 13cc f6bd 7c69 1f3d 2302 953d 1d0e c33d
000001a0: 1470 723c 126b 9abd e88f 3e3d f9b3 933c
000001b0: 647e 8a3b fadf bcba 1d65 84bd 865b 313e
000001c0: 89c0 00bc 9334 efbc 6717 37bd a285 4a3c
000001d0: 64a9 b33d 4eb1 ce3d 3b5f c33d 4052 b9bd

weight f4 [120, 120]
-0.003167483 0.058219794 0.03578859 0.027154986 -0.09805561 0.066479854 0.05272126 -0.015792487
-1.0445725 -0.029983465 -0.040147465 0.048970617 -0.008255902 -0.006543511 0.02892588 0.0626048
-0.08720194 0.27920386 0.045038473 -0.06887959 0.07059703 -0.22265501 -0.036229324 -0.43613905
-0.054174952 0.116493806 -0.11548624 -0.048612677 0.36431488 -0.044403527 0.0015641167 0.02966138
-0.28950343 -4.860366 -0.07410607 0.04785203 0.0756906 -0.016731715 -0.0040733833 -0.08478446
0.039629474 -1.1599226 -0.05991807 -0.0027130477 0.11255721 0.034846395 0.3373082 -0.03257425
0.3733465 0.13026932 -0.14717698 -0.17431717 0.022192223 0.024811435 0.07307812 0.060185708
-0.005556636 -0.16875279 -0.17882918 0.18049215 -0.13185434 -0.06577096 -0.02336092 0.19157857
-0.009388591 0.5873242 -0.07059141 -0.010298185 -0.21233667 0.118795484 0.051785305 -0.093405806
-0.026865628 0.04110779 -0.05605112 -0.01067307 -0.008938904 0.043806586 -0.11493054 0.00211102
-0.23881578 0.046112448 -0.019420303 0.045095004 0.023100756 0.07891685 0.1618042 0.17053708
-0.0010820727 0.042687483 -0.054040447 -0.09879084 -0.08734799 -0.09404168 0.051175594 -0.6404767
0.046690438 0.079969466 0.73208576 -0.10809002 0.027884914 -0.10363867 -0.058741327 -0.07024836
0.44915077 -0.008027514 -0.28622997 -0.6447191 0.22569516 -0.063992724 0.10282287 -0.13252077
-0.74223393 -0.41455516 0.17449878 0.048655108 0.15362291 0.16389352 -0.042170506 0.0568296
-0.0031777518 -0.109344654 0.0035856247 0.045952953 0.012661092 -0.056117058 -0.065342635 -0.047510535
-1.2838701 -0.017036589 -0.04996213 0.024270723 0.022041475 0.4017774 -0.04084601 0.023829872
0.20993733 0.1446399 -0.05996316 -0.025982602 0.050826497 -0.06518507 0.050757 -0.17858319
-0.07648453 0.05248045 0.33662397 0.03080059 -0.0040969364 0.017435836 -0.0016118714 0.074330196
-0.48499137 -2.8338761 -0.009763853 0.01777084 -0.07978522 0.029741393 -0.13435751 0.06402425
0.04844394 -0.7450733 -0.014939327 -0.03247735 -0.24821155 -0.06854009 0.11265507 0.011910411
-0.50653124 0.1634251 0.036157776 -0.23996347 -0.04809126 -0.0838751 0.18304785 -0.08908003
0.012962324 -0.13391477 -0.2555914 0.08378069 -0.050108474 0.21633708 -0.084079064 -0.08460133
0.081909046 0.8990435 -0.18387401 -0.06476561 -0.12892935 -0.060779843 -0.01563157 -0.062484127
-0.0040011844 0.050724782 0.013050568 0.02850353 0.043274682 -0.10513043 0.17340216 -0.043170594
0.30242628 0.046848346 0.040556863 -0.008783971 -0.02505895 -0.28594118 -0.042680826 -0.20518412
-0.009024092 -0.06574365 0.00041225553 -0.05766179 0.014409944 -0.16166645 -0.1458231 -1.0634596
-0.011106114 -0.0001205951 0.91694057 0.18662752 -0.010865313 -0.03472388 0.04072027 0.15347712
-0.3311966 0.02922912 -0.15179855 -0.12373605 -0.16407119 0.14443463 0.09832635 -0.05648234
0.8343558 0.3025683 -0.17973138 -0.03398789 0.01330608 -0.091721006 -0.32383546 -0.089005634
0.025325328 -0.1680117 -0.21905646 -0.047727156 0.04335876 0.06058697 -0.24888812 -0.060372982
-2.561593 0.07676366 0.04125765 -0.08243722 0.080308154 -0.024918154 -0.0696943 0.047910463
00000000: 8c95 4fbb e177 6e3d 0e97 123d 2274 de3c
00000010: 61d1 c8bd 9726 883d 3ff2 573d 3f5f 81bc
00000020: 8db4 85bf e29f f5bc ab71 24bd 6a95 483d
00000030: c343 07bc f36a d6bb f8f5 ec3c f236 803d
00000040: ee96 b2bd cff3 8e3e 437a 383d be10 8dbd
00000050: 2d95 903d adff 63be 3365 14bd 9e4d dfbe
00000060: 8ee6 5dbd 4e94 ee3d 0d84 ecbd 161e 47bd
00000070: 7b87 ba3e 79e0 35bd 0c03 cd3a 6cfc f23c
00000080: cb39 94be 1e88 9bc0 ecc4 97bd 7d00 443d
00000090: ac03 9b3d f310 89bc 047a 85bb 7aa3 adbd
000000a0: 8452 223d 5878 94bf a66c 75bd 63cd 31bb
000000b0: 6584 e63d 18bb 0e3d a9b3 ac3e 946c 05bd
000000c0: 4627 bf3e 5265 053e 90b5 16be 3380 32be
000000d0: 77cc b53c 5a41 cb3c fba9 953d 4a85 763d
000000e0: 7114 b6bb 88cd 2cbe ff1e 37be efd2 383e
000000f0: d304 07be edb2 86bd 665f bfbc 2c2d 443e
00000100: 9bd2 19bc e15a 163f 3b92 90bd b8b9 28bc
00000110: c96e 59be 0c4b f33d d41c 543d 8b4b bfbd
00000120: 4e15 dcbc a460 283d dc95 65bd 1ade 2ebc
00000130: 7b74 12bc 896e 333d b460 ebbd 0a59 0a3b
00000140: 208c 74be 68e0 3c3d 5417 9fbc 8ab5 383d
00000150: cc3d bd3c 289f a13d 00b0 253e 46a1 2e3e
00000160: 56d4 8dba 12d9 2e3d 8459 5dbd da52 cabd
00000170: 81e3 b2bd ed98 c0bd 809d 513d 48f6 23bf
00000180: 793e 3f3d 08c7 a33d f969 3b3f 4d5e ddbd
00000190: e76e e43c 8340 d4bd bf9a 70bd 5fde 8fbd
000001a0: 17f7 e53e d685 03bc bc8c 92be 500c 25bf
000001b0: a21c 673e 9e0e 83bd cc94 d23d 86b3 07be
000001c0: 0b03 3ebf 9340 d4be cfaf 323e 944a 473d
000001d0: 534f 1d3e b4d3 273e fbba 2cbd 28c6 683d
000001e0: d441 50bb 17f0 dfbd cdfc 6a3b 2a39 3c3d
000001f0: 7870 4f3c 00db 65bd 5cd2 85bd 689a 42bd
00000200: db55 a4bf 5190 8bbc 17a5 4cbd 65d3 c63c
00000210: 5390 b43c c4b5 cd3e 254e 27bd dd36 c33c
00000220: d0f9 563e 7b1c 143e ee9b 75bd 77d9 d4bc
00000230: 722f 503d c07f 85bd 92e6 4f3d 83de 36be
00000240: eca3 9cbd bef5 563d fa59 ac3e 8551 fc3c
00000250: 983f 86bb 99d5 8e3c 6e45 d3ba 6e3a 983d
00000260: ca50 f8be 3a5e 35c0 91f8 1fbc 2794 913c
00000270: 6f66 a3bd 39a4 f33c 0495 09be 251f 833d
00000280: 276d 463d 20bd 3ebf 14c4 74bc f806 05bd
00000290: 2b2b 7ebe bf5e 8cbd b4b7 e63d e223 433c
000002a0: 08ac 01bf e958 273e 2d1a 143d fcb8 75be
000002b0: 57fb 44bd b5c6 abbd e570 3b3e 976f b6bd
000002c0: ed5f 543c f420 09be e0dc 82be 3695 ab3d
000002d0: 8b3e 4dbd 7887 5d3e a531 acbd 7643 adbd
000002e0: eebf a73d b727 663f 7849 3cbe d5a3 84bd
000002f0: 0e06 04be 49f4 78bd c70d 80bc 5bef 7fbd
00000300: 5e1c 83bb cac4 4f3d 0dd2 553c 3c80 e93c
00000310: cb40 313d 9f4e d7bd 5690 313e a6d3 30bd
00000320: 9ed7 9a3e 0de4 3f3d f41e 263d a5ea 0fbc
00000330: 6d48 cdbc e266 92be 17d2 2ebd c91b 52be
00000340: c9d9 13bc 9ba4 86bd 0024 d839 c52e 6cbd
00000350: b017 6c3c e48b 25be a752 15be 721f 88bf
00000360: 6bf6 35bc 00e8 fcb8 9ebc 6a3f 491b 3f3e
00000370: 6d04 32bc a13a 0ebd 4cca 263d 1b29 1d3e
00000380: 9a92 a9be e871 ef3c 1471 1bbe 5469 fdbd
00000390: 4702 28be ace6 133e 535f c93d 075a 67bd
000003a0: 5798 553f 3bea 9a3e 810b 38be e336 0bbd
000003b0: bf01 5a3c 39d8 bbbd c3cd a5be 9648 b6bd
000003c0: 1077 cf3c 420b 2cbe 5650 60be 8d7d 43bd
000003d0: f598 313d 0b2a 783d 87dc 7ebe a949 77bd
000003e0: 24f1 23c0 4436 9d3d c8fd 283d d8d4 a8bd
000003f0: 9a78 a43d 2821 ccbc e3bb 8ebd c33d 443d

bias f4 [120]
0.07829952 -0.12227372 -0.09053814 -0.023794526 -0.17742313 0.054566145 -0.022955852 0.0221218
-0.04300027 0.035794355 -0.028549587 -0.04310355 -0.069149725 -0.10564695 0.044283323 -0.04373465
-0.021943787 0.0259886 0.0048598666 -0.09649805 0.034747604 -0.09136522 -0.025559828 -0.0022345323
0.012286967 0.065325364 0.04393203 -0.006944395 0.019408429 -0.07439839 -0.04163584 -0.016627697
0.028571377 0.040680315 0.021535208 -0.004883509 -0.047919005 -0.1353681 -0.06623904 0.017556855
-0.06391601 0.05838968 -0.027014779 0.0014564194 0.056446254 0.097553335 -0.015669422 -0.081021905
-0.09899312 -0.05453848 -0.027283655 -0.119940534 0.011328187 -0.026689988 -0.06827354 -0.053670667
0.024195505 -0.02457767 0.0333768 0.1442265 -0.105589665 -0.075317055 0.005167764 -0.07980949
-0.048195817 -0.06394194 -0.0007963441 0.08375501 -0.08833983 -0.019350383 -0.072990656 0.043967783
-0.084356695 -0.013986289 -0.038992405 -0.0902158 -0.008641388 0.03243361 0.01293894 -0.09094578
0.09504512 0.0003710054 -0.023420598 -0.023834199 0.003936905 -0.07112486 0.014275506 -0.045743592
0.052395266 -0.033594504 -0.062718704 -0.077771775 0.030315937 -0.042895656 -0.032230318 -0.10477267
0.05154673 -0.10476107 0.029462459 0.052637283 -0.03676819 -0.066358 0.06379386 -0.09420524
-0.017141791 0.020800289 -0.025420958 0.06648079 -0.13512422 0.023462629 0.049954023 -0.10530933
-0.09153798 -0.06637016 -0.044769574 -0.0048276666 -0.09225522 -0.06988928 0.059968315 -0.001991053
00000000: 805b a03d a56a fabd 0f6c b9bd bdec c2bc
00000010: 69ae 35be c080 5f3d e90d bcbc c738 b53c
00000020: 0d21 30bd 1a9d 123d d3e0 e9bc 598d 30bd
00000030: 5f9e 8dbd 6e5d d8bd 6e62 353d 1b23 33bd
00000040: 75c3 b3bc 0be6 d43c 843f 9f3b c5a0 c5bd
00000050: 8153 0e3d b01d bbbd d862 d1bc 3b71 12bb
00000060: 464f 493c 4ec9 853d 13f2 333d cf8d e3bb
00000070: 6dfe 9e3c 2f5e 98bd 588a 2abd cf36 88bc
00000080: 850e ea3c 67a0 263d 9b6a b03c d805 a0bb
00000090: b846 44bd ef9d 0abe 55a8 87bd 65d3 8f3c
000000a0: 66e6 82bd 042a 6f3d 194e ddbc 53e5 be3a
000000b0: 3034 673d 0bca c73d 295d 80bc d0ee a5bd
000000c0: e8bc cabd be63 5fbd f981 dfbc 62a3 f5bd
000000d0: dc99 393c f6a4 dabc ffd2 8bbd c6d5 5bbd
000000e0: a735 c63c 1c57 c9bc 1db6 083d 1db0 133e
000000f0: 653f d8bd d43f 9abd 5956 a93b 2873 a3bd
00000100: fa68 45bd fef3 82bd bfc1 50ba bf87 ab3d
00000110: 83eb b4bd b284 9ebc 207c 95bd 9017 343d
00000120: 34c3 acbd bf26 65bc 80b6 1fbd 10c3 b8bd
00000130: 9c94 0dbc 1bd9 043d d9fd 533c c841 babd
00000140: 04a7 c23d 8083 c239 8edc bfbc f03f c3bc
00000150: 2701 813b e9a9 91bd d0e3 693c a25d 3bbd
00000160: 6b9c 563d 649a 09bd aa72 80bd cf46 9fbd
00000170: 2159 f83c 5bb3 2fbd f003 04bd 0e93 d6bd
00000180: aa22 533d f98c d6bd 415b f13c 319a 573d
00000190: 3e9a 16bd b4e6 87bd 5ba6 823d adee c0bd
000001a0: f16c 8cbc 5e65 aa3c 9d3f d0bc 1527 883d
000001b0: 015e 0abe b334 c03c 979c 4c3d 6bac d7bd
000001c0: 4478 bbbd 14ed 87bd 4d60 37bd 6731 9ebb
000001d0: 4ef0 bcbd 1c22 8fbd 56a1 753d 547c 02bb

weight f4 [14, 120]
-0.07195816 -0.06627517 -0.0149577875 -0.0036775891 0.043065235 -0.017026544 0.100480996 0.021491257
-0.08077712 0.024679419 0.016773468 0.021894261 -0.048875414 0.020902906 -0.029697057 0.112601064
-0.011679353 0.06571609 -0.07116952 -0.091172 0.04618079 0.1903724 -0.02054651 0.07403313
0.15525216 0.0025673432 0.07004442 0.13425148 -0.021910328 -0.09047651 -0.010872672 -0.09011753
-0.10378399 0.12845443 -0.06073511 0.035953533 0.06328988 0.016475694 -0.0017340934 -0.059762895
0.089051686 -0.11077323 0.13515398 -0.107538104 -0.07233348 -0.08651132 0.01194245 -0.062460966
0.0029243317 0.020077748 -0.0705056 -0.10265455 -0.070001006 -0.07751353 0.05032313 0.07289703
0.004202533 -0.01699897 0.018955749 -0.025702931 -0.0831515 -0.024107728 -0.013743412 -0.086429164
-0.043990195 0.14283797 0.09796254 -0.009248354 0.022737458 -0.1272378 0.1201571 -0.07274426
0.050280076 -0.14522547 -0.09661288 0.074897334 0.091325596 0.042711 -0.03341001 0.18746129
0.08345818 -0.03913158 0.091284536 0.052310184 -0.105638064 0.16549326 0.0034311234 -0.04608982
0.1507783 -0.042210113 -0.074383244 -0.037218884 0.043796726 0.0823095 0.015869373 0.0015618508
-0.0066624465 -0.059632618 0.14491898 0.13840896 0.0009088433 0.008902297 -0.0042279903 -0.059780475
-0.05670778 -0.010792747 -0.05793402 -0.05360164 -0.026544524 0.036676973 0.16206238 0.13331191
-0.0972005 0.07804084 0.10495015 0.039496735 0.053288486 -0.18626931 0.093600385 0.03271545
0.06288354 -0.10374631 -0.04646688 0.0054052086 -0.059850298 0.09148004 -0.007921167 0.10407485
-0.061765205 0.13015415 0.07504966 -0.073469475 -0.12524989 0.07329795 0.05406527 -0.04730037
-0.14157064 -0.18442303 -0.037931524 -0.0766088 0.11270495 -0.011846913 -0.11054243 0.18361972
0.044176668 -0.09753747 -0.076307036 0.0831943 0.11926051 0.044190772 0.020968582 -0.009988626
0.061147936 -0.06301091 -0.072758876 -0.054409064 -0.12486291 0.09748518 -0.12809174 0.1103024
-0.032286305 -0.010912381 -0.12710544 0.15690398 -0.0036128357 0.08036172 0.09579936 0.16050811
-0.035509292 0.004089288 -0.059586264 0.009908663 0.17346501 -0.021178667 -0.112254135 -0.11639471
0.021700727 -0.050356507 0.036930162 0.12868614 0.088860914 -0.006337907 -0.056944568 -0.021022098
0.07568985 -0.12388334 0.10285322 -0.053996243 0.106890745 0.16682634 0.03204237 0.034491543
0.07867079 0.21439655 0.030211847 -0.1352266 -0.09627951 -0.12621412 -0.040945265 0.081793785
0.09817373 0.12610686 0.093762346 0.0070737526 0.013045179 -0.0061219926 0.05826106 -0.020733263
-0.044364884 -0.012307372 0.05764727 0.09278409 -0.14285015 -0.12769918 0.011001608 -0.02141071
-0.13186903 -0.124312185 0.056477338 -0.02558014 0.12217241 0.049065914 -0.09792207 -0.07929945
-0.00017065162 0.06673434 0.031340968 -0.11026552 0.06477827 -0.068783075 0.23565795 -0.04504538
0.0004505708 0.02705344 0.1036829 -0.031447157 0.002501912 0.20875795 0.04225187 0.011866404
-0.018754786 0.016069727 -0.065446764 0.10299444 0.082405366 0.080845825 0.016519224 -0.07845835
-0.022397386 0.12346048 -0.0740093 -0.18055615 0.089146085 -0.08837568 0.12766433 0.07349994
00000000: cd5e 93bd 47bb 87bd 8211 75bc b503 71bb
00000010: 2c65 303d 407b 8bbc fbc8 cd3d 6f0e b03c
00000020: 7a6e a5bd 7e2c ca3c 8368 893c 985b b33c
00000030: 9631 48bd 923c ab3c 3e47 f3bc 639b e63d
00000040: c25a 3fbc 2896 863d 53c1 91bd 63b8 babd
00000050: 1128 3d3d fcf0 423e 2851 a8bc af9e 973d
00000060: 6cfa 1e3e df40 283b 7373 8f3d 3879 093e
00000070: 4a7d b3bc c04b b9bd 4b23 32bc 8a8f b8bd
00000080: b38c d4bd 8f89 033e 61c5 78bd 0344 133d
00000090: 209e 813d 09f8 863c 854a e3ba f0c9 74bd
000000a0: bb60 b63d 13dd e2bd ce65 0a3e f03c dcbd
000000b0: 9323 94bd d92c b1bd 44aa 433c 12d7 7fbd
000000c0: 25a6 3f3b 177a a43c 3d65 90bd 8c3c d2bd
000000d0: b05c 8fbd 6abf 9ebd a01f 4e3d 0a4b 953d
000000e0: 67b5 893b 6d41 8bbc 1649 9b3c f48e d2bc
000000f0: 554b aabd 927d c5bc 0c2c 61bc c601 b1bd
00000100: 102f 34bd 1e44 123e 96a0 c83d 6886 17bc
00000110: e843 ba3c a04a 02be ed14 f63d f1fa 94bd
00000120: 7bf2 4d3d fcb5 14be f9dc c5bd c663 993d
00000130: ea08 bb3d bbf1 2e3d efd8 08bd daf5 3f3e
00000140: 1fec aa3d 7048 20bd 63f3 ba3d 3443 563d
00000150: c558 d8bd 1177 293e b3dc 603b aec8 3cbd
00000160: a065 1a3e 83e4 2cbd 3e56 98bd d472 18bd
00000170: 3264 333d e291 a83d 7d00 823c 04b7 cc3a
00000180: a750 dabb 5541 74bd a465 143e 14bb 0d3e
00000190: 713f 6e3a f1da 113c f48a 8abb 5fdc 74bd
000001a0: 6b46 68bd 10d4 30bc 394c 6dbd 658d 5bbd
000001b0: e773 d9bc 983a 163d aef3 253e eb82 083e
000001c0: 0e11 c7bd e0d3 9f3d 1bf0 d63d 54c7 213d
000001d0: 0745 5a3d 62bd 3ebe 8fb1 bf3d a300 063d
000001e0: 16c9 803d f278 d4bd 0e54 3ebd 2d1e b13b
000001f0: 9625 75bd e359 bb3d c8c7 01bc 3225 d53d
00000200: 83fd 7cbd 2147 053e a3b3 993d 2a77 96bd
00000210: 8241 00be 3c1d 963d 8b73 5d3d 08be 41bd
00000220: e5f7 10be 64d9 3cbe 165e 1bbd 13e5 9cbd
00000230: dad1 e63d 8e19 42bc 1264 e2bd cf06 3c3e
00000240: 98f2 343d bac1 c7bd dd46 9cbd c661 aa3d
00000250: db3e f43d 6201 353d 4ec6 ab3c 56a7 23bc
00000260: 4276 7a3d dd0b 81bd 9b02 95bd 0adc 5ebd
00000270: 20b8 ffbd 4fa6 c73d 7b2a 03be 3ae6 e13d
00000280: a53e 04bd d8c9 32bc ee27 02be 70ab 203e
00000290: 53c5 6cbb af94 a43d 7432 c43d 3d5c 243e
000002a0: 3172 11bd 6fff 853b ba10 74bd f257 223c
000002b0: d0a0 313e e27e adbc 7fe5 e5bd 5a60 eebd
000002c0: b9c5 b13c a042 4ebd 1544 173d 4dc6 033e
000002d0: b6fc b53d 38ae cfbb b53e 69bd 8936 acbc
000002e0: 4803 9b3d 8cb6 fdbd b6a4 d23d 2a2b 5dbd
000002f0: 89e9 da3d 86d4 2a3e dc3e 033d 0147 0d3d
00000300: 271e a13d c58a 5b3e d67e f73c d878 0abe
00000310: 312e c5bd 463e 01be 39b6 27bd 8083 a73d
00000320: 4f0f c93d 2822 013e 7906 c03d f0ca e73b
00000330: 72bb 553c ff9a c8bb 26a3 6e3d ced8 a9bc
00000340: f4b7 35bd dca4 49bc 8b1f 6c3d 9605 be3d
00000350: 4f47 12be 93c3 02be 1740 343c 8365 afbc
00000360: ad08 07be 6397 febd c854 673d 718d d1bc
00000370: 8735 fa3d 57f9 483d 5e8b c8bd c067 a2bd
00000380: f2f0 32b9 03ac 883d 635f 003d e4d2 e1bd
00000390: 78aa 843d 24de 8cbd 5150 713e 8181 38bd
000003a0: 973a ec39 2d9f dd3c b357 d43d bcce 00bd
000003b0: 1ef7 233b a5c4 553e 4c10 2d3d 4e6b 423c
000003c0: a3a3 99bc a9a4 833c f408 86bd c0ee d23d
000003d0: 25c4 a83d 7f92 a53d 5353 873c c5ae a0bd
000003e0: b97a b7bc d9d8 fc3d 3092 97bd b6e3 38be
000003f0: 3992 b63d 4ffe b4bd 70ba 023e 2387 963d

bias f4 [14]
-0.064845555 0.030127328 -0.08179443 0.08043272 -0.08952404 -0.08643252 -0.076601505 0.05707801
-0.03207251 0.070969395 -0.026726777 -0.017613944 0.040057063 -0.04436308
00000000: bfcd 84bd 96cd f63c d783 a7bd e9b9 a43d
00000010: 6158 b7bd 8803 b1bd 40e1 9cbd a2ca 693d
00000020: 775e 03bd 6758 913d 1df2 dabc 1e4b 90bc
00000030: e012 243d 10b6 35bd
