python/mod/re/modqig_seg2st1ss2canimproveandallnice.pth (torch, 133711 bytes, 8 tensors)

weight f4 [120, 14]
0.16725945 -0.09185474 0.14657056 -0.2902981 0.13523425 0.20414616 0.43888757 -0.07906262
-0.6264628 0.30089778 0.09061813 0.30390236 0.5388699 -0.7030572 -0.4527608 0.34930742
0.36358634 0.21904181 -0.52808905 0.36530334 -0.73294455 -0.6180657 -0.7505894 -0.7976482
-0.24711451 0.04592991 -0.42542553 -1.0768068 -0.06600353 -0.012198577 -1.0439141 -0.05300198
-0.5387175 0.56554645 -0.15310681 0.19994958 -0.1680636 -1.0071083 0.41552067 -0.62383646
0.70596355 0.41931883 0.0040288633 -0.37870786 -0.054319967 0.24953747 -0.60945624 0.21286005
-0.16245852 0.48448306 0.82580245 -0.26088312 0.8682496 -0.19907883 -1.133546 -0.07498606
0.03288002 0.08621048 0.33272898 0.23700091 -0.46451917 -0.2342453 0.574353 -0.8961743
-0.4323324 -0.41544336 -0.71886986 -0.26105192 0.38724753 0.09101382 -0.16370384 -0.16706692
0.15034485 0.12320096 -0.002979212 0.15988183 0.13692124 -0.15701291 -0.0781832 0.19785148
0.06392081 -0.22087374 0.11024528 0.18742774 -0.48002192 -0.300677 -0.13526276 0.4040731
0.4914277 0.054645907 0.7101535 -0.05773678 -0.594112 -0.06467854 -0.08846508 -0.57896733
-0.5666976 -0.7902995 -0.37714422 0.015557526 0.016637236 -0.13567643 0.062447593 -0.0960198
-0.046103835 -0.70704883 -0.7996181 -0.65192866 -0.6152237 0.72752744 0.9182932 -0.6559936
0.16514352 -0.003759861 0.16979083 -0.18199311 -0.067556694 -0.036800742 0.15967986 -0.011441886
-0.016260892 -0.11128342 -0.11198622 0.25448123 0.14621177 0.16454664 0.33782285 -0.23224255
-0.14336449 0.08111694 -0.35005435 -0.53966475 -0.5215431 0.5007245 -0.4858008 -0.24047588
0.20413406 0.28150764 0.13349581 0.6555848 -0.21186784 -0.023874233 0.24406734 -0.46769816
0.12575193 -0.13022044 -0.278717 0.8483971 -0.467742 0.3555165 -0.0017671317 -0.43744606
0.16393809 -0.24969222 0.013453512 0.2721558 -0.09015545 0.05385786 1.0894147 0.07023061
-0.6974776 -0.07751068 0.23142879 0.5894654 0.013504983 -0.10908687 -0.67604214 0.79961985
-0.19856577 0.34642586 0.08363197 -0.26658216 0.73125297 -0.023018451 -0.57235134 -0.117693216
-0.32179305 0.072205745 -0.58280885 0.17251231 -0.11452771 0.17419799 -0.24209082 -0.22218533
-0.15331115 -0.03613483 0.15060902 0.6317801 0.61876035 0.31330132 -0.24642378 0.44931933
-0.14226341 -0.09688339 0.06966987 0.3767256 -0.6183928 -0.13802692 -0.033072587 0.022205513
-0.44718617 -0.44700935 0.36797154 0.051659305 0.66524935 0.6686513 0.77180886 0.0907831
-1.0797215 -0.32635713 -0.10540456 -0.11357411 -0.10789627 -0.10123903 0.10420911 -0.054303333
-0.15148902 -0.13352358 0.07087652 -0.12997185 -0.15741096 -0.222566 0.08896968 0.08498833
0.1464946 -0.2850662 0.22029892 -0.3769386 -1.3089429 -0.5501446 0.6225887 0.19210015
0.34382465 0.9674588 -0.23961051 -0.08718915 -0.73923403 -0.6611272 -0.06850072 0.22725381
-0.3172591 -0.080459744 0.30544198 -0.5355448 -1.0664656 0.1984984 0.34634286 -0.7383088
0.38232794 -0.7512055 0.5196408 -0.91574043 0.46709004 -0.53150755 0.2738829 -0.46754274
00000000: 1046 2b3e 571e bcbd 9816 163e f4a1 94be
00000010: d97a 0a3e b10b 513e dfb5 e03e 95eb a1bd
00000020: de5f 20bf 460f 9a3e 0096 b93d 1799 9b3e
00000030: 61f3 093f 8ffb 33bf 43d0 e7be 6cd8 b23e
00000040: fd27 ba3e 7f4c 603e d830 07bf 0a09 bb3e
00000050: 41a2 3bbf 8e39 1ebf a026 40bf ac32 4cbf
00000060: 960b 7dbe 0021 3c3d 60d1 d9be ced4 89bf
00000070: dc2c 87bd 8adc 47bc fa9e 85bf 9b18 59bd
00000080: 64e9 09bf a7c7 103f 08c8 1cbe 95bf 4c3e
00000090: dd18 2cbe ede8 80bf 20bf d43e bfb3 1fbf
000000a0: 07ba 343f f5b0 d63e 8e04 843b ffe5 c1be
000000b0: 9d7e 5ebd c086 7f3e 5305 1cbf fcf7 593e
000000c0: 875b 26be 2a0e f83e ca67 533f 7992 85be
000000d0: 9b45 5e3f 52db 4bbe 0918 91bf 4b92 99bd
000000e0: 33ad 063d 1f8f b03d 745b aa3e 5eb0 723e
000000f0: 75d5 edbe 00de 6fbe cc08 133f ae6b 65bf
00000100: ac5a ddbe feb4 d4be db07 38bf 99a8 85be
00000110: 4f45 c63e 7465 ba3d fba1 27be 9713 2bbe
00000120: 00f4 193e c950 fc3d e23e 43bb 10b8 233e
00000130: 1535 0c3e fec7 20be 831e a0bd 9499 4a3e
00000140: eae8 823d ba2c 62be 47c8 e13d 0fed 3f3e
00000150: 6fc5 f5be 56f2 99be 5282 0abe abe2 ce3e
00000160: 699c fb3e 63d4 5f3d 9fcc 353f 677d 6cbd
00000170: b917 18bf 2f76 84bd 2e2d b5bd 3437 14bf
00000180: 1813 11bf 1151 4abf 0c19 c1be fee4 7e3c
00000190: d04a 883c c3ee 0abe 0cc9 7f3d 07a6 c4bd
000001a0: 60d7 3cbd 2701 35bf c6b3 4cbf cce4 26bf
000001b0: 4d7f 1dbf 3d3f 3a3f 4315 6b3f 32ef 27bf
000001c0: 621b 293e 0068 76bb a6dd 2d3e 675c 3abe
000001d0: 2a5b 8abd 60bc 16bd 1e83 233e c076 3bbc
000001e0: 9035 85bc 90e8 e3bd 0859 e5bd 5d4b 823e
000001f0: 8ab8 153e ea7e 283e 1ef7 ac3e fed0 6dbe
00000200: 24ce 12be a320 a63d 533a b3be 7827 0abf
00000210: d983 05bf 7b2f 003f e2ba f8be 4f3f 76be
00000220: 8508 513e c521 903e 20b3 083e 68d4 273f
00000230: e2f3 58be e593 c3bc caec 793e 2276 efbe
00000240: 1dc5 003e 8258 05be ffb3 8ebe 8d30 593f
00000250: e17b efbe 4206 b63e 1a9f e7ba eef8 dfbe
00000260: 63df 273e 51af 7fbe 1f6c 5c3c 0158 8b3e
00000270: 6ca3 b8bd 0f9a 5c3d f171 8b3f 11d5 8f3d
00000280: e48d 32bf ebbd 9ebd abfb 6c3e 34e7 163f
00000290: 0144 5d3c f068 dfbd 1911 2dbf e3b3 4c3f
000002a0: d354 4bbe bb5e b13e 3d47 ab3d 757d 88be
000002b0: 6533 3b3f 3191 bcbc 9e85 12bf 2409 f1bd
000002c0: 0fc2 a4be 9be0 933d f632 15bf 11a7 303e
000002d0: 818d eabd f560 323e a8e6 77be 8d84 63be
000002e0: 99fd 1cbe 1e02 14bd 4039 1a3e 57bc 213f
000002f0: 1467 1e3f 0869 a03e 8456 7cbe 2f0d e63e
00000300: 80ad 11be cc6a c6bd 14af 8e3d 2ee2 c03e
00000310: fe4e 1ebf ee56 0dbe 1f77 07bd 56e8 b53c
00000320: 96f5 e4be 69de e4be c466 bc3e b598 533d
00000330: c84d 2a3f bb2c 2b3f 4495 453f 7dec b93d
00000340: 5034 8abf 4818 a7be 59de d7bd 8b99 e8bd
00000350: b8f8 dcbd 6956 cfbd 966b d53d 2c6d 5ebd
00000360: f01f 1bbe 68ba 08be b527 913d 5717 05be
00000370: 5730 21be 57e8 63be bc35 b63d 5d0e ae3d
00000380: ae02 163e 32f4 91be 0a96 613e 19fe c0be
00000390: 718b a7bf 47d6 0cbf f961 1f3f e7b5 443e
000003a0: c909 b03e 61ab 773f 755c 75be 3a90 b2bd
000003b0: 713e 3dbf a23f 29bf 1b4a 8cbd 39b5 683e
000003c0: c96f a2be 14c8 a4bd e462 9c3e 7719 09bf
000003d0: f281 88bf 2a43 4b3e da53 b13e ce01 3dbf
000003e0: 7dc0 c33e 014f 40bf 2e07 053f f76d 6abf
000003f0: 6d26 ef3e e110 08bf 613a 8c3e c361 efbe

bias f4 [120]
0.24388883 0.14357336 0.20200297 0.04271201 0.17708997 -0.15784429 0.007542137 -0.0406136
-0.25553358 0.08991893 0.20180969 0.1990806 0.21733342 0.11251748 -0.20016737 -0.2211031
0.1483752 0.20600495 -0.086138986 -0.15848857 0.0011749349 0.033946704 -0.060383487 0.086096786
0.22948933 0.09381764 0.2899283 -0.19128364 0.011207585 0.027065756 -0.21874359 0.14850855
0.077994585 0.15667787 0.0584853 0.17968304 -0.23423228 0.14264014 -0.25055778 0.022266425
-0.16148251 -0.13332489 0.15714328 0.055952884 0.09759099 0.11494898 -0.2613217 0.24769488
0.34611648 0.039904036 0.031506654 0.10414984 -0.08118932 0.21935889 0.26441365 0.14103904
-0.10881694 -0.13834275 0.12740402 0.10798387 -0.1297137 -0.19622101 0.17601743 0.120452605
-0.19884077 0.24095134 -0.20647936 0.074070506 -0.17941602 -0.102589406 -0.23208176 0.21153098
0.1539002 0.26175913 0.21199279 0.1529616 0.13238545 -0.10012958 -0.050288953 0.26324338
0.013919279 0.12947808 -0.1540341 -0.018658685 0.13995853 0.11761039 -0.24871765 -0.010357951
0.06984193 0.24686773 0.17671695 0.16325818 -0.04355761 0.25808346 0.18536668 0.11136729
0.20918113 0.17715445 0.26290178 -0.23999435 0.2078249 0.115323596 -0.13956955 0.14417121
0.13431582 -0.1263112 0.070204355 0.21440905 -0.22564307 0.085884914 0.11912508 0.11554748
0.14293179 0.09401063 0.016302899 -0.12378934 0.10520266 0.18690972 -0.017648557 0.11541495
00000000: febd 793e e504 133e ded9 4e3e caf2 2e3d
00000010: 1357 353e efa1 21be 0824 f73b 725a 26bd
00000020: 4cd5 82be 6a27 b83d 33a7 4e3e c9db 4b3e
00000030: a78c 5e3e 916f e63d adf8 4cbe da68 62be
00000040: abef 173e f6f2 523e a369 b0bd d44a 22be
00000050: 4600 9a3a b30b 0b3d ad54 77bd 8353 b03d
00000060: 40ff 6a3e 7623 c03d 7b71 943e dcdf 43be
00000070: 05a0 373c 01b9 dd3c 52fe 5fbe a012 183e
00000080: a0bb 9f3d 2a70 203e 488e 6f3d d5fe 373e
00000090: 96da 6fbe 4210 123e 1c49 80be 1468 b63c
000000a0: ac5b 25be 5286 08be 2bea 203e da2e 653d
000000b0: c9dd c73d 5f6a eb3d f5cb 85be baa3 7d3e
000000c0: 2e36 b13e 6a72 233d 1f0d 013d 834c d53d
000000d0: 9646 a6bd 9e9f 603e 3a61 873e 8a6c 103e
000000e0: 6adb debd b9a9 0dbe 3376 023e a626 dd3d
000000f0: abd3 04be 29ee 48be ea3d 343e dbaf f63d
00000100: ea9c 4bbe f3bb 763e 536f 53be 47b2 973d
00000110: d5b8 37be 651a d2bd d7a6 6dbe 949b 583e
00000120: 0498 1d3e 4b05 863e a314 593e f7a1 1c3e
00000130: 0d90 073e bd10 cdbd cafb 4dbd d6c7 863e
00000140: b00d 643c e795 043e 1dbb 1dbe 19da 98bc
00000150: 4a51 0f3e b7dd f03d d7af 7ebe 65b4 29bc
00000160: 4909 8f3d e5ca 7c3e 4af5 343e 272d 273e
00000170: 7769 32bd 8423 843e c3d0 3d3e 8914 e43d
00000180: 9433 563e fa67 353e 109b 863e 14c1 75be
00000190: 0dd0 543e c72e ec3d 52eb 0ebe 9ea1 133e
000001a0: 168a 093e b957 01be 4dc7 8f3d 0c8e 5b3e
000001b0: fa0e 67be 6ee4 af3d daf7 f33d 28a4 ec3d
000001c0: b65c 123e a588 c03d a88d 853c 4485 fdbd
000001d0: 7e74 d73d 4365 3f3e b593 90bc ac5e ec3d

weight f4 [120, 120]
0.040404126 -0.089479424 -0.009860832 -0.07869164 0.019462628 -0.08617124 0.054305527 -0.037887365
0.07186963 0.02830707 0.07760161 0.06977458 -0.062421482 -0.033345986 0.074189045 -0.043416686
0.033122215 -0.0013718939 0.02601885 0.02967681 -0.024069006 0.024024835 -0.021503842 0.072662786
-0.0025542423 0.030618727 -0.10087439 -0.05382522 -0.09600211 -0.071861826 0.060923383 -0.023857132
-0.09318593 -0.040964007 0.07236016 0.07696376 0.031166844 0.050739273 -0.06659394 0.0055734944
0.06717263 -0.09828206 -0.047044247 -0.0067146337 -0.06722996 -0.08384227 0.0858919 0.074806504
0.06478179 -0.018260024 -0.009179796 -0.074968934 0.06915599 -0.08737127 -0.079398245 0.061850928
0.019477721 -0.025073513 0.06893361 0.071221486 -0.058485877 -0.09483248 -0.042309694 0.05859077
-0.054899894 -0.017352888 -0.0027610362 0.073669225 -0.09048605 0.06306922 0.05826612 -0.10271911
0.031272314 0.07277422 0.04151881 0.01980534 0.02790511 0.07422956 0.060887832 -0.0620992
-0.014802196 -0.020142786 -0.02887066 -0.047972396 0.04216174 -0.048478317 -0.04704453 0.07111936
0.02326581 -0.10236105 -0.015125013 -0.047459554 0.03620122 0.063945785 -0.0124401795 0.02982994
-0.045160595 -0.05772116 -0.033468626 -0.0039662495 -0.039017297 -0.0836867 0.041046947 -0.07750995
-0.08461192 -0.06135442 0.040206846 -0.08098351 -0.0027334765 0.036346108 -0.056195363 0.009471018
0.0046373787 -0.05463985 -0.067338176 0.029207617 -0.0149037475 -0.06683966 -0.032170124 0.038621802
-0.020467883 -0.059963647 0.043672908 0.14511502 0.3674969 0.05523597 -0.17276087 -0.017306635
0.018292166 0.13755922 -0.05574894 0.034820918 -0.011771575 -0.034189224 -0.1588823 0.022532424
0.101919554 -0.030679237 -0.27524072 -0.083204135 -0.15216324 0.15830532 -0.3527214 -0.16061363
-0.073426716 -0.10079557 0.0064988183 0.096788414 -0.109003656 -0.144445 0.044084072 0.06466044
-0.24418873 0.11027859 -0.024384458 0.06602171 -0.02755382 -0.33647403 0.0505237 0.6945586
0.08529323 -0.05180694 0.25131997 0.094457224 -0.10133574 0.23426501 0.08562867 0.052576974
0.07726505 0.060919866 0.43829075 -0.031931058 -0.005197386 -0.033926483 0.050354496 0.17997906
-0.6166977 0.045357212 0.035170995 0.03190681 -0.30253834 -0.0069631315 0.000788889 0.14189203
0.035821334 -0.019878913 0.03044141 -0.01682483 0.021606617 0.3093655 -0.025973268 0.29784533
0.06101446 -0.21400641 0.14647043 0.15678793 -0.067498215 0.38507158 0.29570332 0.009546969
-0.0299508 -0.10489109 0.023345225 -0.2683905 -0.13672514 -0.042267665 -0.04499257 -0.30525562
0.11377084 -0.016278239 0.39731026 0.03157022 -0.15352494 0.011396162 0.20274346 -0.039536122
0.020119851 0.06543921 0.05194022 -0.017863706 -0.053645365 -0.0429624 -0.014444701 -0.0751087
0.017810576 0.3061905 0.35887408 0.016563699 0.06339353 0.58589184 0.1455875 0.086058885
0.04055361 -0.16073076 -0.10998093 0.02678699 0.0483067 -0.28283167 -0.03506913 0.02002392
-0.09921607 0.070289634 -0.24400277 0.44849807 0.015365175 0.081221834 -0.8221234 -0.25553983
-0.001107879 0.016204607 -0.1721037 0.0052955225 -0.17905928 -0.11462228 1.1830264 0.04266412
00000000: cc7e 253d fd40 b7bd 548f 21bc 1529 a1bd
00000010: 1770 9f3c 8c7a b0bd 796f 5e3d c82f 1bbd
00000020: 6230 933d 3ae4 e73c 98ed 9e3d fae5 8e3d
00000030: abad 7fbd cd95 08bd 6df0 973d b2d5 31bd
00000040: 29ab 073d 1fd1 b3ba 7c25 d53c c81c f33c
00000050: 5d2c c5bc bbcf c43c d328 b0bc 3ad0 943d
00000060: 1365 27bb 20d4 fa3c 3b97 cebd d577 5cbd
00000070: c19c c4bd 4b2c 93bd cc8a 793d 0870 c3bc
00000080: 44d8 bebd e0c9 27bd 9031 943d 2d9f 9d3d
00000090: 9c51 ff3c fcd3 4f3d 6762 88bd dca1 b63b
000000a0: ce91 893d 1b48 c9bd 78b1 40bd 6e06 dcbb
000000b0: dcaf 89bd 7fb5 abbd 18e8 af3d 2734 993d
000000c0: 51ac 843d 0c96 95bc db66 16bc 5089 99bd
000000d0: a8a1 8d3d b5ef b2bd 8c9b a2bd 6657 7d3d
000000e0: be8f 9f3c f866 cdbc 112d 8d3d 92dc 913d
000000f0: e38e 6fbd 8837 c2bd ee4c 2dbd e0fc 6f3d
00000100: b6de 60bd a527 8ebc 80f2 34bb e4df 963d
00000110: c050 b9bd 6f2a 813d 74a8 6e3d 665e d2bd
00000120: 6617 003d a60a 953d a10f 2a3d cf3e a23c
00000130: 4299 e43c ab05 983d 8565 793d bb5b 7ebd
00000140: e984 72bc 7c02 a5bc 2a82 ecbc b47e 44bd
00000150: cab1 2c3d 3391 46bd c4b1 40bd 07a7 913d
00000160: f197 be3c aca2 d1bd e7ce 77bc f364 42bd
00000170: bb47 143d 02f6 823d e5d1 4bbc eb5d f43c
00000180: 51fa 38bd 066d 6cbd 6616 09bd 50f7 81bb
00000190: 9ad0 1fbd ef63 abbd d820 283d 89bd 9ebd
000001a0: 0449 adbd c64e 7bbd efaf 243d afda a5bd
000001b0: 2024 33bb a8df 143d 1c2d 66bd 542c 1b3c
000001c0: 27f5 973b 09ce 5fbd 99e8 89bd d044 ef3c
000001d0: d92e 74bc 3be3 88bd d2c4 03bd e531 1e3d
000001e0: 43ac a7bc 719c 75bd 5de2 323d 0899 143e
000001f0: 8e28 bc3e 1d3f 623d 3ae8 30be a5c6 8dbc
00000200: 74d9 953c 53dc 0c3e 0059 64bd 61a0 0e3d
00000210: 90dd 40bc 000a 0cbd 0bb2 22be eb95 b83c
00000220: 33bb d03d 0653 fbbc 5aec 8cbe ee66 aabd
00000230: aed0 1bbe ca1a 223e e697 b4be e677 24be
00000240: bf60 96bd e86d cebd 0af4 d43b 0139 c63d
00000250: 4f3d dfbd 64e9 13be 8091 343d b16c 843d
00000260: 9c0c 7abe bed9 e13d eac1 c7bc 6436 873d
00000270: 8cb8 e1bc 5346 acbe f0f1 4e3d 98ce 313f
00000280: 38ae ae3d 8433 54bd 03ad 803e ca72 c13d
00000290: 1d89 cfbd 2be3 6f3e 165e af3d f45a 573d
000002a0: 233d 9e3d 1c87 793d a567 e03e 24ca 02bd
000002b0: d54e aabb 7ff6 0abd 8440 4e3d 6e4c 383e
000002c0: e7df 1dbf 7cc8 393d 760f 103d b7b0 023d
000002d0: 4ee6 9abe fb2a e4bb 72cd 4e3a 254c 113e
000002e0: 64b9 123d 1ad9 a2bc 4460 f93c 3ad4 89bc
000002f0: 5c00 b13c 2865 9e3e e4c5 d4bc 2f7f 983e
00000300: 4cea 793d 7f24 5bbe 58fc 153e 048d 203e
00000310: 813c 8abd 1a28 c53e 6d66 973e e46a 1c3c
00000320: 615b f5bc 24d1 d6bd 7c3e bf3c 7b6a 89be
00000330: ad01 0cbe dc20 2dbd 214a 38bd 774a 9cbe
00000340: b000 e93d f159 85bc 406c cb3e c64f 013d
00000350: a435 1dbe f8b6 3a3c fb9b 4f3e a1f0 21bd
00000360: 63d2 a43c fe04 863d 45bf 543d e856 92bc
00000370: 3ebb 5bbd 57f9 2fbd 78a9 6cbc 97d2 99bd
00000380: 7ce7 913c 00c5 9c3e 58be b73e 98b0 873c
00000390: 78d4 813d 02fd 153f e414 153e a43f b03d
000003a0: 8b1b 263d 9b96 24be af3d e1bd 6470 db3c
000003b0: 3fdd 453d 50cf 90be a6a4 0fbd 3409 a43c
000003c0: cb31 cbbd 03f4 8f3d dddb 79be 8aa1 e53e
000003d0: 37be 7b3c a257 a63d ae76 52bf 1ed6 82be
000003e0: 4036 91ba 86bf 843c f43b 30be 1086 ad3b
000003f0: 515b 37be 16bf eabd 696d 973f 93c0 2e3d

bias f4 [120]
0.003585978 0.10478738 -0.006542318 0.026345173 0.05324439 -0.043003246 -0.018437436 -0.087904975
0.074674696 -0.04954099 -0.08534609 -0.067433804 -0.048722588 -0.061543643 -0.021288723 -0.047557842
0.008985961 -0.021280436 -0.049728826 -0.058325574 0.05571643 0.080504574 0.105860904 0.014110839
-0.03289473 0.029825041 -0.013217829 0.1106515 0.05221866 -0.10448121 0.050829444 -0.06576037
0.04030681 -0.026094547 0.08290073 0.07042531 0.040279314 -0.07130629 0.07569337 -0.08736961
-0.005993777 0.042336646 -0.048666492 0.00022294617 -0.082411036 -0.04638356 -0.031169994 0.016488146
0.0340533 0.07177765 0.036454964 -0.049149364 -0.08751893 -0.1153882 -0.012384564 -0.06606157
-0.041761793 0.04071455 0.055142917 0.07114137 -0.04645721 0.012705536 -0.0030569416 0.07671963
-0.091465026 -0.054178346 0.03351198 -0.068094164 0.0639871 0.046251204 -0.058511525 0.057038907
0.04029717 -0.099686384 0.043931063 -0.082169466 -0.00885727 0.04730939 -0.01994071 -0.1126756
-0.04044459 0.008987541 -0.086101286 -0.08489256 0.05084337 0.022278523 0.04907653 -0.02681338
-0.02326734 -0.0469529 -0.054050535 -0.057847317 -0.049511604 -0.030647222 0.08952487 -0.09669906
0.010814488 -0.0039576516 0.036091205 0.09462086 -0.12050643 0.037217394 0.07275798 0.11081572
0.029953972 -0.07539953 0.05351856 0.06595393 8.0382546e-05 0.004955931 -0.055257246 0.17716216
-0.043294147 -0.03776998 -0.048048202 0.012360962 0.094280615 0.08672527 0.08511024 -0.09048891
00000000: ba02 6b3b c49a d63d f160 d6bb d5d1 d73c
00000010: ca16 5a3d 2c24 30bd 1b0a 97bc 8607 b4bd
00000020: 0cef 983d 7eeb 4abd eec9 aebd bc1a 8abd
00000030: 5691 47bd 3015 7cbd b065 aebc 03cc 42bd
00000040: da39 133c 4f54 aebc 74b0 4bbd cce6 6ebd
00000050: e936 643d 95df a43d 9acd d83d 2631 673c
00000060: a0bc 06bd a553 f43c 988f 58bc 419d e23d
00000070: 3ce3 553d 3ffa d5bd 8932 503d 5fad 86bd
00000080: c118 253d 3bc4 d5bc dcc7 a93d 253b 903d
00000090: ecfb 243d 0809 92bd 2005 9b3d d7ee b2bd
000000a0: 7267 c4bb 3169 2d3d 8456 47bd a8c6 6939
000000b0: 1ec7 a8bd b0fc 3dbd 3758 ffbc 2612 873c
000000c0: 797b 0b3d 2900 933d cd51 153d d850 49bd
000000d0: 203d b3bd a650 ecbd a0e8 4abc 4a4b 87bd
000000e0: 6a0e 2bbd 4dc4 263d 8add 613d 91b2 913d
000000f0: ea49 3ebd e12a 503c f856 48bb 2e1f 9d3d
00000100: 0452 bbbd 1dea 5dbd dc43 093d f474 8bbd
00000110: ab0b 833d e771 3d3d c8a9 6fbd a1a1 693d
00000120: a50e 253d 6028 ccbd 0ff1 333d 7748 a8bd
00000130: 151e 11bc 7ec7 413d b35a a3bc 77c2 e6bd
00000140: 3aa9 25bd 7b40 133c df55 b0bd 27dc adbd
00000150: 2341 503d 7381 b63c 7904 493d bca7 dbbc
00000160: 269b bebc af51 40bd 1864 5dbd 4ff1 6cbd
00000170: aecc 4abd e20f fbbc d158 b73d 280a c6bd
00000180: 402f 313c 30af 81bb 5fd4 133d 95c8 c13d
00000190: 13cc f6bd 4471 183d 2302 953d 5af3 e23d
000001a0: 0862 f53c 126b 9abd 4736 5b3d db12 873d
000001b0: 0d93 a838 5d65 a23b 6c55 62bd ff69 353e
000001c0: 3455 31bd b2b4 1abd 31ce 44bd a285 4a3c
000001d0: 3216 c13d 059d b13d 474e ae3d 4052 b9bd

weight f4 [120, 120]
-0.003167483 -0.04091276 0.06560672 0.027154986 -0.09805561 0.06647819 0.06967684 -0.015792487
-1.0813233 -0.029983465 -0.040147465 0.048970617 -0.009135999 0.16820331 0.031143975 0.0626048
-0.048442494 -0.006925133 0.045038473 -0.06887959 0.10070943 -0.13736948 -0.057533704 -0.32316542
-0.054174952 0.08177508 -0.15279606 -0.11848552 -0.058964703 -0.044403527 -0.0031196186 0.02966138
-0.44981927 -0.6244315 -0.07446032 0.072269045 0.0756906 -0.016731715 -0.03905501 -0.08478446
0.039629474 -0.7819554 -0.05991807 -0.0027130477 0.02425187 0.034846395 0.26446223 -0.03257425
-0.058769774 0.15344733 -0.14373006 -0.21760693 0.022192223 0.024811435 0.053550106 0.060185708
-0.005556636 -0.08037923 0.0066697677 0.092700474 -0.1299591 0.09262408 7.610821e-05 0.11909462
-0.009388591 0.07784693 0.022816591 -0.010298185 -0.50548995 0.12633553 0.051785305 -0.15270205
-0.026865628 0.04110779 -0.07601198 -0.01067307 -0.04783014 0.03643384 -0.0508639 0.00211102
-0.08404423 0.054780353 -0.019420303 0.045095004 0.08119893 0.07543158 0.083286755 0.08877305
-0.0010820727 0.042687483 -0.054040447 -0.12046962 -0.08734799 -0.2750615 0.08254134 -0.44445866
0.007752388 0.079969466 1.1199042 -0.12967627 0.027884914 -0.109143995 -0.058741327 -0.11927058
0.21175152 -0.008027514 -0.1722714 -0.29770005 0.18519919 -0.042446416 0.04541274 -0.09270056
-0.077190556 -0.36714798 0.2160052 0.048655108 0.16477983 -0.0054079783 -0.08074211 0.0568296
-0.0031777518 -0.12158204 -0.010323124 0.045952953 0.012661092 -0.05614435 -0.096632905 -0.047510535
-0.8819374 -0.017036589 -0.04996213 0.024270723 0.02289255 0.40821308 -0.057269286 0.023829872
0.17674883 0.17672616 -0.05996316 -0.025982602 0.031680975 -0.04796916 0.030614445 -0.18427338
-0.07648453 0.048948534 -0.13722485 -0.024274806 0.022058256 0.017435836 -0.032277837 0.074330196
-0.35847434 -1.1523272 -0.00372249 0.031098777 -0.07978522 0.029741393 -0.092764206 0.06402425
0.04844394 -0.45984763 -0.014939327 -0.03247735 -0.19074555 -0.06854009 0.08983985 0.011910411
-0.36483756 0.14984985 0.042493783 -0.21004274 -0.04809126 -0.0838751 0.16145164 -0.08908003
0.012962324 -0.121951684 -0.20496501 0.082862146 -0.09517789 0.15044484 -0.07699659 -0.137258
0.081909046 0.034173727 -0.1162333 -0.06476561 -0.088711694 -0.058907893 -0.01563157 -0.041650366
-0.0040011844 0.050724782 -0.020346742 0.02850353 -0.025220972 -0.04163283 0.1420188 -0.043170594
0.24778196 0.049338065 0.040556863 -0.008783971 0.002171978 -0.28420597 -0.057300076 -0.21218973
-0.009024092 -0.06574365 0.00041225553 -0.18467622 0.014409944 -0.14717978 -0.0864164 -0.9086432
-0.012341251 -0.0001205951 0.75979906 0.13320298 -0.010865313 -0.055998575 0.04072027 0.100371405
-0.18400797 0.02922912 -0.10740773 -0.10099833 -0.1380029 0.1359258 0.014131289 -0.08680619
0.28714225 0.2674219 -0.119212806 -0.03398789 0.11003566 -0.094395235 -0.12538308 -0.089005634
0.025325328 -0.11174085 -0.08938698 -0.047727156 0.04335876 0.060591742 -0.21671358 -0.060372982
-2.1393158 0.07676366 0.04125765 -0.08243722 0.07950677 0.18816808 -0.08848181 0.047910463
00000000: 8c95 4fbb 2394 27bd d15c 863d 2274 de3c
00000010: 61d1 c8bd b825 883d bbb2 8e3d 3f5f 81bc
00000020: cd68 8abf e29f f5bc ab71 24bd 6a95 483d
00000030: 28af 15bc 7d3d 2c3e a621 ff3c f236 803d
00000040: a36b 46bd 3aec e2bb 437a 383d be10 8dbd
00000050: bf40 ce3d 96aa 0cbe 76a8 6bbd f075 a5be
00000060: 8ee6 5dbd b179 a73d 9276 1cbe 89a8 f2bd
00000070: f984 71bd 79e0 35bd 8472 4cbb 6cfc f23c
00000080: b64e e6be beda 1fbf a77e 98bd cb01 943d
00000090: ac03 9b3d f310 89bc 25f8 1fbd 7aa3 adbd
000000a0: 8452 223d 3b2e 48bf a66c 75bd 63cd 31bb
000000b0: dcab c63c 18bb 0e3d 9867 873e 946c 05bd
000000c0: 93b8 70bd 4c21 1d3e f92d 13be 5ad4 5ebe
000000d0: 77cc b53c 5a41 cb3c 5b57 5b3d 4a85 763d
000000e0: 7114 b6bb de9d a4bd 118e da3b bfd9 bd3d
000000f0: 0014 05be b2b1 bd3d 499c 9f38 e1e7 f33d
00000100: 9bd2 19bc 366e 9f3d dce9 ba3c b8b9 28bc
00000110: ca67 01bf 1a5e 013e d41c 543d ed5d 1cbe
00000120: 4e15 dcbc a460 283d 2bac 9bbd 1ade 2ebc
00000130: 89e9 43bd a63b 153d aa56 50bd 0a59 0a3b
00000140: 621f acbd 5d61 603d 5417 9fbc 8ab5 383d
00000150: a04b a63d df7b 9a3d 3f92 aa3d a5ce b53d
00000160: 56d4 8dba 12d9 2e3d 8459 5dbd c7b8 f6bd
00000170: 81e3 b2bd dcd4 8cbe 6f0b a93d 1690 e3be
00000180: be07 fe3b 08c7 a33d 0559 8f3f dbc9 04be
00000190: e76e e43c e386 dfbd bf9a 70bd 2244 f4bd
000001a0: 64d5 583e d685 03bc ea67 30be 246c 98be
000001b0: dba4 3d3e 4bdc 2dbd b602 3a3d cbd9 bdbd
000001c0: 1516 9ebd d2fa bbbe 7830 5d3e 944a 473d
000001d0: 0bbc 283e 6935 b1bb 1f5c a5bd 28c6 683d
000001e0: d441 50bb 0100 f9bd 5222 29bc 2a39 3c3d
000001f0: 7870 4f3c 9ef7 65bd 79e7 c5bd 689a 42bd
00000200: a6c6 61bf 5190 8bbc 17a5 4cbd 65d3 c63c
00000210: 2889 bb3c 4e01 d13e 3393 6abd dd36 c33c
00000220: a5fd 343e b4f7 343e ee9b 75bd 77d9 d4bc
00000230: e9c3 013d 4f7b 44bd 25cb fa3c 29b2 3cbe
00000240: eca3 9cbd 427e 483d ac84 0cbe f5db c6bc
00000250: 84b3 b43c 99d5 8e3c c435 04bd 6e3a 983d
00000260: f389 b7be 757f 93bf 05f5 73bb ddc2 fe3c
00000270: 6f66 a3bd 39a4 f33c 29fb bdbd 251f 833d
00000280: 276d 463d 2671 ebbe 14c4 74bc f806 05bd
00000290: cd52 43be bf5e 8cbd f5fd b73d e223 433c
000002a0: fdcb babe 3d72 193e f60d 2e3d 7215 57be
000002b0: 57fb 44bd b5c6 abbd 9453 253e 976f b6bd
000002c0: ed5f 543c cec1 f9bd 59e2 51be a1b3 a93d
000002d0: a0ec c2bd 360e 1a3e 63b0 9dbd 5c8d 0cbe
000002e0: eebf a73d c0f9 0b3d b90b eebd d5a3 84bd
000002f0: 7aae b5bd 6749 71bd c70d 80bc 9399 2abd
00000300: 5e1c 83bb cac4 4f3d 36ae a6bc 3c80 e93c
00000310: 369c cebc 3087 2abd 606d 113e a6d3 30bd
00000320: 8eba 7d3e b616 4a3d f41e 263d a5ea 0fbc
00000330: be57 0e3b 7283 91be 7cb3 6abd 4448 59be
00000340: c9d9 13bc 9ba4 86bd 0024 d839 c31b 3dbe
00000350: b017 6c3c 4cb6 16be 15fb b0bd d79c 68bf
00000360: f532 4abc 00e8 fcb8 3182 423f 5d66 083e
00000370: 6d04 32bc c35e 65bd 4cca 263d 868f cd3d
00000380: 966c 3cbe e871 ef3c 95f8 dbbd 36d8 cebd
00000390: a250 0dbe 2230 0b3e ec86 673c 72c7 b1bd
000003a0: 4f04 933e 86eb 883e d825 f4bd e336 0bbd
000003b0: 605a e13d 4a52 c1bd 6c64 00be 9648 b6bd
000003c0: 1077 cf3c 63d8 e4bd 8510 b7bd 8d7d 43bd
000003d0: f598 313d 0c2f 783d 2aea 5dbe a949 77bd
000003e0: 8dea 08c0 4436 9d3d c8fd 283d d8d4 a8bd
000003f0: 72d4 a23d 22af 403e f435 b5bd c33d 443d

bias f4 [120]
0.07420677 -0.115529805 -0.087229736 -0.008328079 -0.12649205 0.046866734 -0.02118539 -0.016161403
-0.035132166 0.0415491 -0.026664896 0.0068099787 -0.06587309 -0.10227431 0.048167832 -0.04307527
-0.0011673566 0.022348726 0.011832537 -0.09739517 0.03062946 -0.1179865 -0.031301726 0.010128575
0.022751305 0.07371228 0.0334068 0.010087926 0.02044852 -0.1115519 -0.080261275 -0.023447208
0.01406175 0.036931574 0.023758098 -0.00083329296 -0.058948725 -0.13120566 -0.06657859 0.015037067
-0.05451079 0.07613847 -0.024478368 0.0021454594 0.06892432 0.09252262 -0.020085406 -0.091195665
-0.0918712 -0.044887792 -0.022510068 -0.113499716 -0.0049824547 -0.021212062 -0.07550455 -0.057845384
0.027592069 -0.019196616 -0.0037142034 0.06929759 -0.09547218 -0.07033952 -0.016341763 -0.081014425
-0.048716553 -0.058492515 -0.008434907 0.054563142 -0.08641782 -0.017736185 -0.077452384 0.057694066
-0.057151318 -0.048014008 -0.036509804 -0.08592347 -0.0058769393 0.045660682 0.01771837 -0.09403162
0.08806639 -0.00028947226 -0.018396156 -0.010416503 0.057211954 -0.06610804 0.03706894 -0.059028335
0.022982594 -0.030125216 -0.07858991 -0.085553534 0.029277856 -0.043385107 -0.011227359 -0.09915293
0.055220094 -0.105169564 0.03504873 0.05280278 -0.03806327 -0.07299179 0.061960414 -0.08434859
-0.019019805 0.025798164 -0.0074120755 0.06723176 -0.12847702 -0.0007470292 0.024976559 -0.09083055
-0.08740532 -0.07288464 -0.032186102 0.0015340294 -0.11111623 -0.067461535 0.036471453 -0.029977374
00000000: b8f9 973d e49a ecbd 81a5 b2bd 7f72 08bc
00000010: 2287 01be 55f7 3f3d fc8c adbc eb64 84bc
00000020: bfe6 0fbd 642f 2a3d 5770 dabc 3e26 df3b
00000030: 78e8 86bd 3275 d1bd a24b 453d b26f 30bd
00000040: fd01 99ba ad14 b73c 42dd 413c 1e77 c7bd
00000050: a2ea fa3c e8a2 f1bd 3d36 00bd 53f2 253c
00000060: f260 ba3c 77f6 963d 92d5 083d d447 253c
00000070: a883 a73c 5375 e4bd 0660 a4bd 5c14 c0bc
00000080: 4163 663c 9045 173d 58a0 c23c 5871 5aba
00000090: 3874 71bd c75a 06be 5b5a 88bd 085e 763c
000000a0: b546 5fbd 7cee 9b3d dc86 c8bc d69a 0c3b
000000b0: 3228 8d3d 807c bd3d 268a a4bc cbc4 babd
000000c0: f826 bcbd 43dc 37bd 0967 b8bc 8a72 e8bd
000000d0: dc43 a3bb ebc4 adbc 21a2 9abd 48ef 6cbd
000000e0: c308 e23c 3942 9dbc fe69 73bb e5eb 8d3d
000000f0: eb86 c3bd 2b0e 90bd 29df 85bc e4ea a5bd
00000100: 028b 47bd d995 6fbd 9032 0abc 9a7d 5f3d
00000110: d3fb b0bd 7a4b 91bc 5b9f 9ebd 9d50 6c3d
00000120: 8017 6abd 56aa 44bd 4e8b 15bd a5f8 afbd
00000130: 5793 c0bb b206 3b3d 1d26 913c a693 c0bd
00000140: 275c b43d 4fc4 97b9 89b3 96bc fba9 2abc
00000150: 1557 6a3d a763 87bd 9ad5 173d b2c7 71bd
00000160: fe45 bc3c 28c9 f6bc bff3 a0bd b136 afbd
00000170: 1dd8 ef3c 95b4 31bd f5f2 37bc b110 cbbd
00000180: 772e 623d 2463 d7bd 428f 0f3d ba47 583d
00000190: 3be8 1bbd b87c 95bd 34ca 7d3d f4be acbd
000001a0: 6ccf 9bbc ac56 d33c ffe0 f2bb ceb0 893d
000001b0: 7b8f 03be 48d4 43ba a49b cc3c 5e05 babd
000001c0: 8f01 b3bd 8b44 95bd 93d5 03bd 7c11 c93a
000001d0: e890 e3bd 4629 8abd 1763 153d 1c93 f5bc

weight f4 [14, 120]
-0.06195395 -0.057178237 -0.010886228 -0.00522925 0.027676025 -0.009753758 0.09237676 -0.010598874
-0.06600723 0.028308671 0.003969989 0.023706833 -0.050927784 0.020944696 -0.013572315 0.09177035
-0.009653683 0.024899332 -0.06544058 -0.085442 0.04701669 0.11027373 -0.017482286 0.05050742
0.10762261 0.0061871875 0.06207809 0.10045061 -0.019168135 -0.092294954 0.019356992 -0.07443519
-0.08915865 0.11726136 -0.062618375 0.018488808 0.046376526 0.017569717 -0.002476245 -0.019567003
0.069266625 -0.09718935 0.117737904 -0.09497821 -0.0528774 -0.06845712 0.012961114 -0.051295843
0.0010970283 0.048071325 -0.063429125 -0.061263874 -0.030731663 -0.07577209 0.027073186 0.06879731
-0.0061151613 -0.015994892 0.050892208 -0.040391654 -0.080310576 -0.024080388 -0.02097107 -0.06927436
-0.03952055 0.12570727 0.09263878 -0.023488445 0.014397425 -0.10679706 0.10782095 -0.060657427
0.056867402 -0.115482725 -0.089794904 0.03193074 0.07541706 0.024646861 -0.035939973 0.08573224
0.08116723 -0.031182086 0.06224673 0.029648269 -0.09762956 0.12800646 0.009743733 -0.050897904
0.11049645 -0.049441773 -0.053189993 -0.050347872 0.034159746 0.058146928 0.03366343 -0.00313627
-0.011862377 -0.06492133 0.119461246 0.11348605 0.0025516534 0.012140377 -0.00923448 -0.049661532
-0.05099023 -0.011172117 -0.039192177 -0.053736236 -0.020829495 0.043617543 0.13806926 0.10474163
-0.08514292 0.07284081 0.0833514 0.037369713 0.08030434 -0.10654458 0.048639998 0.03047858
0.03639638 -0.09049129 -0.025744082 -0.032998502 -0.019287916 0.07322174 -0.008666603 0.06463249
-0.044378284 0.10996422 0.06424668 -0.046769943 -0.117449954 0.07522167 0.02436758 -0.027013274
-0.11022127 -0.09237579 -0.041434504 -0.076831825 0.103193685 0.058533244 -0.10611589 0.11181425
0.040991344 -0.08959971 -0.061074592 0.06664969 0.09859003 0.015333051 0.0009264242 -0.0065684225
0.044299584 -0.04579432 -0.06583763 -0.06381919 -0.0955805 0.068858825 -0.102944076 0.09044714
-0.034418676 0.001383863 -0.094861746 0.12447592 -0.015622819 0.054829847 0.093420826 0.11335763
-0.04626592 0.01917027 -0.07235266 -0.02560074 0.10855092 -0.026297403 -0.08818496 -0.09903306
0.007886184 -0.044612728 -0.009106977 0.08446233 0.07293308 -0.0028686605 -0.056664124 -0.03107519
0.05867858 -0.09513048 0.0956105 -0.05702546 0.08643093 0.12688233 0.03352103 0.014981051
0.077840984 0.15214053 0.018721597 -0.12416201 -0.08225452 -0.10461527 -0.03296401 0.087402776
0.09397834 0.10293003 0.083571166 0.0047701052 0.02000346 0.008738197 0.035253767 -0.040811416
-0.03128692 -0.017812692 0.05122232 0.05280102 -0.12424635 -0.11194484 0.013419596 -0.030797314
-0.11611381 -0.10820315 0.041744687 -0.027278587 0.10859142 0.04461383 -0.08940113 -0.07609896
0.0023201294 0.055925857 0.03888623 -0.10341059 0.034784835 -0.06639396 0.13503659 -0.031817444
0.007041577 0.025762152 0.08020395 -0.038639482 0.032149043 0.15380134 0.047311593 0.011535035
-0.014795517 0.019909194 -0.049948562 0.08048565 0.05587896 0.06567628 0.017989522 -0.08472427
-0.024928896 0.10782644 -0.07028226 -0.12568983 0.074898 -0.077784926 0.113645464 0.07030581
00000000: 6dc3 7dbd ba33 6abd 265c 32bc 215a abbb
00000010: d5b8 e23c 3ace 1fbc 0730 bd3d e6a6 2dbc
00000020: cc2e 87bd 96e7 e73c ae16 823b d534 c23c
00000030: a799 50bd 3694 ab3c 6a5e 5ebc 18f2 bb3d
00000040: 7b2a 1ebc aff9 cb3c b605 86bd 37fc aebd
00000050: 9394 403d 31d7 e13d 0337 8fbc dee0 4e3d
00000060: 3e69 dc3d e4bd ca3b 9845 7e3d 0db9 cd3d
00000070: 7e06 9dbc 2305 bdbd 8e92 9e3c 7a71 98bd
00000080: cf98 b6bd b926 f03d 103e 80bd d775 973c
00000090: 50f5 3d3d 5eee 8f3c 7f48 22bb fb4a a0bc
000000a0: a9db 8d3d 360b c7bd 9220 f13d f083 c2bd
000000b0: f995 58bd 3f33 8cbd da5a 543c 971b 52bd
000000c0: 29ca 8f3a 70e6 443d 21e7 81bd d4ef 7abd
000000d0: f8c0 fbbc 662e 9bbd 96c8 dd3c 9be5 8c3d
000000e0: b161 c8bb b807 83bc 5974 503d b871 25bd
000000f0: df79 a4bd 3c44 c5bc 85cb abbc b7df 8dbd
00000100: 4de0 21bd 68b9 003e 67b9 bd3d d76a c0bc
00000110: 2de3 6b3c 6bb8 dabd 3bd1 dc3d ec73 78bd
00000120: cbed 683d 3582 ecbd 64e6 b7bd cfc9 023d
00000130: 4274 9a3d 37e8 c93c cb35 13bd 6294 af3d
00000140: 013b a63d 9371 ffbc 6df6 7e3d ede0 f23c
00000150: 02f2 c7bd 2014 033e 2ea4 1f3c 527a 50bd
00000160: f64b e23d 7583 4abd c0dd 59bd 9239 4ebd
00000170: 17eb 0b3d 792b 6e3d aae2 093d e189 4dbb
00000180: 6a5a 42bc 79f5 84bd 19a8 f43d 606b e83d
00000190: a439 273b 6fe8 463c 374c 17bc e469 4bbd
000001a0: 22db 50bd 410b 37bc fa87 20bd 871a 5cbd
000001b0: 9ea2 aabc 4fa8 323d 0762 0d3e c882 d63d
000001c0: 695f aebd 902d 953d 24b4 aa3d fc10 193d
000001d0: 9a76 a43d 0b34 dabd bc3a 473d 37ae f93c
000001e0: 5f14 153d 7f53 b9bd 41e5 d2bc 7029 07bd
000001f0: b101 9ebc 48f5 953d 5efe 0dbc 0a5e 843d
00000200: 01c6 35bd ec34 e13d c393 833d d791 3fbd
00000210: 9a89 f0bd d20d 9a3d 859e c73c f14a ddbc
00000220: b0bb e1bd 852f bdbd 3ab7 29bd 015a 9dbd
00000230: 3657 d33d 8ec0 6f3d 4a53 d9bd dffe e43d
00000240: 8ae6 273d 0e80 b7bd 5a29 7abd a27f 883d
00000250: 92e9 c93d 7a37 7b3c 47db 723a ec3b d7bb
00000260: 7b73 353d d392 3bbd e1d5 86bd a3b3 82bd
00000270: b6bf c3bd db05 8d3d 58d4 d2bd 5a3c b93d
00000280: 99fa 0cbd bd62 b53a e046 c2bd 3bed fe3d
00000290: daf6 7fbc 4395 603d 6b53 bf3d 0c28 e83d
000002a0: 5581 3dbd f80a 9d3c a22d 94bd a5b8 d1bc
000002b0: f24f de3d a76d d7bc 519a b4bd d8d1 cabd
000002c0: 0e35 013c d6bb 36bd 6e35 15bc 96fa ac3d
000002d0: f05d 953d 2300 3cbb a418 68bd 6691 febc
000002e0: f358 703d c5d3 c2bd 70cf c33d 8793 69bd
000002f0: b302 b13d 71ed 013e 594d 093d 1573 753c
00000300: 186b 9f3d baca 1b3e 095e 993c a748 febd
00000310: 0f75 a8bd 8840 d6bd 4505 07bd 3a00 b33d
00000320: b777 c03d fbcc d23d 5c27 ab3d 8b4e 9c3b
00000330: 4cde a33c a82a 0f3c 4166 103d df29 27bd
00000340: b726 00bd eceb 91bc 7fce 513d e245 583d
00000350: df74 febd 5643 e5bd dddd 5b3c a64a fcbc
00000360: 14cd edbd 9d99 ddbd 7afc 2a3d 5877 dfbc
00000370: 2e65 de3d febc 363d f117 b7bd c6d9 9bbd
00000380: 500d 183b 8312 653d 2b47 1f3d eec8 d3bd
00000390: 8b7a 0e3d 8ef9 87bd 0847 0a3e 0253 02bd
000003a0: 07bd e63b 260b d33c f841 a43d 6f44 1ebd
000003b0: b7ae 033d 197e 1d3e cdc9 413d 72fd 3c3c
000003c0: e568 72bc 9b18 a33c dd96 4cbd a9d5 a43d
000003d0: 56e1 643d 4981 863d c35e 933c eb83 adbd
000003e0: af37 ccbc 1cd4 dc3d 25f0 8fbd d6b4 00be
000003f0: 1f64 993d b44d 9fbd f4be e83d 7efc 8f3d

bias f4 [14]
-0.066375576 0.032190874 -0.08178366 0.08226224 -0.087977454 -0.087169655 -0.07350175 0.057378877
-0.03211846 0.07154195 -0.028807065 -0.0188539 0.040096864 -0.048519455
00000000: ebef 87bd 94da 033d 317e a7bd 1b79 a83d
00000010: 862d b4bd 0186 b2bd 1688 96bd 1d06 6b3d
00000020: a58e 03bd 9684 923d cbfc ebbc 7e73 9abc
00000030: 9c3c 243d 56bc 46bd
