python/mod/re/modqig_bufu_seg1st0ss2.pth (torch, 133711 bytes, 8 tensors)

weight f4 [120, 14]
-0.28052938 0.4214822 -0.26340425 0.2576138 -0.67839646 0.27072772 0.64997005 -0.27783564
1.0791054 0.4118581 -0.14643177 -0.28540257 0.3575063 -0.29776502 -0.074951306 -0.0051876307
-0.005858749 0.2393994 0.17489997 0.04167807 -0.023706943 0.18184528 0.2572579 0.17052522
-0.18391405 -0.10569973 -0.16708094 -0.15666687 -0.12867044 0.22308888 0.12279516 -0.15742153
-0.31743267 0.26921624 0.19019161 -1.0191386 -0.3329851 -0.03762497 -0.44101092 -0.16178048
-0.47248888 -1.2100539 -0.37466946 0.06555344 0.19155167 0.23074718 -0.02950251 -0.15351336
-0.32122973 0.5700459 0.4962329 -0.23882286 0.3029414 0.034352675 0.016120056 0.41535234
-0.41460308 0.23083363 -0.051278587 0.0073222327 -0.6547732 -0.16966705 0.22984348 0.23799095
-0.37205186 -0.27468717 -0.24181542 0.14688964 0.049803656 0.8253674 0.004246969 -0.23698738
-0.47402376 -0.13872544 0.26358512 -0.26160207 0.32442182 0.95292157 0.39547503 0.47871178
0.13704108 -0.31349012 0.20226538 -0.1165479 0.19420838 0.18583009 -0.036494702 -0.15980539
0.21604002 -0.15889622 -0.0725041 0.1086739 0.11000103 -0.007052064 -0.20799729 0.2314345
-0.18997493 0.09004274 0.10140145 -0.12616485 0.051459163 -0.09165707 0.24807176 0.029686868
-0.05511883 0.16853577 0.10979441 0.08181882 0.23705295 0.22738409 -0.12648068 -0.18228498
-0.3564715 -0.37365434 0.110619366 0.033919986 0.2551214 0.3349976 0.7342897 -0.24719504
-0.17492488 0.48300385 0.04941575 0.060680047 -0.9086514 -0.5085274 -0.08345815 0.028373353
-0.30588198 0.16886374 -0.66362 0.10777202 0.20748761 -0.8637409 0.19857153 0.2606917
-0.18517148 -0.362629 0.61658865 -0.96701896 0.28583604 0.13941248 -0.0928055 0.07211257
-0.47468194 -0.078151226 -0.30399123 -0.08488433 0.08277149 0.09953238 -0.11550805 0.32959813
-0.4623904 0.13303937 0.06615186 0.023999294 0.03938218 -0.29359746 0.41186553 -0.1270011
0.46622193 -0.4076972 0.082558654 -0.061072655 0.17070685 -0.5269985 -0.8835376 -0.22701024
-0.28169477 -0.23569131 -0.24845001 0.3278706 0.4924569 0.018739937 -0.19856285 0.2887781
0.4614449 0.15837045 -0.16480735 -0.18913376 0.14433737 -0.24741262 -0.083823465 0.10208402
0.1341318 0.30909312 0.028143294 -0.15382473 0.2638506 -0.15626901 -0.14493422 0.19949327
0.07856782 -0.20684224 -0.64908683 -0.19062099 -0.30646527 -0.20137699 0.2000749 0.45122674
-0.31610975 -0.7164369 0.12226951 0.4283343 0.36573738 -0.0064471685 0.045000393 -0.08146909
-0.3388239 1.3341141 0.34879783 -0.09469067 0.02635856 -0.1670248 0.35077745 -0.12248721
0.17328349 -0.45820087 -0.17171378 -0.025572406 -0.6608278 0.15053697 -0.71042794 0.7869888
-0.14557657 0.44894245 -0.057756618 0.34219074 0.0017952145 0.38113523 -0.30411792 -0.35027558
0.07031166 0.037773255 -0.16618069 -0.32599467 0.07364513 -1.0794442 -0.04929299 0.31557167
0.091485105 0.14983475 -0.5027536 -0.1181979 -0.015979653 -0.30251777 -0.16317901 0.28047156
0.104756534 -0.62918353 -0.038206194 -0.13140383 -0.03294246 0.19762406 0.09582645 -0.2609759
00000000: 8ca1 8fbe 84cc d73e ecdc 86be f5e5 833e
00000010: 64ab 2dbf d39c 8a3e 7064 263f 7940 8ebe
00000020: 2020 8a3f 11df d23e 36f2 15be 4920 92be
00000030: 110b b73e a874 98be 1280 99bd 00fd a9bb
00000040: c0fa bfbb 1e25 753e fa18 333e a0b6 2a3d
00000050: 1035 c2bc a635 3a3e 4fb7 833e 2a9e 2e3e
00000060: f753 3cbe 1a79 d8bd 4417 2bbe 486d 20be
00000070: 2fc2 03be 6971 643e 077c fb3d 1c33 21be
00000080: 8986 a2be b6d6 893e 97c1 423e 2273 82bf
00000090: 067d aabe a41c 1abd 2fcc e1be c8a9 25be
000000a0: 10ea f1be 0ce3 9abf add4 bfbe e240 863d
000000b0: 1f26 443e fd48 6c3e 3faf f1bc 9b32 1dbe
000000c0: 3978 a4be 87ee 113f 3d12 fe3e fb8d 74be
000000d0: 231b 9b3e 64b5 0c3d 350e 843c 10a9 d43e
000000e0: db46 d4be a75f 6c3e 7f09 52bd 57ef ef3b
000000f0: 379f 27bf 33bd 2dbe 175c 6b3e e6b3 733e
00000100: 957d bebe cca3 8cbe 769e 77be 3d6a 163e
00000110: ebfe 4b3d 474b 533f 282a 8b3b d2ac 72be
00000120: 3eb3 f2be 0b0e 0ebe a1f4 863e b5f0 85be
00000130: 9e1a a63e abf2 733f b47b ca3e b619 f53e
00000140: 7f54 0c3e c781 a0be a81e 4f3e aab0 eebd
00000150: 90de 463e 3e4a 3e3e 787b 15bd 06a4 23be
00000160: 9839 5d3e b1b5 22be 087d 94bd 6c90 de3d
00000170: 3848 e13d 0015 e7bb 3efd 54be 2afd 6c3e
00000180: ca88 42be 5468 b83d 90ab cf3d 5c31 01be
00000190: d8c6 523d b4b6 bbbd 8606 7e3e e031 f33c
000001a0: 48c4 61bd a494 2c3e e4db e03d a090 a73d
000001b0: 02be 723e 60d7 683e 2784 01be eaa8 3abe
000001c0: 6f83 b6be 9f4f bfbe 688c e23d afef 0a3d
000001d0: 469f 823e ce84 ab3e 69fa 3b3f b220 7dbe
000001e0: 821f 33be 484c f73e 2b68 4a3d a48b 783d
000001f0: 619d 68bf da2e 02bf 1bec aabd 3c6f e83c
00000200: 909c 9cbe 9eea 2c3e 00e3 29bf 94b7 dc3d
00000210: a277 543e 201e 5dbf 5656 4b3e 6279 853e
00000220: 989d 3dbe 82aa b9be c1d8 1d3f 8e8e 77bf
00000230: 1a59 923e 25c2 0e3e cf10 bebd c1af 933d
00000240: 8309 f3be c00d a0bd bda4 9bbe d6d7 adbd
00000250: 1984 a93d a2d7 cb3d 7c8f ecbd 16c1 a83e
00000260: 6fbe ecbe 793b 083e a07a 873d 2b9a c43c
00000270: 354f 213d 6852 96be 0ae0 d23e 940c 02be
00000280: a4b4 ee3e b0bd d0be 8314 a93d 5227 7abd
00000290: c7cd 2e3e 60e9 06bf 852f 62bf 5f75 68be
000002a0: 4c3a 90be 1059 71be ae69 7ebe a8de a73e
000002b0: 5023 fc3e 7f84 993c 0f54 4bbe b9da 933e
000002c0: 8242 ec3e dd2b 223e 42c3 28be 48ac 41be
000002d0: 2dcd 133e bc59 7dbe a3ab abbd 6d11 d13d
000002e0: d959 093e 7441 9e3e c48c e63c 3b84 1dbe
000002f0: 6d17 873e fc04 20be a369 14be f747 4c3e
00000300: 2ae8 a03d 74ce 53be 8e2a 26bf 2632 43be
00000310: 04e9 9cbe c535 4ebe 6fe0 4c3e 3107 e73e
00000320: 23d9 a1be 6968 37bf 7068 fa3d a24e db3e
00000330: ee41 bb3e c542 d3bb 5552 383d 44d9 a6bd
00000340: 547a adbe 40c4 aa3f a195 b23e 2fed c1bd
00000350: e8ed d73c 8d08 2bbe 1a99 b33e 93da fabd
00000360: 3a71 313e 4e99 eabe bdd5 2fbe 397d d1bc
00000370: 032c 29bf 5d26 1a3e 9bde 35bf 1978 493f
00000380: 0612 15be c9db e53e 3492 6cbd a033 af3e
00000390: 674d eb3a 2824 c33e 58b5 9bbe 5257 b3be
000003a0: 8fff 8f3d 21b8 1a3d 452b 2abe c6e8 a6be
000003b0: 42d3 963d 3a2b 8abf 72e7 49bd 9c92 a13e
000003c0: 8b5c bb3d 486e 193e 76b4 00bf be11 f2bd
000003d0: c3e7 82bc 9ce3 9abe 6618 27be f899 8f3e
000003e0: 988a d63d 2c12 21bf 197e 1cbd ba8e 06be
000003f0: acee 06bd f65d 4a3e a840 c43d a29e 85be

bias f4 [120]
-0.03235206 -0.23695958 0.15382637 -0.03427478 0.086969085 0.119662404 -0.19453621 -0.21388349
-0.027590752 0.13412762 0.1945616 0.21721764 0.21678644 0.24509355 0.013029333 0.16700414
0.12123118 0.058915522 -0.14094071 0.19358644 0.15703312 0.22018574 -0.15473905 -0.11765585
0.0841745 0.07690737 -0.0525032 0.16406168 -0.10297979 -0.1741369 -0.026982421 0.17480466
-0.06553966 0.1724655 0.17758103 0.12805259 0.07724386 0.0762983 -0.09705433 -0.21416944
-0.18914607 -0.24769469 -0.20855108 -0.1442719 0.23257603 0.01578003 -0.030220462 0.0007885684
0.24977313 -0.056155574 0.24624185 0.1776166 -0.18749155 0.22134724 0.22479488 -0.23144168
-0.26105693 0.1260048 -0.23555689 -0.040698837 0.11136534 -0.15110601 0.15220621 -0.17747208
0.12025246 0.20995522 -0.15188453 0.18247159 0.26625016 0.06028656 0.24144201 0.099256635
0.23833148 -0.16324824 0.18047324 0.022731049 -0.018894989 0.20559229 -0.018042155 0.22154756
-0.14027104 -0.042246815 -0.1749703 0.069115125 -0.16452274 -0.17343844 0.26125342 0.09879853
0.20800476 0.14703049 -0.20263745 -0.028720496 0.17030552 0.19939797 0.047703467 -0.012471809
-0.12555374 0.17805226 0.056639068 0.16904442 -0.05671609 -0.1479882 -0.23230454 -0.23960823
0.0077775796 -0.15019661 -0.1268897 -0.21541575 -0.099593684 0.1364065 -0.15360111 0.1861115
-0.063994005 -0.13458928 0.06179551 0.15395017 0.15990274 0.024343548 0.005726591 0.13217191
00000000: 9883 04bd 88a5 72be a984 1d3e b663 0cbd
00000010: d91c b23d 9011 f53d 8034 47be 4604 5bbe
00000020: 0006 e2bc c058 093e 283b 473e 4d6e 5e3e
00000030: 44fd 5d3e cef9 7a3e fc78 553c 2203 2b3e
00000040: 0e48 f83d 6751 713d c352 10be 863b 463e
00000050: 4acd 203e 5f78 613e ea73 1ebe 8df5 f0bd
00000060: ae63 ac3d 9c81 9d3d 980d 57bd c9ff 273e
00000070: 11e7 d2bd f250 32be 3d0a ddbc feff 323e
00000080: a839 86bd cc9a 303e cdd7 353e 3820 033e
00000090: 0732 9e3d 4842 9c3d 6cc4 c6bd 3c4f 5bbe
000000a0: 82af 41be ada3 7dbe 6a8e 55be 03bc 13be
000000b0: 6928 6e3e 1f45 813c e790 f7bc eeb7 4e3a
000000c0: 87c4 7f3e 6303 66bd d326 7c3e 20e1 353e
000000d0: c9fd 3fbe daa8 623e a130 663e 0cff 6cbe
000000e0: 41a9 85be 6707 013e d335 71be d3b3 26bd
000000f0: 8313 e43d 89bb 1abe f2db 1b3e 3ebb 35be
00000100: ec46 f63d 80fe 563e 9e87 1bbe d5d9 3a3e
00000110: f151 883e 0aef 763d 933c 773e 1047 cb3d
00000120: 2b0d 743e 8c2a 27be facd 383e 7736 ba3c
00000130: aac9 9abc c986 523e 24cd 93bc 5ddd 623e
00000140: 36a3 0fbe ff0a 2dbd 6a2b 33be 3b8c 8d3d
00000150: a678 28be d999 31be 02c3 853e e256 ca3d
00000160: 33ff 543e 298f 163e 3180 4fbe 3f47 ebbc
00000170: 9264 2e3e fb2e 4c3e b664 433d 8f56 4cbc
00000180: 2991 00be 5553 363e 5efe 673d fb19 2d3e
00000190: 214f 68bd 388a 17be 3ee1 6dbe dc5b 75be
000001a0: 11db fe3b 24cd 19be 60ef 01be f295 5cbe
000001b0: c6f7 cbbd 25ae 0b3e 9c49 1dbe 0394 3e3e
000001c0: 4a0f 83bd c6d1 09be 4a1d 7d3d 1da5 1d3e
000001d0: 8bbd 233e 1f6c c73c 21a6 bb3b 1358 073e

weight f4 [120, 120]
-0.22056063 -0.024326228 -0.05535504 -0.009725507 -0.022907838 0.13862298 -0.067756884 -0.026467822
-0.10455707 -0.14828402 0.14830488 0.047318347 0.054433547 0.023124801 -0.15991619 0.09904116
-0.13090469 0.15592654 -0.028366737 -0.025487775 0.014918239 -0.010572776 0.09081589 0.24114414
-0.15388446 0.1427019 0.004877411 0.01055937 -0.034175515 0.022822566 0.0093879495 -0.010403577
-0.11640374 0.103694335 -0.13335258 -0.043830276 -0.022966534 0.026316961 -0.0528769 -0.03250101
0.025423624 0.025603376 -0.09127905 0.05585429 0.065082066 -0.05174502 -0.28870454 -0.027917402
-0.022685196 0.03063068 -0.0026834882 0.046400823 -0.026694052 -0.00023154015 0.12471086 0.04507184
0.088465646 -0.074322 -0.014878817 0.126629 0.08898232 0.007445865 0.05837133 0.07062118
0.07324491 -0.101706475 0.021629259 0.05335682 -0.042724032 -0.03907757 -0.023730796 0.15824255
0.12639713 0.08144551 0.07951678 -0.08708394 0.09058589 0.13676293 -0.011868778 0.033862762
-0.057215326 -0.10909228 -0.055650163 0.5691615 -0.06295961 -0.55670416 0.05056849 -0.034109436
0.03264727 -0.08926175 -0.086682 0.14398246 0.07627077 0.10050705 0.06562931 0.11434616
-0.024935925 -0.009994489 0.03621423 0.039977454 -0.031836543 0.06569843 -0.057158716 -0.04329312
0.5892748 0.062196374 -0.010051176 0.017320849 0.18209797 0.022132013 -0.063075855 -0.07238667
-0.17607059 0.18297619 0.13746332 0.110937335 0.35021776 0.022260962 -0.05028745 0.042977322
-0.11430853 -0.07169996 0.092690974 -0.025240902 0.15809852 0.124410704 -0.05859644 0.05098553
0.13461956 0.06865495 -0.0072658504 -0.04190982 -0.08339712 -0.02231812 -0.120507024 -0.08785781
-0.13791007 0.16490242 0.02394624 0.015878132 0.008939203 0.11033513 -0.07354626 0.2615057
0.15395153 -0.0022986475 -0.24387781 0.15262192 -0.079042375 0.011041127 0.20131056 -0.17008823
0.07862174 -0.08855363 0.16470128 0.111311354 -0.20886934 0.06054687 0.14454676 0.059744164
0.039302096 0.08560115 0.056772277 0.08092852 0.104607396 0.17450057 0.07491704 0.28704208
0.02966797 0.08956839 0.12098298 0.051755596 -0.071549736 0.016109385 0.11010478 -0.006295711
-0.05974258 0.22217454 0.060756892 0.04324727 0.088294454 -0.15036263 0.13258979 0.028302826
0.02525941 -0.115935735 0.06550965 -0.107889645 0.050833657 -0.11566271 -0.04377808 0.08783596
-0.15370837 0.19681954 0.16001827 -0.0037782185 0.060529657 0.15657476 0.057200104 0.029572403
-0.08650453 -1.1724927 0.0029115602 0.16478692 -0.06254088 0.101904154 -0.024723526 -0.36141074
0.11112393 -0.07402693 -0.031238608 0.19942264 0.16469894 -0.10650405 -0.0025082428 -0.19459364
-0.08336824 -0.050836645 -0.16110744 0.028810967 -0.1390169 0.35932004 0.0741525 0.06267914
-0.04948753 0.07968788 -0.06571312 0.049606025 0.0382664 -0.02405479 0.018500827 -0.0740465
0.16108407 0.06928744 0.26623484 -0.009208474 -0.11390779 -0.19435756 0.20798232 -0.027230611
0.1154196 0.05542791 0.2253155 -0.18519817 -0.17808145 -0.08686864 0.01524324 -0.03880698
-0.032269765 0.020336088 0.105788015 0.09865556 -0.037444446 0.041573144 -0.07242108 0.11091831
00000000: a5da 61be cc47 c7bc f7bb 62bd bc57 1fbc
00000010: 38a9 bbbc 2ff3 0d3e 1fc4 8abd 0cd3 d8bc
00000020: 0422 d6bd c4d7 17be 3cdd 173e e2d0 413d
00000030: b6f5 5e3d 3970 bd3c 12c1 23be 17d6 ca3d
00000040: e10b 06be 35ab 1f3e 5c61 e8bc bdcb d0bc
00000050: a16b 743c 7039 2dbc aefd b93d 7dee 763e
00000060: e393 1dbe 7220 123e b0d2 9f3b 3501 2d3c
00000070: a0fb 0bbd 64f6 ba3c eacf 193c c473 2abc
00000080: 1665 eebd b25d d43d 948d 08be 6087 33bd
00000090: 5024 bcbc ab96 d73c 7395 58bd c71f 05bd
000000a0: 3445 d03c 2cbe d13c 83f0 babd 78c7 643d
000000b0: bf49 853d 96f2 53bd 15d1 93be 09b3 e4bc
000000c0: 4ed6 b9bc 31ed fa3c 76dd 2fbb ca0e 3e3d
000000d0: 7cad dabc 96c9 72b9 6868 ff3d 409d 383d
000000e0: 7a2d b53d 2236 98bd 48c6 73bc 08ab 013e
000000f0: 5d3c b63d 71fc f33b c716 6f3d d6a1 903d
00000100: 6d01 963d 7c4b d0bd d82f b13c ae8c 5a3d
00000110: 65ff 2ebd cd0f 20bd 1667 c2bc 560a 223e
00000120: 406e 013e e7cc a63d b2d9 a23d 1159 b2bd
00000130: 1885 b93d 950b 0c3e 4375 42bc aeb3 0a3d
00000140: 9e5a 6abd c66b dfbd 6df1 63bd 91b4 113f
00000150: f8f0 80bd 2a84 0ebf e820 4f3d 56b6 0bbd
00000160: 25b9 053d ddce b6bd 5586 b1bd 2370 133e
00000170: d933 9c3d a4d6 cd3d a968 863d 522e ea3d
00000180: 6d46 ccbc edbf 23bc 5f55 143d 66bf 233d
00000190: 0967 02bd e68c 863d 421f 6abd 2054 31bd
000001a0: b7da 163f a0c1 7e3d b0ad 24bc 74e4 8d3c
000001b0: e477 3a3e 324e b53c ea2d 81bd 763f 94bd
000001c0: d94b 34be 1c5e 3b3e 2fc3 0c3e 1d33 e33d
000001d0: be4f b33e 9f5c b63c 37fa 4dbd fd08 303d
000001e0: 971a eabd 6ed7 92bd c4d4 bd3d 02c6 cebc
000001f0: 94e4 213e 0acb fe3d d202 70bd 34d6 503d
00000200: b6d9 093e f79a 8c3d 5f16 eebb a2a9 2bbd
00000210: 1ccc aabd 7dd4 b6bc 63cc f6bd ccee b3bd
00000220: 4c38 0dbe 2edc 283e e82a c43c db12 823c
00000230: bc75 123c 62f7 e13d 6c9f 96bd 13e4 853e
00000240: 78a5 1d3e e8a4 16bb 1bbb 79be ec48 1c3e
00000250: f8e0 a1bd d8e5 343c 5b24 4e3e 9c2b 2ebe
00000260: 6f04 a13d 9b5b b5bd 74a7 283e 35f7 e33d
00000270: d8e1 55be ffff 773d 1104 143e 4cb6 743d
00000280: 3cfb 203d a84f af3d 0c8a 683d dabd a53d
00000290: 673c d63d 47b0 323e 1b6e 993d 2ef7 923e
000002a0: 3e0a f33c a26f b73d edc5 f73d adfd 533d
000002b0: ab88 92bd d4f7 833c 9d7e e13d 404c cebb
000002c0: a3b4 74bd b981 633e 38dc 783d 0d24 313d
000002d0: b9d3 b43d a9f8 19be 9ec5 073e 54db e73c
000002e0: d2ec ce3c b76f edbd ec29 863d 3ff5 dcbd
000002f0: f436 503d 92e0 ecbd a550 33bd 57e3 b33d
00000300: ba65 1dbe 108b 493e d4db 233e fd9b 77bb
00000310: f2ed 773d 2255 203e a84a 6a3d d341 f23c
00000320: 4929 b1bd 3e14 96bf e0cf 3e3b e7bd 283e
00000330: 6f15 80bd 20b3 d03d fe88 cabc d40a b9be
00000340: f194 e33d 6e9b 97bd 1ce8 ffbc 7335 4c3e
00000350: d7a6 283e cc1e dabd 5561 24bb 8e43 47be
00000360: f8bc aabd 163a 50bd 59f9 24be fa04 ec3c
00000370: 725a 0ebe ccf8 b73e 44dd 973d ec5d 803d
00000380: 70b3 4abd 6633 a33d 9a94 86bd b02f 4b3d
00000390: 3bbd 1c3d 8d0e c5bc 0c8f 973c b1a5 97bd
000003a0: 39f3 243e 93e6 8d3d ef4f 883e 24df 16bc
000003b0: 7d48 e9bd ab05 47be 51f9 543e bb12 dfbc
000003c0: 1c61 ec3d 6008 633d 1bb9 663e 97a4 3dbe
000003d0: fc5a 36be 2fe8 b1bd c8be 793c 11f4 1ebd
000003e0: 4d2d 04bd de97 a63c 63a7 d83d ed0b ca3d
000003f0: 595f 19bd 9a48 2a3d 8151 94bd 2429 e33d

bias f4 [120]
-0.04915498 -0.031299345 -0.0043745665 0.09484965 -0.072004065 0.055914395 0.10051265 -0.055573292
-0.012598875 -0.014331697 0.02948067 0.04428508 0.07234337 -0.03767917 0.039593607 -0.07405123
0.04656036 0.064945534 -0.012174988 0.06462756 0.064806685 0.020338673 -0.05539763 0.06816794
0.021692732 0.057401862 -0.087905884 -0.08148377 -0.0062391283 0.12697779 -0.019066725 0.007401325
0.030976932 0.092492804 -0.053759683 -0.046481222 -0.009998581 -0.0837188 0.042789992 0.018135
0.06668792 -0.049660966 -0.09381843 -0.0029079223 -0.059133027 0.044390984 0.039866537 0.11334051
0.055685237 -0.09013712 -0.05914255 -0.08899964 -0.06514507 -0.056586575 0.014409919 0.04211177
0.009031518 0.0815517 0.050214622 -0.000545497 -0.09711945 -0.05822716 0.06269996 0.067064725
0.023330523 -0.010811978 -0.03813512 0.018724676 0.08767879 -0.035386402 -0.014482682 0.013216839
-0.018819032 -0.0498048 -0.0014793844 -0.08197407 -0.0029438343 0.061247624 0.06408484 -0.10092028
-0.067394115 0.07653571 -0.017162383 0.065627776 0.05125271 -0.03518582 0.014360839 0.019896036
0.087329485 -0.111329325 0.062091034 0.09215844 0.0430093 0.038001027 0.006700679 0.10535912
-0.030170318 -0.08382888 -0.011226902 0.0889895 -0.017414937 0.0927319 -0.027398787 0.020143555
-0.045450494 0.085198216 -0.05340551 0.04728438 0.003220127 0.020946458 0.006221047 0.092116095
-0.06227766 0.062233385 0.0427506 0.06388403 0.117677815 -0.00734473 0.025600817 -0.06329069
00000000: bb56 49bd be33 00bd 8658 8fbb 8940 c23d
00000010: de76 93bd 7e06 653d 94d9 cd3d d2a0 63bd
00000020: 836b 4ebc 7ecf 6abc 7281 f13c 4664 353d
00000030: c328 943d 7955 1abd e82c 223d 2ca8 97bd
00000040: 13b6 3e3d 2a02 853d 9a79 47bc 745b 843d
00000050: 5eb9 843d 4a9d a63c a0e8 62bd a29b 8b3d
00000060: f5b4 b13c 371e 6b3d 0008 b4bd f6e0 a6bd
00000070: 9a71 ccbb 7706 023e d231 9cbc d086 f23b
00000080: 56c3 fd3c de6c bd3d 1d33 5cbd 1863 3ebd
00000090: 17d1 23bc c374 abbd 8f44 2f3d da8f 943c
000000a0: ad93 883d 4c69 4bbd e123 c0bd d792 3ebb
000000b0: 7935 72bd 52d3 353d 184b 233d 121f e83d
000000c0: 3416 643d cf99 b8bd 753f 72bd 7145 b6bd
000000d0: c76a 85bd 53c7 67bd 9517 6c3c 647d 2c3d
000000e0: eff8 133c 9404 a73d d9ad 4d3d afff 0eba
000000f0: 90e6 c6bd 9a7f 6ebd d668 803d 3b59 893d
00000100: a71f bf3c b924 31bc 9233 1cbd 7e64 993c
00000110: f090 b33d 55f1 10bd c548 6dbc 718b 583c
00000120: 5f2a 9abc 1e00 4cbd e7e7 c1ba 05e2 a7bd
00000130: 58ed 40bb cade 7a3d ea3e 833d 4baf cebd
00000140: ed05 8abd c1be 9c3d 2098 8cbc db67 863d
00000150: 5dee 513d 021f 10bd b949 6b3c 03fd a23c
00000160: cdd9 b23d a100 e4bd 2b53 7e3d 90bd bc3d
00000170: 852a 303d f7a6 1b3d 5f91 db3b 86c6 d73d
00000180: be27 f7bc 7aae abbd 0af1 37bc 2140 b63d
00000190: c5a9 8ebc 39ea bd3d 6c73 e0bc 1904 a53c
000001a0: 4c2a 3abd 677c ae3d bcbf 5abd 44ad 413d
000001b0: c408 533b e897 ab3c edd9 cb3b 5da7 bc3d
000001c0: dc16 7fbd 6fe8 7e3d 411b 2f3d a1d5 823d
000001d0: 1101 f13d 10ac f0bb ceb8 d13c 8d9e 81bd

weight f4 [120, 120]
-0.05237411 0.005146136 0.00189295 0.0076294458 -0.08963775 0.00835251 0.1800444 -0.027746916
-0.018408116 0.10830176 0.12995663 -0.18638177 0.00025413258 -0.12437799 -0.36116615 0.0854691
0.24325907 -0.22668788 0.0071403882 -0.12837741 -0.033529934 -0.05060983 -0.00081207603 0.058390666
0.10710544 0.18920243 -0.02187327 0.080036506 -0.034681838 -0.014309894 -0.03113721 -0.54119796
-0.15627484 0.03042765 0.035698548 0.09969608 0.09535861 -0.053929165 0.28603193 0.055493366
-0.15614343 0.027678004 0.07586764 0.07311071 0.01782841 -0.051736623 0.09197792 0.054162636
-0.2779388 0.039557412 -0.023015644 -0.054262903 -0.5501369 -0.016331714 0.17149588 -0.1889591
0.30587366 -0.1146431 -0.03509229 0.07609664 0.07398643 -0.14227393 0.032384858 -0.06640197
0.065799385 -0.025098298 -0.025780221 -0.09738802 0.16113912 -0.44442388 -0.05017469 -0.25460905
0.08864747 0.4316419 0.21234813 -0.053515747 -0.07172688 -0.053567067 -0.034100883 -0.0388458
0.17843977 0.023134345 0.04403009 -0.0025537733 0.05116849 -0.12106131 0.117380805 0.08572213
0.16290629 0.07572028 -0.048673153 0.036511246 -0.0039658085 -0.04187956 -0.03295173 0.14862964
0.002739489 0.047550842 0.08375695 0.017707579 -0.03101733 0.22146872 -0.13658468 0.092928745
0.45136535 0.014737283 -0.06364859 -0.08222599 -0.0770602 0.084405646 0.017315589 -0.040226255
0.0762734 0.04562821 0.052896943 0.071554996 -0.06306152 0.056271873 0.085549146 -0.0071522295
0.008135843 -0.064598605 -0.06285964 -0.059974138 0.052946147 -0.16481987 -0.06130643 -0.064248264
0.013706526 0.08452685 -0.02818812 -0.11696725 -0.019626612 -0.10558164 -0.3518975 0.01311166
0.11385986 -0.34784618 -0.0001231054 -0.042375434 -0.05487537 0.12570824 0.032939196 -0.048146576
0.11498302 0.04243995 -0.027738603 -0.04887445 0.07493021 -0.024354797 -0.011625047 -0.47282565
0.02745627 -0.002269762 0.06540312 0.035271678 0.06053693 0.085164756 0.25839752 0.0983049
-0.049973227 -0.029563611 0.12710665 -0.107120246 0.098582745 0.018509906 -0.08047384 0.07327561
-0.48551568 -0.042836964 0.084227875 -0.08863229 -0.47761247 -0.11325676 0.18986993 0.06805963
-0.17289415 -0.14243633 -0.005530721 0.13471113 0.085801184 -0.16415574 0.034513105 -0.05333581
-0.13974755 0.07131997 -0.02678301 -0.019102154 0.0023022604 -0.39632335 -0.14156975 -0.06787366
0.1115969 0.45896596 -0.13710931 -0.06627831 0.022986477 0.0154593075 0.06823959 0.072556056
0.116433956 0.051175613 0.05132123 -0.025625613 -0.004170165 -0.12459797 0.052435443 -0.028747715
0.13344629 -0.06442911 -0.0484572 -0.07502327 -0.07060636 0.047523618 0.05701672 0.00708221
-0.0049900785 -0.02807445 -0.031515397 0.004422192 -0.014457745 0.07301054 -0.0065387962 -0.0015530157
0.28007868 -0.13988887 0.0659694 -0.08234604 -0.06519553 0.1939839 -0.066878065 -0.050978653
-0.037952404 -0.053514756 0.011457385 -0.007426139 -0.009196503 -0.052236017 0.09730166 -0.022934228
0.07693997 0.057384554 -0.03576655 0.26100716 -0.07867967 -0.097558774 0.4657451 0.08298415
0.043872528 -0.14439058 0.25251156 0.07933231 0.07470819 0.0365132 -0.13438047 0.057148937
00000000: 3c86 56bd eba0 a83b dd1c f83a 6e00 fa3b
00000010: ff93 b7bd f7d8 083c 8f5d 383e 804d e3bc
00000020: 9ecc 96bc 50cd dd3d 5a13 053e ddda 3ebe
00000030: 193d 8539 e3b9 febd c5ea b8be 6c0a af3d
00000040: e818 793e de20 68be ebf9 e93b 5e75 03be
00000050: af56 09bd 414c 4fbd 80e1 54ba 0d2b 6f3d
00000060: 195a db3d 48be 413e 922f b3bc 2eea a33d
00000070: 8b0e 0ebd 0c74 6abc 7613 ffbc f38b 0abf
00000080: 8306 20be 6843 f93c a438 123d 752d cc3d
00000090: 604b c33d d4e4 5cbd c772 923e 034d 633d
000000a0: 10e4 1fbe fbbc e23c 7e60 9b3d 11bb 953d
000000b0: e30c 923c c8e9 53bd eb5e bc3d a4d9 5d3d
000000c0: ff4d 8ebe f406 223d 4e8b bcbc c742 5ebd
000000d0: c6d5 0cbf 16ca 85bc 9e9c 2f3e 7f7e 41be
000000e0: 799b 9c3e 00ca eabd efbc 0fbd 8ed8 9b3d
000000f0: 3386 973d 42b0 11be fca5 043d c2fd 87bd
00000100: d4c1 863d f29a cdbc 0b31 d3bc 5f73 c7bd
00000110: a701 253e 878b e3be fa83 4dbd 1e5c 82be
00000120: ce8c b53d 2b00 dd3e ca71 593e 5433 5bbd
00000130: 8be5 92bd 2469 5bbd 5ead 0bbd c61c 1fbd
00000140: eab8 363e 3d84 bd3c e558 343d 355d 27bb
00000150: 0d96 513d feee f7bd 5965 f03d 168f af3d
00000160: e8d0 263e 3c13 9b3d 805d 47bd d18c 153d
00000170: 9df3 81bb e789 2bbd 65f8 06bd 5e32 183e
00000180: 0089 333b acc4 423d c488 ab3d 7c0f 913c
00000190: 0e18 febc b2c8 623e dbdc 0bbe 6d51 be3d
000001a0: 5c19 e73e a574 713c 315a 82bd 1a66 a8bd
000001b0: bdd1 9dbd dedc ac3d 6cd9 8d3c 49c4 24bd
000001c0: 3a35 9c3d a5e4 3a3d 77aa 583d 6d8b 923d
000001d0: 6626 81bd 567d 663d 6434 af3d 405d eabb
000001e0: 334c 053c 464c 84bd 8ebc 80bd 71a7 75bd
000001f0: 0fde 583d 8ac6 28be 731c 7bbd 9894 83bd
00000200: 5691 603c 6a1c ad3d c6ea e6bc 878c efbd
00000210: fdc7 a0bc 303b d8bd e92b b4be 4ad2 563c
00000220: 5c2f e93d e518 b2be db15 01b9 dd91 2dbd
00000230: ffc4 60bd a9b9 003e 40eb 063d 5835 45bd
00000240: 387c eb3d 83d5 2d3d 113c e3bc 9330 48bd
00000250: 0375 993d b683 c7bc fb76 3ebc 3416 f2be
00000260: f9eb e03c 4ac0 14bb 12f2 853d 0979 103d
00000270: 92f5 773d dc6a ae3d ae4c 843e 1454 c93d
00000280: bab0 4cbd 632f f2bc 3f28 023e dc61 dbbd
00000290: c0e5 c93d 16a2 973c 78cf a4bd 8611 963d
000002a0: 8395 f8be d075 2fbd aa7f ac3d d984 b5bd
000002b0: 9f89 f4be 29f3 e7bd 436d 423e d962 8b3d
000002c0: 2a0b 31be d4da 11be 0d3b b5bb b7f1 093e
000002d0: 88b8 af3d 7118 28be 9d5d 0d3d a676 5abd
000002e0: fb19 0fbe 3410 923d 0b68 dbbc 1f7c 9cbc
000002f0: 85e1 163b e5ea cabe a9f7 10be 5801 8bbd
00000300: ea8c e43d 96fd ea3e 6266 0cbe ecbc 87bd
00000310: 234e bc3c 0949 7d3c 33c1 8b3d 4598 943d
00000320: ed74 ee3d 859d 513d 3636 523d ceec d1bc
00000330: e1a5 88bb 382d ffbd 8cc6 563d 5480 ebbc
00000340: 25a6 083e 69f3 83bd 0f7b 46bd cda5 99bd
00000350: 119a 90bd 20a8 423d 5d8a 693d e211 e83b
00000360: d083 a3bb 64fc e5bc 4a16 01bd 09e8 903b
00000370: 2de0 6cbc 8d86 953d 6643 d6bb 8f8e cbba
00000380: 7966 8f3e 073f 0fbe f71a 873d 0aa5 a8bd
00000390: 3c85 85bd b7a3 463e 5ef7 88bd fece 50bd
000003a0: fb73 1bbd 4a32 5bbd c1b7 3b3c f856 f3bb
000003b0: eeac 16bc 6ff5 55bd 1846 c73d 90e0 bbbc
000003c0: b492 9d3d 110c 6b3d f27f 12bd bba2 853e
000003d0: cf22 a1bd e5cc c7bd 2476 ee3e 98f3 a93d
000003e0: aeb3 333d 20db 13be 3249 813e fa78 a23d
000003f0: 9c00 993d dd8e 153d 099b 09be 0115 6a3d

bias f4 [120]
-0.072314374 -0.07352355 -0.013703604 0.04540986 -0.022476297 0.055370525 0.057411548 -0.07498495
0.028919857 0.041863494 -0.011326332 0.06839701 -0.045817435 0.027843121 -0.015857784 -0.054190196
0.043685224 -0.0012714686 -0.04519371 0.056167632 -0.019551707 0.0049638255 -0.07996349 -0.027074946
-0.08119637 0.042162772 0.086029634 -0.062412374 0.004869265 0.03741504 -0.089238204 -0.029286692
-0.01826174 -0.056262996 0.0860611 -0.050438356 0.041759282 0.0010590431 0.056672413 -0.02181297
-0.0359303 0.017898908 0.06223394 0.025192253 -0.03126559 -0.08418586 -0.014303736 -0.09435156
0.0598738 0.04216407 -0.08996898 -0.07898269 -0.038937803 -0.0053417403 0.027490288 0.043787997
-0.035312586 0.04001065 0.055719733 0.06540471 0.04366355 0.03511289 0.0013987498 -0.0655443
-0.05095152 -0.04901692 -0.07949977 0.04875018 -0.04654059 -0.028035698 -0.06713151 -0.08302349
-0.024611631 -0.0753884 -0.06160485 0.026900232 -0.020853007 -0.06504049 0.070138745 0.009585847
-0.032197624 -0.0259746 0.05567042 -0.06853256 0.043957327 -0.08128364 0.006103243 -0.04766426
0.037775885 -0.060625874 -0.015382123 0.07036383 -0.08484665 -0.023740295 -0.031335734 0.013053692
0.0702413 0.06557388 -0.07197806 0.08459848 0.04937413 0.04483097 0.074981675 0.03229514
-0.06761773 -0.048113264 -0.0029572265 -0.023769276 -0.011700168 0.00014598927 -0.12125729 0.070032306
0.05904363 -0.0047086678 0.06929348 0.012815912 0.0073766946 -0.054543722 0.03661876 0.085178636
00000000: 8f19 94bd 8493 96bd 1585 60bc b0ff 393d
00000010: 3620 b8bc 34cc 623d 5f28 6b3d b691 99bd
00000020: 56e9 ec3c 0e79 2b3d 1492 39bc bb13 8c3d
00000030: 10ab 3bbd 4217 e43c 2fe8 81bc 8af6 5dbd
00000040: 47ef 323d 68a7 a6ba 0a1d 39bd 0810 663d
00000050: e72a a0bc 96a7 a23b e6c3 a3bd 47cc ddbc
00000060: 484a a6bd dfb2 2c3d 4e30 b03d 1ea4 7fbd
00000070: 5b8e 9f3b 8340 193d 85c2 b6bd a5ea efbc
00000080: a599 95bc 0774 66bd cd40 b03d 7398 4ebd
00000090: c80b 2b3d 97cf 8a3a 5521 683d 1db1 b2bc
000000a0: a62b 13bd bba0 923c 04e9 7e3d fc5f ce3c
000000b0: 5910 00bd a369 acbd 385a 6abc 643b c1bd
000000c0: 3b3e 753d 3bb4 2c3d a841 b8bd adc1 a1bd
000000d0: 3f7d 1fbd c409 afbb 5033 e13c 0b5b 333d
000000e0: eea3 10bd 35e2 233d 603a 643d e8f2 853d
000000f0: 8dd8 323d 89d2 0f3d 4156 b73a 173c 86bd
00000100: 8bb2 50bd f7c5 48bd c7d0 a2bd 45ae 473d
00000110: 58a1 3ebd 1fab e5bc 3f7c 89bd 3808 aabd
00000120: 559e c9bc 3c65 9abd 5e55 7cbd e05d dc3c
00000130: edd3 aabc f333 85bd e7a4 8f3d f50d 1d3c
00000140: a8e1 03bd afc8 d4bc ab06 643d cc5a 8cbd
00000150: 990c 343d 0978 a6bd b7fd c73b 993b 43bd
00000160: e3ba 1a3d d652 78bd 4d05 7cbc e91a 903d
00000170: 15c4 adbd 027b c2bc e659 00bd 27df 553c
00000180: acda 8f3d 994b 863d 3c69 93bd f841 ad3d
00000190: 873c 4a3d aea0 373d fe8f 993d e947 043d
000001a0: 2a7b 8abd 6a12 45bd 07ce 41bb c9b7 c2bc
000001b0: 10b2 3fbc b214 1939 be55 f8bd 196d 8f3d
000001c0: bcd7 713d 2b4b 9abb bde9 8d3d d5f9 513c
000001d0: 33b8 f13b 3d69 5fbd 8efd 153d 2372 ae3d

weight f4 [14, 120]
-0.09773026 -0.09412011 -0.004248521 0.0030749312 0.07809973 0.078102864 -0.028638827 0.11771276
-0.060121614 0.089131 -0.037438948 -0.040419605 -0.0012375029 0.106920734 -0.086527616 -0.026197951
0.11044305 -0.11583868 -0.07353078 -0.06360745 -0.08529261 0.040149733 0.1301112 -0.026489694
0.06869477 -0.027636947 -0.04730333 0.07730243 0.10123923 0.037198804 0.01469184 0.11743392
-0.043651626 0.04012869 0.058641717 -0.10728821 0.07108442 -0.101955496 0.07562235 0.0806792
0.04921853 0.07481467 -0.09519096 -0.03785363 0.054090492 -0.058057327 0.007990527 -0.057914276
-0.0766733 0.057519678 0.12078625 0.025986513 0.12912405 -0.04655673 0.020229612 -0.1109508
0.06619636 0.07011802 0.04123367 -0.09728646 0.029062945 -0.11422615 0.00955864 0.04152537
-0.071807675 0.07789717 0.073523745 0.026384227 -0.075848505 -0.07885746 0.02841603 -0.08671576
0.044670057 -0.08940194 0.043421358 0.110652305 -0.015641732 -0.00090312475 0.019982303 -0.078842044
0.011613658 -0.03451388 0.11722693 -0.076494664 -0.07646036 0.032422412 0.06704974 0.0026486688
0.004178576 0.0678711 0.11043278 -0.09745099 -0.022627829 -0.043091413 -0.03581081 0.01856337
-0.048392367 -0.068268135 -0.06041352 -0.065131724 -0.09191389 -0.042026035 0.052804463 0.104975864
-0.09194693 -0.049463693 0.1049167 0.114491425 -0.018635085 -0.099136434 -0.07984099 0.11615096
-0.0146945445 -0.07919714 0.019933436 0.039892774 -0.037651815 -0.10576017 -0.023666553 0.10874227
-0.027191374 -0.067622595 0.090080224 0.08051213 -0.096649356 -0.038001698 0.03456904 -0.086339556
-0.10204768 -0.10331843 0.005954365 -0.09074152 0.09215353 0.07637406 -0.0421993 -0.004895259
-0.076933846 -0.0918117 0.108445555 0.099483795 0.08330986 -0.090554 0.07662758 -0.10145018
0.024358802 0.033380207 0.043033093 -0.053501382 0.029272115 0.018384833 0.07831298 0.08001961
-0.013229997 -0.022389513 0.07418198 -0.076958254 -0.075068325 -0.06689188 0.04884098 0.07106502
-0.028862042 0.016979532 0.003669631 -0.0068255137 -0.052765362 -0.07289016 -0.027957467 0.07153505
-0.029483432 -0.030000104 0.0628346 0.03269693 -0.057134118 0.035938203 0.06944843 -0.01766694
0.06887478 0.10503006 -0.019101014 -0.0120773995 -0.07534084 0.12525249 0.05484941 0.049807806
-0.07259989 -0.07447516 -0.006384508 0.039302472 0.053386208 0.038398124 -0.09304278 -0.04697304
-0.021680024 -0.08765148 -0.015032116 0.095311105 0.038853716 -0.08120152 0.078972824 0.022822142
-0.0056916946 -0.1152668 -0.02674284 0.024964843 0.044061154 0.007863313 -0.10509376 0.09380307
-0.07685874 -0.053501535 0.03824559 0.039866246 -0.014343506 0.057599634 0.056635235 0.09566075
-0.07244456 -0.017541155 -0.010807494 -0.0160734 -0.063530244 0.052331526 -0.07563701 0.07606709
0.03374281 -0.044350956 -0.0018718042 -0.10152546 0.023784254 0.057053555 -0.046750486 -0.069962144
0.06415609 -0.056604452 -0.0007391236 -0.037696846 -0.09331127 0.07448621 -0.10190413 -0.047916085
0.04683275 -0.06691239 0.031081526 -0.046996713 -0.09710319 -0.08746304 0.078975715 0.086306624
0.09038249 -0.017658887 0.059417542 0.029053522 0.067377515 -0.026222391 -0.021522453 -0.05232498
00000000: cd26 c8bd 0bc2 c0bd 2d37 8bbb c984 493b
00000010: c0f2 9f3d 65f4 9f3d f99b eabc 6313 f13d
00000020: 1542 76bd 508a b63d 9559 19bd 078f 25bd
00000030: b533 a2ba 42f9 da3d 6435 b1bd 169d d6bc
00000040: f72f e23d d43c edbd 4e97 96bd 9f44 82bd
00000050: e4ad aebd 0c74 243d df3b 053e ea00 d9bc
00000060: d8af 8c3d e166 e2bc 23c1 41bd bd50 9e3d
00000070: 8356 cf3d c65d 183d 0bb6 703c 3281 f03d
00000080: 0ccc 32bd fb5d 243d 4c32 703d ecb9 dbbd
00000090: b594 913d 0bce d0bd e4df 9a3d 233b a53d
000000a0: 5f99 493d 6f38 993d 7af3 c2bd 680c 1bbd
000000b0: fe8d 5d3d 85cd 6dbd b3ea 023c 8537 6dbd
000000c0: e406 9dbd c199 6b3d c85e f73d abe1 d43c
000000d0: 1839 043e 45b2 3ebd 92b8 a53c 2c3a e3bd
000000e0: f591 873d 099a 8f3d a3e4 283d 203e c7bd
000000f0: 6a15 ee3c 66ef e9bd d89b 1c3c 8216 2a3d
00000100: e70f 93bd 8d88 9f3d 9e93 963d bc23 d83c
00000110: 7656 9bbd 0580 a1bd bcc8 e83c 0898 b1bd
00000120: f3f7 363d 5d18 b7bd 98da 313d ad9d e23d
00000130: 1723 80bc adbf 6cba edb1 a33c f077 a1bd
00000140: 3647 3e3c 6d5e 0dbd ac14 f03d 3ca9 9cbd
00000150: 4097 9cbd 5dcd 043d 6051 893d 4a95 2d3b
00000160: 70ec 883b 0100 8b3d 952a e23d 6294 c7bd
00000170: ff5d b9bc 9f80 30bd 5bae 12bd 3512 983c
00000180: 1337 46bd 2ad0 8bbd 2b74 77bd c863 85bd
00000190: 593d bcbd 7e23 2cbd 7e49 583d 96fd d63d
000001a0: ac4e bcbd 719a 4abd 91de d63d 7b7a ea3d
000001b0: 9ba8 98bc 0b08 cbbd ac83 a3bd 8ee0 ed3d
000001c0: 63c1 70bc 1c32 a2bd 724b a33c 9b66 233d
000001d0: ca38 1abd ca98 d8bd 5ce0 c1bc 44b4 de3d
000001e0: 72c0 debc b77d 8abd fb7b b83d 8be3 a43d
000001f0: 19f0 c5bd aba7 1bbd 4498 0d3d cbd2 b0bd
00000200: 60fe d0bd 9d98 d3bd d51c c33b b1d6 b9bd
00000210: fdba bc3d 016a 9c3d 2cd9 2cbd 6968 a0bb
00000220: 7e8f 9dbd c607 bcbd b418 de3d 29be cb3d
00000230: 5c9e aa3d 6074 b9bd ecee 9c3d 1dc5 cfbd
00000240: 1c8c c73c afb9 083d 7843 303d 4424 5bbd
00000250: 13cc ef3c ca9b 963c 8e62 a03d 52e1 a33d
00000260: a1c2 58bc 366a b7bc b9ec 973d 4a9c 9dbd
00000270: 6cbd 99bd 9cfe 88bd 7b0d 483d 8a8a 913d
00000280: 1770 ecbc a918 8b3c 317e 703b 8fa8 dfbb
00000290: 7e20 58bd 7047 95bd 0f07 e5bc f880 923d
000002a0: 3d87 f1bc c7c2 f5bc 6daf 803d 37ed 053d
000002b0: 7705 6abd f033 133d fa3a 8e3d 42ba 90bc
000002c0: 380e 8d3d 001a d73d bb79 9cbc 49e0 45bc
000002d0: 4c4c 9abd 3042 003e c6a9 603d 4503 4c3d
000002e0: 40af 94bd 6f86 98bd 2335 d1bb a1fb 203d
000002f0: 7fab 5a3d 5a47 1d3d 378d bebd cd66 40bd
00000300: 4e9a b1bc 9f82 b3bd 4449 76bc 7832 c33d
00000310: 1325 1f3d fc4c a6bd 81bc a13d 80f5 ba3c
00000320: 6581 babb 0011 ecbd cd13 dbbc 1283 cc3c
00000330: 7879 343d 20d5 003c 663b d7bd d31b c03d
00000340: 1d68 9dbd 6d24 5bbd 68a7 1c3d ca4a 233d
00000350: 0601 6bbc 98ed 6b3d 59fa 673d c9e9 c33d
00000360: d05d 94bd 78b2 8fbc ea11 31bc 5dac 83bc
00000370: 251c 82bd 9559 563d 94e7 9abd 10c9 9b3d
00000380: e735 0a3d 59a9 35bd 5457 f5ba 95ec cfbd
00000390: 32d7 c23c fdb0 693d 707d 3fbd 5048 8fbd
000003a0: 4564 833d 12da 67bd bfc1 41ba 0268 1abd
000003b0: fb19 bfbd 3a8c 983d 1db3 d0bd a843 44bd
000003c0: b3d3 3f3d 5d09 89bd af9e fe3c a07f 40bd
000003d0: 0ade c6bd d31f b3bd 05be a13d 87c1 b03d
000003e0: 741a b93d 5fa9 90bc cf5f 733d a701 ee3c
000003f0: 39fd 893d 57d0 d6bc db4f b0bc b852 56bd

bias f4 [14]
0.084076956 0.08823897 -0.04566644 0.00015822714 -0.058719598 0.019710079 0.072623774 -0.0110892225
-0.038806193 0.001668076 -0.054163232 -0.046440203 -0.07289927 -0.020119777
00000000: 8a30 ac3d a2b6 b43d bc0c 3bbd c6e9 2539
00000010: f683 70bd 0877 a13c c6bb 943d 92af 35bc
00000020: 3ef3 1ebd 58a3 da3a 44da 5dbd 1538 3ebd
00000030: 364c 95bd 3bd2 a4bc
