python/mod/re/modqig_bufu_seg3st0ss1.pth (torch, 133711 bytes, 8 tensors)

weight f4 [120, 14]
0.32527834 0.08882145 0.10081711 -0.22582537 0.14155152 0.21410221 1.1904159 -0.4941253
0.39635578 0.41151574 0.43267643 0.008198057 -0.29902944 0.37749204 0.19724645 -0.025217416
-0.39781857 0.084380984 0.17214717 -0.20251794 0.3031806 1.1632129 -0.027724609 -0.13516733
-0.4545954 -0.3480267 0.18851581 0.25845784 0.0061373413 -0.18357545 -0.24797048 -0.18341959
-0.20874082 -0.25058866 -0.2366781 0.21523494 0.19409555 -0.24040863 0.12917933 -0.17977566
0.023978919 -0.13621995 0.40181345 -0.14415447 -0.040367268 0.18959881 -0.2789837 -0.17173353
0.28439033 -0.38469225 0.25129336 0.007168363 0.05839729 -0.2790181 -0.09095052 0.79767394
-0.18967533 -0.02941778 0.5979273 0.053799976 -0.17766681 -0.17273745 -0.07783223 0.28560227
-0.64013845 -0.5406638 -0.46396583 -0.21395221 0.9339127 -0.5327248 -0.21290407 -0.14051025
-0.16473183 0.08188459 -0.16393635 0.14113218 -0.24425693 0.19864517 -0.19581327 0.17804924
0.016222924 -0.16414443 -0.17451853 0.16853213 0.4021225 0.062968455 -0.28854427 -0.052327283
-0.38583702 -0.406675 0.40063828 0.5420398 0.108301 0.36426365 0.042516023 -0.63329136
-0.4989539 -0.8140358 -0.145861 0.0518228 0.2136647 -0.28226343 -0.08676632 0.3012972
-0.023474766 0.5620917 0.32120648 -0.38524854 0.503812 -0.17298593 -0.19297521 0.3258427
-0.074005865 -0.1395329 -0.14290522 0.41943708 0.23528108 -0.6004736 0.16745307 -0.04948205
-0.13666105 0.29685965 -0.41003945 -0.3100271 0.25088963 0.5964708 -0.13947885 -0.06513745
0.21751624 0.14345537 -0.04755228 -0.20558915 -0.20863919 0.073756516 -0.07173224 0.028134795
0.19764675 -0.28100476 0.2065643 -0.10642366 -0.040063266 -0.2997671 0.29212618 -0.15485048
-1.3403628 0.12039988 0.059856493 0.33470663 0.31732246 0.24148047 0.2902699 0.6464736
-0.5322292 -0.37688962 0.22240058 0.5110889 0.50291216 0.29203218 0.40725026 0.24352057
0.008494653 1.4229696 -0.11450159 -1.6574258 -0.29320467 0.33612597 0.18805331 1.100405
-0.37856805 -0.3020253 -0.17904331 0.10419305 -0.4543146 0.14579405 -0.30341026 -0.842716
-0.16611569 0.77225244 -0.34873635 -0.08899996 0.23325224 -0.73888206 -0.21164231 -0.3724713
-0.2935816 0.04230597 0.08078194 0.31728795 0.5932015 -0.055028778 0.43161404 -1.1337664
0.24223964 0.59256464 0.009019456 1.3677856 -0.00018887734 -0.008006195 0.12573275 0.30780256
-0.26799282 0.4607047 -0.41248465 0.52367866 -0.44269848 0.24892299 -0.20705429 -0.013435568
0.003557673 -0.2730175 -0.11764859 -0.07012759 0.16744459 -0.106260195 0.096837975 0.3088369
0.13559209 -0.51624644 -0.5261673 -0.3256087 -0.05103566 0.28449777 -0.48706958 -0.70987946
-0.10510637 -0.008753777 -0.14420643 -0.107374206 0.13636237 -0.19878775 -0.041851133 -0.10948923
-0.09768289 0.111124694 -0.16925862 0.201161 -0.19869334 -0.16123615 -0.41382256 -0.016402317
-0.53967696 0.40484217 -0.18020828 -0.07267318 -0.34922603 0.18348251 -0.3412485 -0.6257411
0.092354536 -0.07303119 0.3117644 0.91863656 -0.14056398 -0.32865334 0.2911034 0.08647998
00000000: e28a a63e 05e8 b53d 3379 ce3d c43e 67be
00000010: e2f2 103e 9c3d 5b3e 8c5f 983f fefd fcbe
00000020: 25ef ca3e 31b2 d23e c487 dd3e 2551 063c
00000030: 631a 99be a346 c13e f9fa 493e c194 cebc
00000040: e0ae cbbe f0cf ac3d 5947 303e dd60 4fbe
00000050: 7d3a 9b3e 29e4 943f b81e e3bc 4e69 0abe
00000060: bac0 e8be 8e30 b2be 4a0a 413e 9654 843e
00000070: c01b c93b 34fb 3bbe f9eb 7dbe 58d2 3bbe
00000080: 27c0 55be 284d 80be be5b 72be 8c66 5c3e
00000090: fcc0 463e ae2d 76be 9647 043e 1c17 38be
000000a0: 706f c43c 3e7d 0bbe 7eba cd3e 3b9d 13be
000000b0: 2658 25bd 3126 423e f4d6 8ebe eada 2fbe
000000c0: 9c9b 913e 62f6 c4be 86a9 803e 96e4 ea3b
000000d0: ff31 6f3d 76db 8ebe 4444 babd 5c34 4c3f
000000e0: 403a 42be 8efd f0bc c311 193f 5d5d 5c3d
000000f0: 4aee 35be 16e2 30be 8166 9fbd 763a 923e
00000100: 1de0 23bf f168 0abf ee8c edbe 4a16 5bbe
00000110: e714 6f3f a760 08bf 8603 5abe ebe1 0fbe
00000120: 76af 28be 1cb3 a73d eede 27be f484 103e
00000130: 7d1e 7abe a469 4b3e 4683 48be 8a52 363e
00000140: f0e5 843c 7a15 28be fcb4 32be b093 2c3e
00000150: 00e3 cd3e 9bf5 803d 13bc 93be 2255 56bd
00000160: 6e8c c5be b537 d0be 7620 cd3e 1fc3 0a3f
00000170: eacc dd3d c480 ba3e 4825 2e3d 621f 22bf
00000180: e376 ffbe a664 50bf 965c 15be 2544 543d
00000190: ebca 5a3e d584 90be 8ab2 b1bd a043 9a3e
000001a0: 274e c0bc 3ee5 0f3f 2d75 a43e 4c3f c5be
000001b0: d3f9 003f 3923 31be 4b9b 45be dbd4 a63e
000001c0: 6390 97bd b6e1 0ebe bf55 12be 75c0 d63e
000001d0: 86ed 703e a3b8 19bf d178 2b3e b1ad 4abd
000001e0: e0f0 0bbe fdfd 973e b1f0 d1be dfbb 9ebe
000001f0: 9b74 803e 4fb2 183f 8bd3 0ebe c966 85bd
00000200: 94bc 5e3e f7e5 123e 2ec6 42bd f685 52be
00000210: 83a5 55be a80d 973d 5ae8 92bd f17a e63c
00000220: e963 4a3e dbdf 8fbe 9885 533e a6f4 d9bd
00000230: 6119 24bd 137b 99be 9091 953e 2091 1ebe
00000240: 0291 abbf 3694 f63d 152c 753d ab5e ab3e
00000250: 1778 a23e a846 773e 429e 943e 4b7f 253f
00000260: 2c40 08bf adf7 c0be fabc 633e b9d6 023f
00000270: dabe 003f 3e85 953e 1b83 d03e 755d 793e
00000280: 282d 0b3c de23 b63f cf7f eabd 8726 d4bf
00000290: ec1e 96be b418 ac3e 0c91 403e 12da 8c3f
000002a0: acd3 c1be 0fa3 9abe 2157 37be 2a63 d53d
000002b0: ec9b e8be 094b 153e 9758 9bbe 3cbc 57bf
000002c0: 3b1a 2abe 56b2 453f 928d b2be 9c45 b6bd
000002d0: add9 6e3e 6027 3dbf c3b8 58be 8fb4 bebe
000002e0: 5450 96be 0649 2d3d 0071 a53d 9173 a23e
000002f0: 0edc 173f db65 61bd 84fc dc3e 421f 91bf
00000300: ab0d 783e 51b2 173f 57c6 133c 9913 af3f
00000310: 600d 46b9 6a2c 03bc 16c0 003e 4c98 9d3e
00000320: 5b36 89be 7de1 eb3e 3031 d3be ce0f 063f
00000330: 60a9 e2be abe5 7e3e 0a06 54be db20 5cbc
00000340: d927 693b f3c8 8bbe bef1 f0bd 0e9f 8fbd
00000350: 9876 2b3e f29e d9bd fd52 c63d df1f 9e3e
00000360: a7d8 0a3e ba28 04bf e6b2 06bf 2fb6 a6be
00000370: c50a 51bd b1a9 913e 2f61 f9be a9ba 35bf
00000380: 0242 d7bd 006c 0fbc daaa 13be 02e7 dbbd
00000390: 94a2 0b3e 048f 4bbe 186c 2bbd e43b e0bd
000003a0: f80d c8bd 5895 e33d 2252 2dbe 26fd 4d3e
000003b0: 4476 4bbe 171b 25be 8de0 d3be 275e 86bc
000003c0: 4528 0abf 7947 cf3e 8588 38be add5 94bd
000003d0: c1cd b2be d7e2 3b3e 20b8 aebe 9230 20bf
000003e0: 6024 bd3d 6091 95bd 959f 9f3e c42b 6b3f
000003f0: 01f0 0fbe 4045 a8be 810b 953e 6a1c b13d

bias f4 [120]
0.21021928 0.28392205 -0.18200031 0.16280533 0.026592359 -0.2358246 0.21183807 0.23993641
-0.0034371577 -0.22834782 0.20052052 -0.017191615 0.1592909 0.0006063292 0.04672647 0.004068162
-0.21520509 -0.11682608 -0.2550748 -0.1245718 -0.116990395 0.119931154 0.06870589 0.12526841
0.07858178 -0.014279973 -0.16509195 0.12131979 0.06647488 0.0652396 0.021447957 0.069238245
0.13943127 0.1375206 -0.23039821 0.14812337 0.032625403 0.30897254 -0.26286066 0.12814264
0.041230455 0.015933888 0.04351983 -0.23059969 -0.033200487 0.1411219 0.23298192 0.063814305
0.26346898 -0.008634641 0.09305397 -0.24416012 0.13654529 0.025782287 0.10362399 0.09698073
0.15767376 0.06401477 -0.26683342 -0.03277842 0.1424908 0.21564835 0.22013266 0.27922055
0.10693911 0.018530222 0.17746785 0.07656117 0.25818947 0.2403756 0.103486925 0.0060842815
0.14759561 0.16357604 0.24851416 0.2532757 -0.011576208 0.067299016 -0.19984794 -0.0829911
0.23854357 -0.25354674 0.018298125 0.21428959 -0.08573753 0.25911278 0.22592537 -0.19097811
0.19794962 0.03371068 0.1239502 0.18323538 -0.22890326 0.06229143 0.23670767 0.2370249
0.26123598 0.1316095 -0.16470833 -0.0064774924 0.22321516 0.07492552 0.27059257 0.16188557
0.18438093 0.07550212 -0.12917697 -0.110217184 0.13421361 -0.19997686 0.27874255 0.17363483
-0.12063925 0.1103242 -0.21525398 0.15035665 -0.10735399 -0.12495527 -0.2139289 -0.018361516
00000000: b943 573e 3b5e 913e 4a5e 3abe 71b6 263e
00000010: 38d8 d93c 017c 71be 14ec 583e e4b1 753e
00000020: f041 61bb 03d4 69be 4055 4d3e 6ed5 8cbc
00000030: 271d 233e 10f2 1e3a 4164 3f3d 374e 853b
00000040: b95e 5cbe 8342 efbd 2a99 82be 801f ffbd
00000050: a998 efbd 779e f53d acb5 8c3d 5d46 003e
00000060: 7cef a03d 8cf6 69bc dd0d 29be 8376 f83d
00000070: fb23 883d 579c 853d a0b3 af3c c8cc 8d3d
00000080: 12c7 0e3e 33d2 0c3e 82ed 6bbe a7ad 173e
00000090: 37a2 053d a631 9e3e ac95 86be d337 033e
000000a0: 44e1 283d c987 823c d941 323d 5322 6cbe
000000b0: 3cfd 07bd 4282 103e d092 6e3e 13b1 823d
000000c0: 68e5 863e 4f78 0dbc 1493 be3d 1c05 7abe
000000d0: 87d2 0b3e 6035 d33c d138 d43d d59d c63d
000000e0: 3b75 213e 2d1a 833d 649e 88be aa42 06bd
000000f0: 1ce9 113e ecd2 5c3e 756a 613e fff5 8e3e
00000100: e402 db3d b1cc 973c 22ba 353e 1acc 9c3d
00000110: 6931 843e 0525 763e f4f0 d33d a75e c73b
00000120: 4e23 173e 7a80 273e 7f7a 7e3e 5aad 813e
00000130: 23aa 3dbc 11d4 893d f0a4 4cbe 3df7 a9bd
00000140: c444 743e e1d0 81be f3e5 953c bb6e 5b3e
00000150: 2897 afbd 6eaa 843e fb58 673e c48f 43be
00000160: 4eb3 4a3e 3614 0a3d 9ad9 fd3d 0ea2 3b3e
00000170: 9e65 6abe 4c25 7f3d 7f63 723e a8b6 723e
00000180: b9c0 853e a4c4 063e 4da9 28be 2541 d4bb
00000190: 8492 643e 8d72 993d 1c8b 8a3e 55c5 253e
000001a0: 5bce 3c3e dba0 9a3d f846 04be 8cb9 e1bd
000001b0: 4b6f 093e bcc6 4cbe 58b7 8e3e 54cd 313e
000001c0: b611 f7bd a7f1 e13d 8a6b 5cbe 18f7 193e
000001d0: 69dc dbbd 8ce8 ffbd 2d10 5bbe e46a 96bc

weight f4 [120, 120]
-0.07625839 0.07565239 -0.05198347 0.07683423 -0.06875275 0.039763957 0.037452772 -0.07297346
0.0058498383 0.065325364 -0.07335115 -0.02395542 0.07719165 -0.042230092 0.06184469 -0.013107128
-0.046429116 -0.06683467 0.03459516 0.05100274 0.004711151 -0.014825724 -0.021334395 -0.035360422
0.034183964 -0.018392362 0.0067522526 -0.04253191 0.0819754 0.05864966 0.020392738 -0.036616758
0.02270826 -0.028500617 -0.022461131 0.034871235 -0.012728214 -0.068019494 0.023983218 0.08528051
0.036625817 -0.042148292 0.06374234 -0.056716852 -0.054096393 0.048555434 0.08458629 0.090421796
0.053441435 -0.044778448 0.04310602 0.0784252 0.031033248 0.026423618 0.022347108 0.062050566
0.047329724 -0.009576596 -0.08990343 -0.07225992 0.045093417 0.054805964 0.015394524 -0.052292295
-0.013213433 0.086966544 0.023264602 0.057671875 -0.019544318 -0.04512172 0.01987394 -0.031357173
-0.08310136 -0.0031880587 -0.021343805 -0.008849286 0.05058752 -0.0030868202 -0.034251127 -0.085521534
-0.012060665 -0.011761494 -0.08419275 0.023715042 0.07049963 -0.07524078 -0.04808447 -0.030346308
-0.07887323 0.049696684 -0.058234863 -0.0054069534 0.00858058 -0.05703934 0.035408407 0.0234413
-0.05183695 -0.06952418 -0.018795744 0.008307807 -0.01583752 0.058734402 0.035878748 -0.049934685
-0.048419222 -0.007616043 0.0026513487 -0.07802081 -0.05887968 -0.001879029 0.07169162 0.05398354
-0.017098747 -0.05249718 0.079113126 -0.056608837 -0.072456405 -0.055243764 -0.0902394 -0.026966937
-0.115593724 0.016002655 0.053076744 0.06965793 0.02262425 0.018394582 -0.25540867 -0.0010671016
-0.24338032 -0.07468315 0.06290969 0.1254978 -0.015683183 0.13971809 0.07832233 -0.36710137
-0.06636403 -0.3385244 0.46995482 0.0011006221 -0.09800628 -0.24789792 -0.38643655 0.026071813
0.17494993 0.0013400257 0.046496138 -0.06523124 -0.19315888 -0.03334676 -0.3088546 0.035785563
0.07745506 0.10308014 -0.024947003 0.025501609 -0.15241016 -0.052221667 0.002042003 0.1951206
0.1099978 0.046935104 0.017825617 -0.053932037 0.3935711 0.010079756 7.5291726e-05 0.0022840127
0.008455704 -0.045219783 -0.15853144 -0.009779133 0.093256675 -0.08287015 0.26436403 -0.11522305
0.12599872 -0.12716345 0.091058195 0.2242261 0.06869939 0.05481265 0.08979571 0.10557683
0.2388405 0.11542677 -0.08543846 0.018532915 0.092076354 0.16629496 0.141748 0.014506525
-0.06365015 0.033339236 0.11972895 0.00230884 0.34020662 0.022379786 0.041860208 -0.10395987
-0.0698072 -0.03027146 0.16929142 0.05976488 0.041383013 -0.03671593 0.05458749 -0.049397636
-0.03168881 0.22605523 -0.12391969 0.046498284 -0.08174956 0.23123555 -0.062373627 0.06856371
-0.09080136 0.12997155 0.0806302 -0.22734417 -0.05324832 0.24529558 -0.028410435 -0.055062857
0.07184124 0.056787938 -0.5634618 0.036111604 0.059446175 0.0716351 -0.07613797 -0.061813798
0.029616572 -0.044534255 0.04892011 0.04408542 -0.0791996 -0.25528902 0.07314359 0.15850665
-2.470359 -0.12887736 0.04094407 0.38716704 -0.018297302 0.017725542 -0.09503596 -0.004586517
0.017188616 0.038408052 -0.029759228 -0.4339389 0.030136943 -0.13524081 -0.35152125 -0.7078753
00000000: 5c2d 9cbd a4ef 9a3d 9eec 54bd 445b 9d3d
00000010: 3ece 8cbd 88df 223d 1468 193d 1c73 95bd
00000020: 00b0 bf3b 4ec9 853d 2139 96bd 283e c4bc
00000030: a816 9e3d 76f9 2cbd dc50 7d3d 48bf 56bc
00000040: 752c 3ebd 9ee0 88bd a8b3 0d3d 40e8 503d
00000050: 0060 9a3b 98e7 72bc 78c5 aebc 17d6 10bd
00000060: 7c04 0c3d 94ab 96bc 0042 dd3b f135 2ebd
00000070: b8e2 a73d a03a 703d ac0e a73c 74fb 15bd
00000080: ac06 ba3c 207a e9bc 6800 b8bc 24d5 0e3d
00000090: 008a 50bc ce4d 8bbd 7478 c43c 8ca7 ae3d
000000a0: f404 163d b0a3 2cbd 588b 823d ee4f 68bd
000000b0: 2e94 5dbd 10e2 463d 943b ad3d 102f b93d
000000c0: 68e5 5a3d 9b69 37bd f08f 303d 649d a03d
000000d0: 7039 fe3c 5876 d83c 4811 b73c bc28 7e3d
000000e0: d0dc 413d 28e7 1cbc 4a1f b8bd 02fd 93bd
000000f0: e0b3 383d 387c 603d 5039 7c3c 7230 56bd
00000100: 287d 58bc 841b b23d 6895 be3c 5839 6c3d
00000110: 681b a0bc 8dd1 38bd acce a23c 6170 00bd
00000120: 0c31 aabd c0ee 50bb 34d9 aebc 98fc 10bc
00000130: dc34 4f3d 404c 4abb e94a 0cbd ea25 afbd
00000140: 189a 45bc 48b3 40bc 406d acbd 0c46 c23c
00000150: 1c62 903d d717 9abd 39f4 44bd d298 f8bc
00000160: 4a88 a1bd c08e 4b3d ae87 6ebd d02c b1bb
00000170: 9095 0c3c 15a2 69bd 6808 113d f807 c03c
00000180: fb52 54bd b162 8ebd 88f9 99bc 781d 083c
00000190: b0bd 81bc 7c93 703d 98f5 123d 5088 4cbd
000001a0: 3c53 46bd 0090 f9bb 40c2 2d3b 60c9 9fbd
000001b0: d22b 71bd c049 f6ba 0ed3 923d d81d 5d3d
000001c0: ac12 8cbc 4807 57bd 1006 a23d abde 67bd
000001d0: 0664 94bd 4947 62bd 6fcf b8bd c4e9 dcbc
000001e0: 67bc ecbd 0018 833c 0067 593d d1a8 8e3d
000001f0: 7e56 b93c 3cb0 963c edc4 82be fddd 8bba
00000200: b138 79be 7bf3 98bd ccd6 803d 7f82 003e
00000210: 057a 80bc 4212 0f3e 7567 a03d b6f4 bbbe
00000220: dde9 87bd 1253 adbe eb9d f03e c042 903a
00000230: 84b7 c8bd f4d8 7dbe 03db c5be 8e94 d53c
00000240: 1326 333e cda3 af3a bc72 3e3d f597 85bd
00000250: 71cb 45be 9d96 08bd 3122 9ebe e293 123d
00000260: c2a0 9e3d ae1b d33d a85d ccbc c0e8 d03c
00000270: 6911 1cbe 63e6 55bd 20d3 053b b2cd 473e
00000280: 8746 e13d 063f 403d 0707 923c d7e7 5cbd
00000290: 2782 c93e 9025 253c f0e5 9d38 60af 153b
000002a0: cb89 0a3c 6138 39bd 1156 22be a838 20bc
000002b0: 5bfd be3d d3b7 a9bd b95a 873e 10fa ebbd
000002c0: cf05 013e 2337 02be b87c ba3d 879b 653e
000002d0: 44b2 8c3d 3b83 603d d0e6 b73d aa38 d83d
000002e0: 9b92 743e df64 ec3d 5cfa aebd 57d2 973c
000002f0: 8792 bc3d 3a49 2a3e 6326 113e c7ac 6d3c
00000300: 035b 82bd b98e 083d 7434 f53d e84f 173b
00000310: 902f ae3e d055 b73c 9c75 2b3d eae8 d4bd
00000320: 14f7 8ebd dafb f7bc bb5a 2d3e 05cc 743d
00000330: 3c81 293d 7163 16bd 2297 5f3d 2d55 4abd
00000340: 20cc 01bd 067b 673e 9bc9 fdbd fc74 3e3d
00000350: 506c a7bd 03c9 6c3e 7d7b 7fbd 216b 8c3d
00000360: 10f6 b9bd 4317 053e 7221 a53d e9cc 68be
00000370: e91a 5abd c42e 7b3e 00bd e8bc 9789 61bd
00000380: 8021 933d 789a 683d 083f 10bf c3e9 133d
00000390: d57d 733d 6cb5 923d 39ee 9bbd 7730 7dbd
000003a0: 749e f23c 8d69 36bd 7460 483d ea92 343d
000003b0: 6633 a2bd 3eb5 82be 4ecc 953d 914f 223e
000003c0: 5d1a 1ec0 6df8 03be f8b4 273d c23a c63e
000003d0: 39e4 95bc 2835 913c 37a2 c2bd 7e4a 96bb
000003e0: 24cf 8c3c c351 1d3d a0c9 f3bc 3d2d debe
000003f0: c0e1 f63c 917c 0abe 98fa b3be 5137 35bf

bias f4 [120]
-0.06359842 0.11662474 -0.045447048 0.095567785 -0.02850368 0.039396226 0.027110271 0.09563034
-0.025566127 -0.0492747 -0.030845683 -0.012481639 -0.076099426 -0.004041033 -0.012917666 -0.08410391
-0.01684618 -0.087037325 0.100966856 0.08353735 -0.051976785 -0.048547707 -0.0711811 0.09821582
-0.040861398 -0.018534401 0.10050864 -0.017648436 -0.11083499 0.09343294 -0.045695458 -0.018117024
0.07218819 0.011391752 0.0018054263 -0.01728616 -0.04249296 0.055203393 -0.028732032 -0.075928114
0.0084253 -0.017347261 0.07876246 0.09814763 0.08047763 -0.07876521 0.05541508 -0.054979198
0.048152544 -0.03380936 -0.07281468 0.06548615 0.0075553684 -0.0011643964 -0.08803983 0.019330874
0.012856373 0.04079252 -0.07041381 0.046547204 0.071453914 0.030690791 -0.07845403 0.053764652
-0.008909806 -0.056322575 -0.062229875 -0.09126931 0.023119982 0.09735133 0.11904332 0.0029189943
0.0021887156 0.056294873 -0.0009942772 -0.049026843 0.041565362 0.0735806 -0.07884182 -0.0014473211
-0.080433905 0.08011048 0.020147882 0.0884981 -0.034947857 0.027921105 0.050896198 -0.025489036
0.0021961394 -0.015526335 0.039558046 -0.03867532 -0.017338822 -0.07383113 -0.067865476 0.0058613922
-0.045330074 -0.04672932 -0.011025607 0.23415917 0.018924445 0.011862756 -0.08429639 -0.086956196
-0.010737539 0.085382536 -0.10188388 0.0364216 0.035602186 0.11374799 -0.052815046 0.11748575
-0.08618949 -0.013819051 0.05177341 0.024081985 0.049208384 -0.039064474 0.07858622 -0.030596673
00000000: e33f 82bd f4d8 ee3d af26 3abd 0bb9 c33d
00000010: 8d80 e9bc f05d 213d 5c16 de3c d7d9 c33d
00000020: 0e70 d1bc 45d4 49bd 16b0 fcbc ca7f 4cbc
00000030: 04da 9bbd a46a 84bb 9ea4 53bc ac3e acbd
00000040: 0001 8abc a040 b2bd b6c7 ce3d a115 ab3d
00000050: 9ce5 54bd f6d9 46bd 66c7 91bd 6025 c93d
00000060: 485e 27bd 75d5 97bc 79d7 cd3d 7493 90bc
00000070: 75fd e2bd c559 bf3d 292b 3bbd 276a 94bc
00000080: 67d7 933d 79a4 3a3c 0ea4 ec3a b49b 8dbc
00000090: 190d 2ebd f41c 623d 705f ebbc 3380 9bbd
000000a0: 450a 0a3c d81b 8ebc 364e a13d a001 c93d
000000b0: 75d1 a43d a84f a1bd ecfa 623d de31 61bd
000000c0: 9a3b 453d af7b 0abd dd1f 95bd 9a1d 863d
000000d0: 0693 f73b a99e 98ba 3a4e b4bd c85b 9e3c
000000e0: 89a3 523c 0f16 273d 1e35 90bd 48a8 3e3d
000000f0: 6e56 923d 416b fb3c 82ac a0bd 5338 5c3d
00000100: 6ffa 11bc 80b2 66bd c1e4 7ebd 67eb babd
00000110: 1e66 bd3c 2260 c73d fccc f33d 994c 3f3b
00000120: 8e70 0f3b 7495 663d 6852 82ba 5fd0 48bd
00000130: 7140 2a3d 6db1 963d d277 a1bd 0ab4 bdba
00000140: 88ba a4bd f710 a43d 2c0d a53c 7e3e b53d
00000150: 7c25 0fbd cdba e43c 8878 503d 62ce d0bc
00000160: 1bed 0f3b 2b62 7ebc 9e07 223d 036a 1ebd
00000170: 250a 8ebc c734 97bd 0efd 8abd ec10 c03b
00000180: 07ac 39bd 3e67 3fbd bfa4 34bc 6cc7 6f3e
00000190: 7007 9b3c 015c 423c 96a3 acbd 1716 b2bd
000001a0: 81ec 2fbc 0add ae3d 7fa8 d0bd d12e 153d
000001b0: 99d3 113d b5f4 e83d 9754 58bd 5e9c f03d
000001c0: 1e84 b0bd 4d69 62bc 5b10 543d 9547 c53c
000001d0: bb8e 493d 1202 20bd d0f1 a03d e0a5 fabc

weight f4 [120, 120]
-0.024914056 -0.10073037 -1.0651597 0.4306076 -0.06301655 0.03206709 0.045423523 -0.01935654
-0.031008642 -0.057001278 0.110198624 -0.040246278 -0.07967388 0.017123409 -0.12133011 -0.061272252
-0.117644966 -0.0071728006 0.19871303 -0.061577898 0.0024663422 -0.019133244 0.0035003524 -0.16681884
-0.05439909 -0.33867007 -0.23416364 -0.011563518 0.20260955 0.042334057 0.14274384 0.09875349
-0.0940705 -0.06776981 0.08397598 -0.11838246 -0.074235536 -0.042033624 -0.45846918 0.042477567
0.008355283 -0.02434492 -0.13707069 0.08085633 0.021543182 0.064597785 0.29588243 0.15955417
-0.09704608 0.011347964 -0.06555891 0.08518674 0.07754589 0.123540424 -0.033406302 0.14638877
-0.206488 0.018552661 0.0695101 0.14480278 -0.021014558 -0.02358258 0.07293202 -0.060226373
-0.20720336 0.17588714 0.017384425 0.020875089 -0.004754311 -0.0210098 0.014082165 -0.00813474
0.042492792 0.012937355 0.06535554 0.029336385 -0.006025365 -0.10594627 -0.084447734 0.02273339
0.052289587 -0.027239764 0.107676305 0.061804906 -0.1127383 0.14649792 -0.17990075 -0.0692642
0.16702798 0.0006554837 0.035915114 -0.10043323 -0.13768364 0.08614641 0.05947434 -0.158166
0.37701225 -0.022462064 -0.21358491 -0.0920916 0.08383011 0.06422456 -0.028392233 0.08811889
-0.025392812 0.056571253 0.02169052 0.11802053 0.034599904 -0.14352772 -0.07923934 -0.016793555
-0.040327396 0.019591749 -0.05929553 0.108844966 0.053493198 -0.08169601 -0.00022861024 -0.15858369
0.033718184 -0.5465331 -0.53247815 0.8309951 -0.05878201 0.007757254 -0.11987832 0.25489098
-0.046003357 -0.29756403 -0.020170972 -0.102160156 -0.075488314 0.7208521 0.18118359 -0.050668787
0.0025225605 -0.023556307 -0.03913633 -0.067013144 0.032928545 -0.03175228 -0.044996943 -0.06931421
-0.023107238 0.08747254 -0.09530975 -0.0027946318 0.07667034 0.13503817 0.12895186 0.043926027
-0.1489259 -0.41861367 0.34035772 -0.093444526 -0.49199116 0.033536073 0.1911179 -0.03442183
0.02091867 0.08611974 -0.25704864 -0.0543384 -0.019277008 -0.0397823 0.8146583 0.08807322
-0.10950602 0.052532658 0.07100034 0.35369903 -0.027878681 0.13598046 -0.045473598 0.5065448
0.15218787 -0.039936986 -0.045579232 -0.027021928 -0.033767767 0.06375462 -0.048476603 -0.27089015
-0.25223532 0.0988524 0.0790001 0.077302195 0.27768797 -0.06053768 -0.262164 -0.014792201
-0.054043893 0.3906817 0.06709212 -0.056497857 -0.046476904 -0.15349905 -0.013839573 0.047781006
-0.021718256 0.116204225 0.20331848 0.071673505 -0.2803755 0.034002528 -0.37657833 0.0032735504
0.21276647 -0.02602887 0.060561903 0.030188031 -0.16290964 -0.08725829 -0.06804947 -0.21788846
-0.06970038 -0.35134652 -0.3052264 -0.23879637 0.33429137 -0.110555224 -0.00043182075 0.0034818053
-0.0986797 0.13986874 -0.37034532 0.33447096 -0.04298694 -0.17613153 -0.15761504 -0.04740577
-0.008889444 0.083024584 -0.066670075 -0.108987704 0.07654628 -0.06934902 -0.03299959 -0.20061824
-0.029499818 -0.025273807 0.33724383 -0.30796483 0.06815428 -0.080514394 0.08512419 0.12886573
0.036209274 -0.26356912 0.19491337 -0.032218184 -0.044551358 0.07539904 -0.049467098 0.05826253
00000000: 9018 ccbc b94b cebd 2757 88bf 9978 dc3e
00000010: d20e 81bd c858 033d 040e 3a3d 9b91 9ebc
00000020: d605 febc 2c7a 69bd d1af e13d 48d9 24bd
00000030: 0f2c a3bd 6446 8c3c ec7b f8bd 9df8 7abd
00000040: d8ef f0bd d009 ebbb 6e7b 4b3e 1b39 7cbd
00000050: 5ba2 213b 52bd 9cbc 2b66 653b 8fd2 2abe
00000060: 95d1 5ebd 2a66 adbe 98c8 6fbe e974 3dbc
00000070: e178 4f3e 7a66 2d3d 712b 123e 453f ca3d
00000080: 09a8 c0bd e6ca 8abd 99fb ab3d 8172 f2bd
00000090: cd08 98bd 732b 2cbd 79bc eabe f5fc 2d3d
000000a0: 99e4 083c ff6e c7bc 425c 0cbe 0198 a53d
000000b0: 547b b03c d84b 843d e77d 973e 2b62 233e
000000c0: 18c0 c6bd d0ec 393c c043 86bd 6376 ae3d
000000d0: 61d0 9e3d c302 fd3d 0cd5 08bd f0e6 153e
000000e0: 9771 53be c0fb 973c 505b 8e3d 2e47 143e
000000f0: b926 acbc 4130 c1bc 625d 953d eeaf 76bd
00000100: 1e2d 54be c21b 343e c869 8e3c 3c02 ab3c
00000110: 0dca 9bbb be1c acbc e2b8 663c 9347 05bc
00000120: ec0c 2e3d 33f7 533c 20d9 853d dc52 f03c
00000130: 6d70 c5bb 5cfa d8bd eff2 acbd 603b ba3c
00000140: 9b2d 563d ed25 dfbc 6585 dc3d 2427 7d3d
00000150: 56e3 e6bd 8d03 163e e737 38be 64da 8dbd
00000160: 6209 2b3e c4d4 2b3a ba1b 133d f0af cdbd
00000170: f1fc 0cbe 876d b03d 5e9b 733d 45f6 21be
00000180: c007 c13e 5d02 b8bc 01b6 5abe 859a bcbd
00000190: 1faf ab3d 2b88 833d d496 e8bc ad77 b43d
000001a0: 9604 d0bc 42b7 673d 51b0 b13c bfb4 f13d
000001b0: a1b8 0d3d eef8 12be 3c48 a2bd a392 89bc
000001c0: 572e 25bd e07e a03c dfdf 72bd 1cea de3d
000001d0: af1b 5b3d 3d50 a7bd 18b7 6fb9 c363 22be
000001e0: 141c 0a3d 98e9 0bbf 7d50 08bf 18bc 543f
000001f0: 68c5 70bd 9030 fe3b c482 f5bd 1281 823e
00000200: 046e 3cbd 505a 98be 983d a5bc 5839 d1bd
00000210: 9e99 9abd c389 383f 3188 393e 138a 4fbd
00000220: 8b51 253b 28f9 c0bc 6b4d 20bd 303e 89bd
00000230: 15e0 063d ae0e 02bd b74e 38bd 9cf4 8dbd
00000240: 644b bdbc ce24 b33d c231 c3bd 2426 37bb
00000250: 5705 9d3d 7247 0a3e f50b 043e c7eb 333d
00000260: 0880 18be 8854 d6be 5e43 ae3e d85f bfbd
00000270: 44e6 fbbe 1f5d 093d 69b4 433e e8fd 0cbd
00000280: a15d ab3c 8c5f b03d e19b 83be f191 5ebd
00000290: d1ea 9dbc c4f2 22bd 728d 503f bb5f b43d
000002a0: b144 e0bd 7c2c 573d a068 913d 0a18 b53e
000002b0: d561 e4bc 763e 0b3e 8642 3abd ecac 013f
000002c0: 23d7 1b3e f794 23bd 4ab1 3abd 175d ddbc
000002d0: 1250 0abd c891 823d 678f 46bd 1db2 8abe
000002e0: fd24 81be 2173 ca3d ceca a13d 9d50 9e3d
000002f0: 1e2d 8e3e 5cf6 77bd 5c3a 86be fd5a 72bc
00000300: 215d 5dbd 6f07 c83e 9867 893d 4c6a 67bd
00000310: 915e 3ebd db2e 1dbe 60bf 62bc 04b6 433d
00000320: 7cea b1bc 7bfc ed3d b832 503e 8fc9 923d
00000330: 618d 8fbe 3c46 0b3d e0ce c0be 1089 563b
00000340: 74df 593e 7f3a d5bc c20f 783d e44c f73c
00000350: c9d1 26be 79b4 b2bd 855d 8bbd 271e 5fbe
00000360: 13bf 8ebd b1e3 b3be a246 9cbe 0987 74be
00000370: 3d28 ab3e c76a e2bd 0066 e2b9 002f 643b
00000380: 9518 cabd c039 0f3e e79d bdbe c73f ab3e
00000390: 1313 30bd d35b 34be d665 21be 8d2c 42bd
000003a0: 08a5 11bc cb08 aa3d 528a 88bd f234 dfbd
000003b0: 4cc4 9c3d dc06 8ebd 942a 07bd de6e 4dbe
000003c0: 9aa9 f1bc 040b cfbc 39ab ac3e 91ad 9dbe
000003d0: 7994 8b3d bbe4 a4bd 9755 ae3d 61f5 033e
000003e0: 2d50 143d 88f2 86be 5f97 473e 37f7 03bd
000003f0: 7c7b 36bd d06a 9a3d 039e 4abd b1a4 6e3d

bias f4 [120]
0.0542794 -0.046206143 0.031846613 0.053845387 0.043254767 -0.012113965 -0.03730283 -0.007185746
0.08050809 -0.08214985 0.0043692524 0.014617148 0.060806163 0.008409136 0.05916487 0.060686715
0.045585655 0.04394684 0.028352233 -0.029016377 0.08598096 0.06032364 0.03466445 0.014026677
-0.03095923 -0.064064905 0.09447819 0.056370214 0.0549564 0.021420777 0.029506203 0.096460186
0.021836137 -0.058416072 -0.08046039 0.060206823 0.005884737 0.033306777 -0.099767916 -0.09431886
0.01867709 -0.006612282 0.044052802 -0.045487944 0.05477366 -0.10433347 0.040659368 0.011039099
-0.010208558 -0.044363137 -0.01865303 -0.046291254 -0.054614183 0.028204354 -0.08313773 0.06444257
0.029271897 0.05471918 -0.02372278 -0.03498233 -0.020706756 0.022851145 0.054958284 0.09164268
-0.049699634 0.06856089 -0.058275178 -0.039607886 0.070281066 0.011070819 -0.029961659 0.027242957
-0.03387946 0.030272532 -0.13006464 -0.054620445 -0.04858591 -0.018292598 -0.04558605 0.06059775
-0.03292307 -0.04274098 0.06426652 0.09198719 0.05852692 -0.066347554 -0.08591862 0.05959428
-0.025323452 0.022245914 0.04689768 -0.017430592 -0.07891444 -0.060300622 -0.043734666 -0.077048376
-0.04299502 -0.03239141 0.0021984247 -0.07395562 -0.040717084 0.012893576 -0.08617412 -0.08166691
0.07471515 0.012964187 0.032264948 0.01691088 0.012883097 -0.029730828 -0.038820907 -0.07911053
0.069411255 -0.031540617 0.0005089344 0.031006303 0.007268736 -0.0688449 -0.110916324 0.008239333
00000000: 1354 5e3d a742 3dbd 9871 023d fb8c 5c3d
00000010: e92b 313d a779 46bc daca 18bd 6876 ebbb
00000020: 6de1 a43d 2e3e a8bd f22b 8f3b c37c 6f3c
00000030: e20f 793d 79c6 093c dd56 723d a292 783d
00000040: 06b8 3a3d 9a01 343d f142 e83c c1b3 edbc
00000050: c916 b03d ec15 773d 4ffc 0d3d 26d0 653c
00000060: 369e fdbc 7634 83bd c87d c13d 74e4 663d
00000070: f619 613d a07a af3c feb6 f13c eb8c c53d
00000080: b3e1 b23c b145 6fbd 6bc8 a4bd 6e9b 763d
00000090: c0d4 c03b b06c 083d 1f53 ccbd 3f2a c1bd
000000a0: b200 993c d7ab d8bb b670 343d 9151 3abd
000000b0: 585a 603d c9ac d5bd 708a 263d 56dd 343c
000000c0: cc41 27bc 1fb6 35bd 3dce 98bc e69b 3dbd
000000d0: 1fb3 5fbd d10c e73c 1d44 aabd 77fa 833d
000000e0: 9ecb ef3c 3821 603d 4756 c2bc a249 0fbd
000000f0: 37a1 a9bc 5332 bb3c f01b 613d 28af bb3d
00000100: d891 4bbd a769 8c3d f4b1 6ebd e13b 22bd
00000110: 85ef 8f3d 6162 353c 2772 f5bc 9f2c df3c
00000120: 30c5 0abd 1afe f73c aa2f 05be b0b9 5fbd
00000130: 0502 47bd 5cda 95bc 70b8 3abd 5935 783d
00000140: 57da 06bd 2a11 2fbd 2a9e 833d c863 bc3d
00000150: ecb9 6f3d 3ae1 87bd 1af6 afbd 2219 743d
00000160: 2173 cfbc 103d b63c c817 403d 9aca 8ebc
00000170: e59d a1bd c9fd 76bd 1f23 33bd 8acb 9dbd
00000180: 8c1b 30bd dbac 04bd 7213 103b 0b76 97bd
00000190: f5c6 26bd 943f 533c 0f7c b0bd fb40 a7bd
000001a0: 4204 993d be67 543c 4028 043d b088 8a3c
000001b0: a013 533c 118e f3bc ac02 1fbd b404 a2bd
000001c0: 7d27 8e3d bc30 01bd 026a 053a ee00 fe3c
000001d0: 942e ee3b 8efe 8cbd 1928 e3bd 44fe 063c

weight f4 [14, 120]
-0.07270777 -0.050927065 0.043577783 0.100327484 0.080286875 0.022338532 0.10569257 0.04878221
0.041850187 -0.045631252 -0.021362893 -0.11311179 -0.044891383 0.10094962 -0.02846443 -0.032374274
0.0015921304 -0.019787686 -0.05798683 -0.04888554 0.03426294 -0.01670559 -0.039215837 0.1092033
0.10275827 -0.049099933 -0.07661565 0.07127689 -0.034153778 -0.09616404 -0.032066833 6.489196e-05
0.009734683 -0.09024821 0.11576195 0.10569537 0.068505034 -0.08847694 -0.11071969 0.10310891
0.04675209 0.048934817 -0.087856494 0.05206947 0.053003732 -0.07334321 -0.07010126 0.07291091
-0.032618057 -0.04601174 -0.0456927 0.09815331 0.0031997792 0.070213385 0.13904399 -0.02082174
-0.10901788 -0.06660039 0.08949384 0.06606348 -0.11541639 0.05088944 -0.051385745 -0.07653059
0.020173393 0.110225715 -0.056929942 -0.113371566 -0.11265604 -0.102118246 0.103204936 -0.123241186
0.014618489 -0.08528244 0.09079188 0.026430834 -0.039820816 0.06476753 0.020177808 -0.10062826
0.06954418 -0.075647146 0.108983845 -0.08363353 0.11766422 -0.11956044 -0.031621523 -0.0942098
0.0061923703 0.01217671 -0.075362116 0.06732883 -0.001375688 0.081501 0.10397762 0.10049756
0.030672705 0.103772104 -0.096842326 -0.08898074 0.038002603 0.05294645 -0.062962204 0.021446304
0.12381084 -0.00845793 -0.013349165 -0.039834496 0.06570147 -0.0005730633 -0.08171646 -0.10937197
0.07705911 0.040792223 -0.095358655 0.041038018 0.0085375495 -0.114181556 -0.027522245 0.117979854
0.07407705 0.13305394 -0.07329293 -0.08669829 -0.10555315 0.037724238 0.08643964 -0.087425426
-0.06992499 0.071427345 -0.12769213 -0.062545486 0.07013666 0.039970208 0.0028755781 0.016056824
-0.08578066 0.03271039 0.08669614 -0.05377613 -0.044940326 -0.004949194 -0.032952204 0.0180783
0.1045701 0.08908668 -0.09447268 -0.08592795 0.050671656 0.018835414 0.04275786 -0.11458512
0.00470381 -0.012736543 0.0074162725 -0.041243047 0.006755528 -0.079114854 0.058466762 0.053730287
0.041289177 0.064100645 -0.09742757 -0.08015113 -0.070039354 0.0776396 -0.100293934 -0.1243042
0.04515087 -0.10349054 0.10253262 -0.110272795 0.14608464 0.051248092 0.05164907 -0.12145614
0.049388293 -0.029836142 0.090877615 0.069800004 0.04966215 0.08292233 0.0034973335 0.0050176876
0.057325758 -0.049173247 -0.11915218 -0.026625762 0.04049533 0.052325882 0.023353264 -0.07827142
0.101061605 -0.050187144 0.11877747 0.10738785 -0.0875103 -0.04606146 -0.11846303 0.019049846
-0.07845521 0.041492943 0.0071938606 -0.07880458 -0.05657217 -0.037215948 -0.028597215 0.088184014
-0.11989395 0.0525015 -0.0011545672 -0.0035998248 -0.09175065 0.07564763 0.05859663 -0.009425676
0.02854463 0.07101352 0.042499986 0.05230144 0.044034358 0.02429217 -0.07383728 0.2326854
-0.026032098 0.049855273 -0.003415889 0.034041606 -0.10177562 -0.026122408 -0.006415208 -0.021272928
0.09121875 0.01055229 0.059015773 -0.054229498 0.10170667 0.0829564 0.10412473 -0.021423543
0.049496382 0.115461245 -0.046870157 -0.08110561 -0.08748866 -0.06134924 -0.027159736 -0.06804596
-0.0043251 0.07788277 -0.056546867 -0.08608749 -0.042214993 -0.077726126 -0.008720715 -0.003071828
00000000: d0e7 94bd e698 50bd 9e7e 323d 7f78 cd3d
00000010: 726d a43d 4cff b63c 5975 d83d dbcf 473d
00000020: 1a6b 2b3d d6e7 3abd 3c01 afbc 27a7 e7bd
00000030: 07e0 37bd adbe ce3d 3c2e e9bc e39a 04bd
00000040: 08af d03a c919 a2bc 9983 6dbd 343c 48bd
00000050: 4c57 0c3d 29da 88bc c9a0 20bd fba5 df3d
00000060: ee72 d23d 031d 49bd aae8 9cbd 9ef9 913d
00000070: d5e4 0bbd a7f1 c4bd 8358 03bd 9b16 8838
00000080: 387e 1f3c 0ed4 b8bd 9a14 ed3d d076 d83d
00000090: 5e4c 8c3d 6633 b5bd 01c1 e2bd c42a d33d
000000a0: 1f7f 3f3d e06f 483d 1bee b3bd cc46 553d
000000b0: 711a 593d f734 96bd 4091 8fbd 5152 953d
000000c0: 839a 05bd ce76 3cbd 4528 3bbd 9a04 c93d
000000d0: 63b3 513b 09cc 8f3d 8c61 0e3e 5b92 aabc
000000e0: c444 dfbd c965 88bd 8c48 b73d 4a4c 873d
000000f0: 6e5f ecbd 7271 503d dc79 52bd 12bc 9cbd
00000100: ac42 a53c 05be e13d 5f2f 69bd 5a2f e8bd
00000110: 36b8 e6bd 5f23 d1bd 1c5d d33d e065 fcbd
00000120: 6382 6f3c 8fa8 aebd 18f1 b93d 7a85 d83c
00000130: 271b 23bd d7a4 843d ee4b a53c 3016 cebd
00000140: 2e6d 8e3d e4ec 9abd ec32 df3d 0e48 abbd
00000150: f0f9 f03d 1bdc f4bd 9285 01bd 11f1 c0bd
00000160: 5ee9 ca3b d380 473c 7457 9abd b3e3 893d
00000170: 6e50 b4ba ffe9 a63d 38f2 d43d aad1 cd3d
00000180: 5345 fb3c 7886 d43d 4555 c6bd 893b b6bd
00000190: 9ea8 1b3d 60de 583d 54f2 80bd 29b0 af3c
000001a0: 8a90 fd3d 2193 0abc 75b6 5abc 7f29 23bd
000001b0: 7e8e 863d a139 16ba f65a a7bd 69fe dfbd
000001c0: 2bd1 9d3d bf15 273d 664b c3bd 7b17 283d
000001d0: 14e1 0b3c 05d8 e9bd 5576 e1bc 6c9f f13d
000001e0: b5b5 973d 4b3f 083e 9b1a 96bd e08e b1bd
000001f0: 402c d8bd bb84 1a3d 4407 b13d 1a0c b3bd
00000200: d534 8fbd 8048 923d bac1 02be d917 80bd
00000210: cfa3 8f3d cdb7 233d 3274 3c3b 9a89 833c
00000220: c5ad afbd 54fb 053d bf8d b13d 5c44 5cbd
00000230: 5913 38bd d92c a2bb e4f8 06bd f118 943c
00000240: d928 d63d 1473 b63d e47a c1bd fefa afbd
00000250: 158d 4f3d ba4c 9a3c de22 2f3d 9aab eabd
00000260: 6b22 9a3b efac 50bc 3404 f33b 78ee 28bd
00000270: 7a5d dd3b f806 a2bd d87a 6f3d 4a14 5c3d
00000280: d71e 293d 3347 833d 1b88 c7bd 4726 a4bd
00000290: cb70 8fbd 8301 9f3d e866 cdbd 3393 febd
000002a0: 1ef0 383d d9f2 d3bd 9ffc d13d b4d6 e1bd
000002b0: 3697 153e 85e9 513d fa8d 533d ffbd f8bd
000002c0: 614b 4a3d ed6a f4bc 0b1e ba3d 4ef3 8e3d
000002d0: 8a6a 4b3d 2fd3 a93d 8533 653b 6a6b a43b
000002e0: 6ace 6a3d e369 49bd 0f06 f4bd 451e dabc
000002f0: 6ede 253d aa53 563d 584f bf3c c44c a0bd
00000300: 63f9 ce3d 0991 4dbd 9a41 f33d 29ee db3d
00000310: 9a38 b3bd f1aa 3cbd bf9c f2bd 6c0e 9c3c
00000320: 20ad a0bd 81f4 293d 7aba eb3b 4c64 a1bd
00000330: 38b8 67bd c06f 18bd b544 eabc d299 b43d
00000340: f68a f5bd d00b 573d d954 97ba 0aeb 6bbb
00000350: c4e7 bbbd 25ed 9a3d 0503 703d 276e 1abc
00000360: 6ed6 e93c 896f 913d 7714 2e3d 093a 563d
00000370: 5f5d 343d 5f00 c73c 0038 97bd 1545 6e3e
00000380: 4441 d5bc 0b35 4c3d 1cdd 5fbb 366f 0b3d
00000390: bc6f d0bd a9fe d5bc aa36 d2bb 9044 aebc
000003a0: e5d0 ba3d 83e3 2c3c 86ba 713d c01f 5ebd
000003b0: 964b d03d 0ce5 a93d 593f d53d 6d80 afbc
000003c0: b8bc 4a3d f276 ec3d ecfa 3fbd b31a a6bd
000003d0: 412d b3bd 5749 7bbd 187e debc ae5b 8bbd
000003e0: 92b9 8dbb 0081 9f3d b09d 67bd a34e b0bd
000003f0: a1e9 2cbd e02e 9fbd 54e1 0ebc b950 49bb

bias f4 [14]
0.08241056 0.010384429 -0.027866626 -0.06244965 -0.08999777 0.040906653 -0.03193553 -0.03752658
-0.081885755 -0.06585998 -0.08463391 0.0779205 0.046643384 -0.0050340034
00000000: dec6 a83d 7423 2a3c 8d48 e4bc 34cb 7fbd
00000010: c050 b8bd bc8d 273d d5ce 02bd 79b5 19bd
00000020: b8b3 a7bd 99e1 86bd 8b54 adbd c894 9f3d
00000030: 220d 3f3d 48f4 a4bb
