python/mod/re/modqig_seg1st0ss1canimproveandsee4and18and19nice.pth (torch, 133711 bytes, 8 tensors)

weight f4 [120, 14]
00000000: 852f a43e e12a ef3d 2d47 383f a6ba 7cbe
00000010: 15ff 75be 159b 7f3c 7c25 a3be 70b8 36bf
00000020: d962 da3d 3f91 f13e d31b 1fbf 4eb1 1c3e
00000030: c680 54be 52f8 01bf 4275 05be 2295 acbd
00000040: cfc9 8abe df1b 37bf 6de2 3e3f 74e3 933c
00000050: 864f a0be 90ee eb3e e4f4 94bf d0e2 3abf
00000060: 4eec 59bf 025a 24be 2c36 973d 439e 4bc0
00000070: 6370 863e 2b57 823e ed00 58be bc3d 54be
00000080: 5a48 43be 9a15 42be 4c25 133e 4822 c73d
00000090: 5475 9fbd 487b 313e 8465 953d 9f62 13be
000000a0: 00d5 e63d c029 fc3b a299 8d3d 223d 2abe
000000b0: 2d64 babe d384 a43e dd56 44be 49c3 c73e
000000c0: 206b b83e 55c8 c8be b627 87be 7d85 f83e
000000d0: fdda 873e 0879 9a3f 22ba ddbe 28c9 65c0
000000e0: 99fb 113f 1327 2e3f f5ad 003e 3f68 773e
000000f0: 1bdf dc3e 9610 e53e bc7a 14bf c0ac 1f3f
00000100: 3205 833e 27ee ab3e 633d ebbe 70e6 de3e
00000110: 0a27 4d3d 8b83 b33f ebc6 8b3b 7b47 713e
00000120: 0129 bcbd 44ab acbe a34c b9bc ade7 8c3d
00000130: ee1b 623f c7ab 2abf 6e5f 193f ce66 ab3c
00000140: 49c4 3fbd 4430 babf 6ca9 9f3f 6ac9 373f
00000150: 93e3 08be 731e a33d 4602 c63e 939f 513e
00000160: 99e6 debc 4c60 413f 0934 30bf 45b4 1bbf
00000170: 9139 203f 4430 4bbf 13f9 193e 1d72 5b3f
00000180: 01ba 0abe 2d2e b0be 9188 b13d 8bfd 5d3e
00000190: 31a2 60bd 7da4 b93e 1f58 4a3e faea 62be
000001a0: c612 a2bd 4d25 de3e 3f74 f73d 8a65 91be
000001b0: f76f 00be 1acf e2bb d4af 78bf d83b b5bf
000001c0: bf65 0b3e 62ed 2dbe fb57 ba3e e2c2 cc3d
000001d0: bfa7 28bf 9e0d 193f 0e3b b4be 5c70 abbe
000001e0: 8544 68bd a91a c2be c9d6 813d 0ef8 0940
000001f0: 2a18 98bf 0053 3240 869f 04be 1295 733e
00000200: 88e7 cd3e 8f65 1f3e 4246 8fbe 324f 1b3f
00000210: d803 c63e 2cbf 133e 4500 c4be 8bf6 0abf
00000220: 14fd c53e 9121 113f 4f91 383d 19d5 6fbe
00000230: fbe3 94be c375 953e b58b e8bd 63b4 dcbd
00000240: 52c0 0bbf ae7e 4cbe 315d 0f3d 6210 7fbf
00000250: ab6a 16bf 5884 2fbf 1b27 8dbd f4f2 1dbf
00000260: 22cf 9abf fd67 94bf 5893 973e f7f1 f7bd
00000270: 46a9 b83e 6f85 9cbd c4ff 463f eb9e 90bf
00000280: bde2 77bf 3cb1 6a3f 7607 3c3e 7930 68bf
00000290: c748 3bbf 97ef 92be c5e1 643f 4b71 9dbe
000002a0: 96cc b1be d7cf bf3e 951b e53d dad1 303d
000002b0: d548 cdbe fc94 c33e 0246 d8bd 7208 74be
000002c0: a1c6 2cbf 3267 f0be cf42 8fbe d43b 933f
000002d0: 727b 123e 939d 23c0 5d3a febe 11ca 693e
000002e0: fd77 8abf 7031 c23e 7401 40be 33e8 2dbd
000002f0: 32e4 9e3e b681 4bbe 2f24 863f d6b0 523f
00000300: 9561 80bf e9c4 3dbf 5b0a 43bf 9c66 a73f
00000310: 9936 b83e fc08 15ba 4e49 ec3e 761f ffbe
00000320: 788c 353e 28f1 f53e 7832 b5be d256 40be
00000330: d8af 94bd e8cf 94bf 5fa0 343f bfcb 023f
00000340: 5ca4 3d3e a571 6d3f d1cb efbe 7cbf f6bd
00000350: 7bca 54be b6fa efbd 22d7 28bf 0016 0cbf
00000360: d53f 833f c3cb 853f 40ab 96bd 1236 523e
00000370: f23e 8abd c5d2 bc3f 91b1 39be 4096 7fbc
00000380: f356 c13c 1d4f 4dbe e028 1ebf f8e9 9e3e
00000390: c373 8a3f 3279 c9be 60fb d0be c7bb df3d
000003a0: 637f 9bbc b815 cebe 4d8b 5fbd 19b7 1cbf
000003b0: 0e3d 733f 55be c4bf a33e 153e 0bd7 95be
000003c0: f624 793e 0371 26be e908 023f e1df c9be
000003d0: e322 89be 910a 15bd 7e2a febe 8805 60bd
000003e0: 0f45 48bd 4ca9 4cbe f9d7 063e ec73 0240
000003f0: 68d2 46be b28b 183e 0069 0fbb 30b7 e93c
0.32067505 0.116781004 0.71983606 -0.24680576 -0.24023087 0.015600939 -0.31864536 -0.7137518
0.10663385 0.47181126 -0.6215183 0.15302011 -0.20752248 -0.5076953 -0.13033012 -0.08426882
-0.27107093 -0.715269 0.7456425 0.018052794 -0.31310672 0.46080446 -1.1637235 -0.7300234
-0.851262 -0.1604996 0.07383379 -3.1815345 0.2625762 0.2545713 -0.21094103 -0.20726675
-0.19070569 -0.18953553 0.14369696 0.097233355 -0.077860504 0.17332184 0.07294753 -0.1439309
0.11271095 0.0076954067 0.06914069 -0.16624883 -0.36404553 0.32132587 -0.1917376 0.39016178
0.3601923 -0.3921534 -0.26397485 0.48539343 0.26534262 1.2068186 -0.4330607 -3.5904026
0.5702453 0.6802837 0.1256636 0.2416086 0.43138966 0.44739217 -0.5799978 0.6237297
0.255899 0.33580133 -0.45945272 0.43535185 0.05008606 1.4024519 0.004265656 0.23562424
-0.091875084 -0.33724415 -0.022619551 0.06880126 0.8832387 -0.6666836 0.5991124 0.020923045
-0.04681805 -1.454598 1.2473578 0.7179171 -0.13368063 0.07964792 0.3867361 0.20471029
-0.027209567 0.7553756 -0.688294 -0.60821944 0.6258784 -0.7937052 0.1503642 0.85721
-0.13547517 -0.3441023 0.08668626 0.2167875 -0.054842178 0.36258307 0.19760178 -0.22159949
-0.07913737 0.43387833 0.12082719 -0.2839778 -0.12542711 -0.006921661 -0.9714329 -1.4158888
0.13613032 -0.16985086 0.3639525 0.099981084 -0.6588096 0.59786403 -0.35201305 -0.3348416
-0.05670597 -0.37910965 0.06339795 2.155765 -1.1882374 2.786316 -0.12951478 0.23787335
0.40215707 0.15566085 -0.2798329 0.6066772 0.38674808 0.14428395 -0.38281456 -0.54282445
0.38669646 0.56691843 0.045060452 -0.23421134 -0.29080185 0.29191408 -0.11354772 -0.107765935
-0.5459033 -0.199702 0.035000984 -0.99634373 -0.5875651 -0.68561316 -0.068922244 -0.6169884
-1.2094462 -1.1594235 0.29604602 -0.12106698 0.36066645 -0.07642638 0.7773402 -1.1298498
-0.9683035 0.9167669 0.18362221 -0.90698963 -0.73157924 -0.28698418 0.89406997 -0.30750498
-0.347264 0.37463257 0.111869015 0.04316888 -0.4009463 0.38199604 -0.10560228 -0.23831347
-0.67490584 -0.46953732 -0.27980658 1.1502633 0.14304903 -2.5564926 -0.49653903 0.22830988
-1.0817868 0.37928343 -0.18750554 -0.04245777 0.31033474 -0.198737 1.0479792 0.8230108
-1.002978 -0.74128586 -0.76187676 1.3078189 0.35979155 -0.00056852377 0.46149677 -0.4982869
0.17729366 0.4803555 -0.35390067 -0.1878312 -0.07260102 -1.1625948 0.70557207 0.5109214
0.1851973 0.9275153 -0.46835187 -0.120482415 -0.20780365 -0.11717741 -0.65953267 -0.5472107
1.0253855 1.0452808 -0.07356882 0.20528439 -0.06750287 1.4751822 -0.18134142 -0.015599787
0.02360103 -0.2004971 -0.6178112 0.3103788 1.0816578 -0.39350277 -0.40816784 0.109244876
-0.018981641 -0.40250945 -0.054576207 -0.61216885 0.9501504 -1.5370585 0.14574675 -0.29265627
0.24330506 -0.16254048 0.50794846 -0.3942862 -0.2678443 -0.03638703 -0.49641794 -0.054692775
-0.048893984 -0.19986457 0.13168325 2.0383253 -0.19416201 0.1489704 -0.0021882653 0.028529733

bias f4 [120]
00000000: 66cb 65be 4cd5 d33d 100b 7dbe 9930 393d
00000010: f4a6 ec3c 8dad 753e 1f2f 69bd ad34 d73d
00000020: 6961 9a3c c263 3bbb 53d8 c13d e238 6b3e
00000030: 0dc5 263d fb2a 8b3d 8c18 bfbd 432a 323e
00000040: 291e 433e 4f90 013e c643 e1bd de1a 033e
00000050: 3710 2c3e 6d35 a83d 28b8 bfbd 3064 803d
00000060: 6192 57be ce10 993e 3d33 0c3e 3375 61be
00000070: b6dc 6f3e 8592 0bbd 5ddb 08be a45c b1bc
00000080: ef26 06be dc72 4ebe 4ee4 2cbe 7372 debd
00000090: b874 f93d ca5f b53d cb55 1dbe 48b3 96bd
000000a0: 6283 9b3e a84e 273d 2b45 fd3d c752 99bd
000000b0: 98ef e83d 224c 05bd b4a3 503e 67a3 0cbe
000000c0: 8e44 8e3e 1089 8a3e 31e7 813e 39fa 523e
000000d0: aa4f df3d 1e3d 8c3e 411d 323e 2271 a13d
000000e0: 7e3d 753e 02cb 033e 66f3 1b3e 7d84 923e
000000f0: b31a 413e 2bfe 02be 12f3 893e 94cd 52bd
00000100: 5a81 1b3e 917f 81be 04a2 b53c 0124 a43d
00000110: e514 02be 3c0a e7bd 3ee2 753e 04eb 933e
00000120: 690e 87be b083 53be f67d 2c3d 3836 67be
00000130: 5806 37be d6a9 193e d0a8 4d3e 6647 92bd
00000140: cd71 57be 4739 44be e22b 373e 1478 433e
00000150: e7c0 6fbe a942 833e 7d75 73be 8fe9 2ebe
00000160: 7dec 7dbe 9652 713e dc37 2bbe b3b3 e8bd
00000170: 8804 98bd eb23 583e 7d24 273d 648b c6bd
00000180: 0486 24be c7bf 73be a166 523e c768 113d
00000190: 11dd 133e 3f9f 573e 4a82 7f3e cb21 fe3d
000001a0: 4bd6 abbd 75e3 833c e266 31be 5020 a8bd
000001b0: ea99 4aba 9cd6 473d 53dc 24be e502 fa3d
000001c0: f33c 87be 20eb 653e a02e cd3d ef43 7d3e
000001d0: a343 8a3e d62e 00be 62b4 21be 8f12 fcbb
-0.22440872 0.103434175 -0.24711251 0.045212362 0.028888203 0.23991986 -0.056929704 0.10508094
0.018845277 -0.0028593396 0.09465089 0.22970918 0.040715266 0.06795307 -0.09330854 0.17398934
0.19054474 0.12652706 -0.10999255 0.12803218 0.1680306 0.08213315 -0.09361297 0.06269109
-0.21051933 0.29895633 0.13691421 -0.22017364 0.23424038 -0.03407528 -0.1336493 -0.02165062
-0.1310079 -0.20161003 -0.16883966 -0.10861673 0.121804655 0.08856161 -0.15364759 -0.07358414
0.30373675 0.040846497 0.12366708 -0.07486492 0.11373824 -0.03254331 0.20374948 -0.13734208
0.27786678 0.27057695 0.25371698 0.20603265 0.109038666 0.2739038 0.17393972 0.078829065
0.23949239 0.1287041 0.15229568 0.28616706 0.18857841 -0.1279227 0.2694326 -0.051465586
0.15186062 -0.25292638 0.022171982 0.0801468 -0.12703283 -0.11281249 0.24012086 0.2889024
-0.26378182 -0.20655704 0.042112313 -0.22579277 -0.17873514 0.15006194 0.20083928 -0.071425244
-0.21039505 -0.19162475 0.17887834 0.19088775 -0.2341343 0.25636795 -0.23775287 -0.17081283
-0.24797244 0.2356666 -0.16720527 -0.113624 -0.07422739 0.21107452 0.040806282 -0.096945554
-0.16066748 -0.23803626 0.20546962 0.035500314 0.14439799 0.21056841 0.24952045 0.12408789
-0.083904825 0.01609967 -0.17324403 -0.08209288 -0.00077286235 0.04878865 -0.16099672 0.12207583
-0.26413688 0.22452974 0.10018659 0.24732946 0.27004728 -0.12517866 -0.15791467 -0.007692642

weight f4 [120, 120]
00000000: 86b2 15be b9e7 d73d 5889 c53c 45cc 593e
00000010: 0dd4 c23d 66de 573e aa88 273e 19c1 51bd
00000020: 258b 0e3c b711 523d 445b b2bc f25f 193d
00000030: 3e08 8dbd 55c9 983d 5fea 903e a12e 91bd
00000040: 1abf 2bbb 0fbf 00bc d865 763d 23e0 233d
00000050: 15a4 d9bc f3a6 a93e 748f c63c 8dbb a8bc
00000060: 0a49 82bd 6a4c 663d 7625 db3d a26e 8ebb
00000070: d26e 9a3d 5a58 2f3c b2b7 f3bb 765e db3c
00000080: bdf3 4dbd e0ed 09bb d492 a43d 273a 3d3e
00000090: 93c3 833c eb20 ebbd 29b6 cb3e 4b03 59bd
000000a0: 8e2d a63d 7b32 013d f45d 0dbe dbe3 ce3d
000000b0: 0508 a53d e8d7 283e 66e0 a1bd 198e 9fbc
000000c0: dc22 653d d45f 843d c467 adba ebc3 c13a
000000d0: 88c5 b7bc d42a 0ebd 8e8f f0bb 8216 5bbc
000000e0: d77d 1a3d ad04 d6bc f689 63bd 61a7 98bc
000000f0: 05a1 e33d b260 aebd ee7e 0c3d 387a 0abe
00000100: f10b 363d 2ab5 9f3d 0217 df3d 21b5 adbd
00000110: e69a 6fbd a25e a73d 7190 c23b 49ce 493d
00000120: 3592 29bd 80af a33b 6293 e8bd 6801 783c
00000130: 1e00 ad3d b4b7 fabb 29b4 db3b cbb8 1a3e
00000140: 143c a03c 0861 3ebc 68c1 413d 4045 c13d
00000150: 1c89 3c3d ffe0 6abc 4452 a23d 0908 d03c
00000160: 4c4e 023d 1e25 5b3d 8089 10bc cd17 e83e
00000170: 036e 853d dc00 f8bc f802 7bbf 5063 373d
00000180: 8c85 ac3d f6bd 74bd 1731 8dbd 8bf6 e9bd
00000190: 8e9c d7bd 31fe 19bd d92f c4bc 9464 603e
000001a0: 33ce 7c3d 41c8 6fbd 2cd3 1c3d 8a83 38bf
000001b0: 7fa0 b0bd 3cc0 88bd c060 863a 5a25 08bd
000001c0: 1c0d 463d ce3d f2bd 501c 1cbd 0613 fbbc
000001d0: a478 06bd f44d 29be d05d 6abc 195d 493e
000001e0: 9dec ccbf 4f32 9abe 9a87 893d f733 9fbd
000001f0: 40dd fd3d 3249 b73c 05d3 bdbe 650f 023e
00000200: ac80 c13d 9101 40be 120f 86be 4efb 4b3c
00000210: 5c54 f0be 177c 773e 787e 073d 7117 bdbc
00000220: e207 04be 09c3 173c 48c8 4fbd 0d91 5a3d
00000230: f358 17bf 62d2 34bf 695b 83bd 5d51 2dbf
00000240: ef3f b9bd 6d24 0c3a 8b56 ea3d d3c3 1a3d
00000250: ac7b d73d 23e5 f7be b7dc 1e3e 0536 9a3c
00000260: 2c63 9bbd 40ac 2c3d c04c 0a3c 7cba 4bbf
00000270: 067a 1c3d affe 9ebb 2350 8e3c e701 31be
00000280: aa0e e6bd 55c2 3bbd ce05 0b3e 477f 163f
00000290: 4d66 c4bd e303 78bd b0da 323d 4d2c 773e
000002a0: b6eb 063e c31f 2abc c5b7 fa3d d45c 97be
000002b0: 9a86 623d 8646 ffbb 2e3f cc3c ddec 8fbc
000002c0: cbdf 133e 6790 1cbe 4abe 983d 4ed5 233e
000002d0: ddad 80be 3002 803d 6463 82bd 210b f33e
000002e0: cade 1bbe 647a 653d bdee e8bd d5a5 053e
000002f0: 5893 d0be 80aa 5bba 39cb 93bd 6f04 22bd
00000300: 0046 9a3d 74a2 573d 736a bc3d 2853 aa3d
00000310: 2c77 203d 63c0 2cbc 8848 60bc 061c 903e
00000320: 60b8 0fbb f083 363d 4bc3 9e3d 89c5 48be
00000330: 2f8a 6bbd a240 af3d 8069 2bbb 8a5e 9cbe
00000340: 2019 25bd f47d 3f3e 30df b73d ddc5 2fbe
00000350: 1e28 313f 16f1 caba e271 233e 1020 773d
00000360: 7c9d 633d 8077 20bb 3b23 5a3e 22a1 ed3d
00000370: 25cb a7bd 622b 18be 0d86 03bd aef6 e63c
00000380: 4298 0ebf 319f 863e ec57 e73c c267 b73e
00000390: 2580 593e e3bc 5ebd 146e 9b3d 2c8f f43d
000003a0: fbd4 9dbd ec99 113e 445c 61be e3f4 413b
000003b0: 86c9 d5bc bc3f 223e 4c7b 903d 61d1 e0bd
000003c0: 4390 10be fc80 7b3c 93c9 70bd 874a 8c3d
000003d0: 0dcb e33d 7072 6a3d ea4a ddbe 465f bfbd
000003e0: cf64 e1bd b1a7 1a3e 8f32 0d3d c254 06be
000003f0: 951a c2be e6d6 cd3e f744 1c3e 216d 083e
-0.14618883 0.105422445 0.024113342 0.21269329 0.09513102 0.21080932 0.16360727 -0.051209543
0.008700167 0.051286425 -0.021772034 0.037445016 -0.06886338 0.07460276 0.2830381 -0.07088972
-0.0026206435 -0.007858052 0.06015572 0.040008675 -0.026567498 0.33135185 0.024238326 -0.020597244
-0.06361587 0.056225218 0.107005045 -0.0043466846 0.075406685 0.010702217 -0.0074376697 0.02677844
-0.050281275 -0.0021046326 0.08035818 0.18479215 0.016084468 -0.11480888 0.39787415 -0.052981656
0.081141576 0.031542283 -0.13805372 0.10102054 0.0805817 0.16488612 -0.07904129 -0.019476937
0.055941448 0.0646359 -0.0013229777 0.001478312 -0.022433057 -0.034708813 -0.007341332 -0.0133720655
0.037717666 -0.026125276 -0.05555149 -0.0186345 0.111146964 -0.08514537 0.034300737 -0.13523185
0.044444982 0.07798226 0.1089306 -0.08481813 -0.058497332 0.08172347 0.005937629 0.049268994
-0.0413992 0.0049952865 -0.11356236 0.015137054 0.08447288 -0.0076512937 0.0067048264 0.15109555
0.019559897 -0.011619814 0.047303587 0.094370365 0.046029195 -0.01433587 0.07925847 0.025394456
0.03181295 0.053502195 -0.008821845 0.4533066 0.06515124 -0.030273847 -0.98051405 0.044772446
0.084239095 -0.059751473 -0.06894129 -0.114239775 -0.10527907 -0.03759593 -0.023948597 0.21913368
0.061720084 -0.058540586 0.038287327 -0.7207571 -0.08624362 -0.06677291 0.0010252222 -0.033238746
0.048352346 -0.118281946 -0.03811294 -0.03064872 -0.032829896 -0.16533643 -0.014304593 0.1966442
-1.6009709 -0.30116507 0.06715317 -0.077735834 0.12395716 0.02237377 -0.37075058 0.12701185
0.0944837 -0.18750598 -0.26183373 0.012450052 -0.4693936 0.2416843 0.033079594 -0.023082467
-0.12893632 0.009262809 -0.050728112 0.053360987 -0.591201 -0.7063352 -0.064139195 -0.67702276
-0.090453975 0.0005346004 0.11442288 0.03778441 0.105216354 -0.48417005 0.15513884 0.018824587
-0.07587275 0.042156458 0.00844115 -0.7958143 0.038202308 -0.004852138 0.017372197 -0.17285882
-0.11233266 -0.045839626 0.13576433 0.5878796 -0.09589825 -0.06055058 0.043665588 0.24137993
0.13175854 -0.010383549 0.122420825 -0.2956301 0.055304147 -0.0077903895 0.02493247 -0.017569
0.14440839 -0.1528946 0.0745817 0.15999338 -0.25132647 0.06250417 -0.063666135 0.47469428
-0.15221706 0.056024924 -0.11373661 0.13051541 -0.40737414 -0.00083795935 -0.07216496 -0.03955501
0.07532883 0.05264516 0.09199991 0.08316642 0.03917615 -0.010543915 -0.013689168 0.2814638
-0.0021929964 0.04455942 0.07752093 -0.19606604 -0.05750483 0.085572496 -0.0026155412 -0.30540878
-0.040307164 0.18700391 0.089781165 -0.17165323 0.6920184 -0.0015483226 0.15961412 0.06033331
0.05557011 -0.002448529 0.21302502 0.11602999 -0.081930436 -0.14860299 -0.032110263 0.028193798
-0.55701077 0.26293328 0.028240167 0.35821348 0.2124029 -0.054379355 0.07589355 0.1194137
-0.077066384 0.14218873 -0.22007853 0.0029595427 -0.02609707 0.15844625 0.07054767 -0.10977436
-0.14117531 0.0153505765 -0.058785986 0.068501525 0.11122713 0.057238042 -0.43221217 -0.09344344
-0.11005556 0.15103032 0.034472045 -0.1311827 -0.37910905 0.40203017 0.15260683 0.1332288

bias f4 [120]
00000000: ad78 b13d ca8e c63d 8b67 a13d 42cb b93c
00000010: 72ee 9ebc ecf7 08bd a430 d53d 9fe4 60bd
00000020: 61de 0b3d eeb6 d6bc e4a4 93bb aec9 bd3d
00000030: 8134 063e c454 943c 9af0 93bb 368f e13c
00000040: bf11 043d 9479 e13d 1248 9ebc ba16 9e3c
00000050: 9e11 90bd 4cd4 82bd 932e c03d a997 0c3e
00000060: 84c2 913d 779b 9ebc 5a84 633b 63d2 af3d
00000070: aea0 a1bd e0a9 8e3d 7bd3 96bd 3d33 afbc
00000080: fc4f cabc 2037 783b 002d 39bd c6e7 ebbc
00000090: 9742 c33d 0c8a be3d c1a4 b1bd ecce 8d3d
000000a0: 1988 543d 9ec6 8bbd 0a04 0d3e d9ed b53d
000000b0: d469 8cbd b1c2 4a3d abd7 733c d7b6 1ebd
000000c0: 9182 52bd f2ba b23d 32b9 843b 19aa 123c
000000d0: b024 dd3d 0ab1 c03d d247 cf3c 2621 953c
000000e0: 6702 76bd 4311 acbd 0e5b d6bd e7df f0ba
000000f0: a326 14bd 510c 103d 1228 a93c a3b5 543d
00000100: 78c4 e0bc 8b6d 963d dacb f53c 24ea 973d
00000110: 7cf7 2bbd 5e2a a9bd 8fbb e43d 27ec fa3d
00000120: 3b3c 003d 592a d23d bfac 4fbc 2955 633d
00000130: a45e 50bd 3377 c6bd 40dd 74bd 52e1 08bd
00000140: f04a 003e b3dc d63d b6ca de3d faef d53d
00000150: de0a 8e3d ecbe 4dbd 956d b0bd 71d7 7c3d
00000160: b123 82bd a478 a8bb 6d21 4d3d 0b2f c23d
00000170: a12d 043e a3a8 9fbc 7415 fbbb 2285 a53d
00000180: d97e 913d c63e f7bd 4f74 5e3d e005 9dbd
00000190: 4374 6bbd 605b 1ebd 4c2d 5ebc 85e2 7fbd
000001a0: 8e9f 153d dd58 a73d 83d7 1abd 7a2b 903d
000001b0: 369c 62bd fd20 69bd e51e bdbb 3f94 703c
000001c0: 5a3b a73d 846c 003e e9fb bf3d 57af 62bd
000001d0: 86d9 b5bd 6796 dd3d 2d3e e83c 85f7 3e3d
0.08665595 0.096952036 0.078810774 0.022679929 -0.019400809 -0.03343956 0.10409668 -0.05490553
0.034147624 -0.026210275 -0.0045057405 0.09266983 0.13105966 0.018106826 -0.004514766 0.027534109
0.032243486 0.11009517 -0.019321475 0.019297946 -0.0703461 -0.06388149 0.09383883 0.13729729
0.07117179 -0.01936124 0.003471634 0.0858505 -0.07891975 0.06965995 -0.073645554 -0.021386737
-0.024696343 0.0037874654 -0.04520893 -0.028797042 0.095341854 0.09303674 -0.086740024 0.06924233
0.051887605 -0.068249926 0.13771072 0.088832565 -0.068561226 0.04950208 0.014882962 -0.03874859
-0.05139405 0.08727063 0.0040503973 0.008951687 0.10798013 0.094087675 0.025302801 0.018204283
-0.060060885 -0.0840173 -0.10466586 -0.0018377275 -0.03616966 0.035167996 0.02064899 0.051931035
-0.027437434 0.073451124 0.03000443 0.07417706 -0.041984066 -0.08260034 0.111685865 0.12252074
0.03130744 0.102619834 -0.012675463 0.055501137 -0.050871506 -0.09690704 -0.059781313 -0.033418007
0.12528586 0.10491314 0.10878508 0.104461625 0.069356665 -0.050230905 -0.08614651 0.0617289
-0.06354464 -0.0051413346 0.050080705 0.09481629 0.12908031 -0.019489592 -0.0076624695 0.08082034
0.071042724 -0.1207252 0.05431014 -0.07667136 -0.057483923 -0.03866136 -0.013560604 -0.062471885
0.036529116 0.08171246 -0.037803184 0.070395425 -0.055324756 -0.056916226 -0.005771505 0.014683782
0.08165617 0.12541395 0.0937422 -0.055343 -0.0887938 0.108197026 0.02834996 0.04662277

weight f4 [120, 120]
00000000: 99cd b8bd cc74 753d 7e77 afbd 99f7 7d3d
00000010: 489c cb3d 0a69 433d e7a5 173e 577e 91bd
00000020: 97b7 433d b9b0 5dba f469 a6bd 7c0c 73bd
00000030: 2a5f 72bd 1746 0abd b9a9 86bf aa5a 97bd
00000040: 8fb3 403e 45f1 d23c 3f5f 17bc 0f62 c43d
00000050: 8827 eabe 944c 363d bbf1 dd3d 6203 11bd
00000060: f9a8 8c3d 5903 a7bd e655 dc3d 36fe 91bd
00000070: 42f9 29bd 023d 2cbe e30d c3bd 16c7 b6bd
00000080: 0606 843e 8853 b33d 2e99 e93d ac80 99bb
00000090: 7031 823d 9c20 09be 4f61 59bd 5063 a8bc
000000a0: d11c 4c3e 4218 58bd aa61 4abd 7e35 7cbd
000000b0: 9c1e a7bd f400 943c f11b 12be 5a54 83bd
000000c0: 0852 ec3c 4e3e 6f3d 25a2 88ba 9b97 83bd
000000d0: 10d9 9cbd c401 c3bd cdce cdbd 1bd5 313d
000000e0: 3d67 cbbd 4481 933d d8ce 9d3e e6e8 d13b
000000f0: 71ec 073e fb23 65bd cb61 95bc 7c10 123d
00000100: 1099 333d 1433 023d 8cf9 363d 7fc3 60bd
00000110: e2e2 dcbc 7e86 aa3d 24ce 32bd 0ff4 703d
00000120: 8735 d83d 5404 0f3e 252c f83b f8d3 c83b
00000130: 750b f9bd 65d2 7c3d dc8a 0e3b bc4e a13c
00000140: 13ed f2bc 3e2c e33c d408 a5bd 478b 05bd
00000150: 5426 7dbd 6440 77bd 028c b03d 6bb3 273d
00000160: dead 47bb ab23 323d 36e5 8fbd 4c80 02be
00000170: 7a39 7a3c 9754 543d a0f2 f73d d2aa aebc
00000180: 41e7 25be 18fa 2dbe f2e0 cebd 70df a3bd
00000190: 0fbf 9d3d 2030 1e3d 2f7d ffbd 4867 60bc
000001a0: 16bf d23c ff3c fa3c c216 fdbd 850c 0a3d
000001b0: 62c2 713b 10c9 11be 4f33 e0bd 76a0 8c3d
000001c0: 6529 b33b ac28 54bd 0b08 263e 3b57 75bd
000001d0: 0d7a 82bd f8b2 eebd 2a69 39bc 6f14 eabd
000001e0: a863 97bd 5ca0 2d3d d1be 013e 53b4 9ebc
000001f0: f8a4 e73c 94d6 8c3c e3ec b13d 193e fb3c
00000200: c24a ad3c 80b2 c8bd c397 bbbd 3d56 4cbd
00000210: ac0e 98bc cb90 d83c 53b9 72be fbe5 103c
00000220: fdf0 a83d cfb0 9cbd 231b 8cbd 3898 17bd
00000230: d86a e8be 940f 023c de5f 2b3c fc48 71bd
00000240: fb78 b5bd 61a5 a23d 4443 253d f395 5fbd
00000250: c6c1 863c ec63 b53c 172b 07bd d531 5d3d
00000260: 62b4 56be 2081 173d 18c8 6a3d a397 c63d
00000270: bfde 8aba d4ea 913d b080 983c 0d7c ef3c
00000280: 7d17 afbd ed76 0fbd ddc8 1dbd 900f f43c
00000290: 90d5 c83c 40c7 f6bd a81d d9bc f62d 043d
000002a0: ef8b 8e3d 4a2d 2cbe 3023 c2bd 8c60 1ebe
000002b0: e177 e9bd 32df df3d 30a8 2fba 3b89 253e
000002c0: 51fc a3bb 0440 e03c b483 863e 09be 6ebc
000002d0: 76f7 dfbb 8963 cd3d 2761 743d 16a6 363e
000002e0: 3320 22bd 883e 473d 947d 87bb ee96 163c
000002f0: cbe1 4d3d f0da e1bb 85d1 1d3d ecc5 3ebd
00000300: dee0 2e3d bae0 b7bb 23a9 1d3b f399 1f3e
00000310: 7ae9 153d 310a debc 0e4d 643d f2aa 28bd
00000320: 1599 e23c 8b63 183d a409 2d3d c73e cdbd
00000330: 0760 2b3d 8a33 0fbd 30d2 763c 891f e73d
00000340: 0dbc 9d3d 4db9 9dbc 0988 dc3d fc8a e43d
00000350: 6784 98bd 7969 a43c e531 973c 2bb3 ce3d
00000360: 7696 d6bd 0e30 8e3d f691 453c 18a5 5b3d
00000370: b7b1 1cbe f6e4 ed3b e6ce 7c3d 8d05 873d
00000380: 1b73 9fbd 2ec5 66bd 5bd8 5f3d 2b87 1f3c
00000390: 7dd4 b33d 0d03 753d 504b dd3d f9e5 553d
000003a0: 78e0 cebc bdbe b63d 1565 083e 702f f03b
000003b0: 40d3 09bc cdc0 ad3d ec99 053d cbd5 5cbd
000003c0: d4b9 193d e3ce b33c 0daf 9cbd 8df1 963c
000003d0: e043 523a 2dcd 1e3d 86cf 2d3c 05fa bf3c
000003e0: 474b aebd dae7 d83d 199d e9bd a779 02b9
000003f0: 143d 533d dbcb 60bd 292d 133f b15d 473d
-0.0902359 0.05992584 -0.08567713 0.062003706 0.09941918 0.047707595 0.1480938 -0.071041755
0.047782507 -0.00084568147 -0.08125678 -0.059338078 -0.059172787 -0.03375825 -1.0520545 -0.0739034
0.18818496 0.025749812 -0.009239017 0.09589016 -0.45733285 0.044506624 0.10837122 -0.035403617
0.068681665 -0.081549354 0.10758571 -0.07128565 -0.041497476 -0.16820148 -0.09524133 -0.089246914
0.25785846 0.08756167 0.1140617 -0.0046845283 0.06357086 -0.13391346 -0.053071316 -0.020555168
0.19932868 -0.05275751 -0.049409546 -0.06157445 -0.08160135 0.01806686 -0.14268471 -0.06412573
0.02884771 0.058409028 -0.0010424299 -0.06425401 -0.07658589 -0.09521821 -0.1004921 0.043416124
-0.099318005 0.0720239 0.30821872 0.0064059375 0.13273789 -0.055942517 -0.018235108 0.035660252
0.043847144 0.031786993 0.04467158 -0.05487394 -0.026963655 0.083264336 -0.043653622 0.058826502
0.105570845 0.13966495 0.007573622 0.0061287843 -0.121603884 0.061724085 0.0021750247 0.019690864
-0.029654061 0.027731057 -0.080583245 -0.03260353 -0.06180413 -0.060364142 0.08620454 0.04094259
-0.0030468623 0.043491047 -0.070261404 -0.12744254 0.015272493 0.051838484 0.12106824 -0.021321688
-0.16201498 -0.16989934 -0.10101499 -0.08001602 0.07702457 0.038620114 -0.12475049 -0.013696499
0.025725883 0.030546663 -0.12357856 0.033703346 0.0036889543 -0.14236856 -0.10947286 0.06866543
0.005467581 -0.0517966 0.16214006 -0.059897643 -0.063709356 -0.11655229 -0.011316577 -0.11429679
-0.07392055 0.04238926 0.12670447 -0.019373095 0.028276905 0.017192163 0.08687761 0.030669259
0.021153811 -0.09799671 -0.091598056 -0.04988693 -0.018561684 0.02643623 -0.23703508 0.008843894
0.0824909 -0.07650911 -0.068411134 -0.0370104 -0.45394015 0.007938284 0.010459868 -0.058907494
-0.08860966 0.079417 0.040347353 -0.054586362 0.01644982 0.022142373 -0.033000078 0.0540026
-0.20967248 0.036988378 0.05731973 0.09696891 -0.0010594948 0.07124868 0.01861605 0.029233957
-0.08549402 -0.035025526 -0.038521636 0.029792577 0.024515897 -0.12049723 -0.026503399 0.032270394
0.06960284 -0.16814151 -0.09479368 -0.15466517 -0.11399818 0.10931243 -0.0006700782 0.1616563
-0.0050044437 0.027374275 0.26272357 -0.014571675 -0.0068349196 0.100287504 0.059662964 0.17836794
-0.03958149 0.04864362 -0.004134843 0.009191258 0.05026416 -0.0068925545 0.03852989 -0.04657547
0.04269492 -0.0056115063 0.0024057112 0.1558607 0.036599614 -0.027104469 0.055737548 -0.04117865
0.027660886 0.037204307 0.042245522 -0.100217395 0.041839626 -0.03496126 0.015064761 0.11285312
0.077018835 -0.019253397 0.10768134 0.11159322 -0.07447129 0.020069825 0.018456409 0.10092767
-0.10477917 0.069427595 0.012058726 0.053624243 -0.15302168 0.0072599603 0.06172075 0.065928556
-0.077856265 -0.05634039 0.054649692 0.009736816 0.08780763 0.059817363 0.1080538 0.052221272
-0.02525352 0.08923099 0.1331981 0.0073298737 -0.008412182 0.084840395 0.032617494 -0.053914826
0.037530735 0.021949237 -0.07650576 0.018425727 0.00080209784 0.03876989 0.0106085595 0.023434648
-0.08510452 0.10591097 -0.11406917 -0.00012443085 0.05157192 -0.05488191 0.57490784 0.048673335

bias f4 [120]
00000000: a5e0 983c 001f 663d 64c5 46bd 3491 703d
00000010: e951 6b3c fb53 673d ea5e 373b caef da3d
00000020: 2ed0 ddbb 4a49 00bb 2254 56bc 1b5d e13c
00000030: 1cc4 aabd bea7 f0bc 30ad b9bb d13e 4d3d
00000040: cfe9 d33c 3582 ccba b49d 85bd ccd2 97bc
00000050: e7f4 49bd 51e0 90bd d549 18bd 84b4 ac3d
00000060: 378c 9ebc 6755 ab3d 8542 0e3d 5ec0 8e3d
00000070: 1afb a8bd d039 333c 7bf7 923d 3245 a4bd
00000080: b2c7 e03c 32a4 c93d 6c25 b3bd 96b4 debd
00000090: d2e0 0ebc 3124 d7bd 15f6 8ebb e2a7 36bd
000000a0: 0636 01bd c90c 07bd 89aa efbd 7e29 b3bc
000000b0: 8b46 bd3c 75cf 58bd ce7d ac3c 10ae d8bd
000000c0: 9a0b b0bd bb6c bf3c f057 4e3d 0122 7abd
000000d0: 0619 023d 1dcb dd3c b5ac 563d 01f8 173b
000000e0: 3cb9 db3b b17b 75bb 786c 5cbd c96b 62bd
000000f0: 3789 afbd 8775 9f3b f289 c9bd 2b61 b9bc
00000100: 0121 973d 4d23 673c 1cff a1bd 6444 5a3d
00000110: 77ac 89bd cc79 1bba 99ca 11bd 54dc a43d
00000120: e710 4cbd 56bf 1fbd e37f 973d 7017 9b3d
00000130: cb9a 823d e053 3dba 802d 8d3d 3636 253d
00000140: 3c95 633c 42f2 863d a9fd 8dbd a968 47bc
00000150: 9a85 8ebd 3952 f7bc f73f 7b3d e45b a4bc
00000160: fbb3 933c d79a b9bd 2860 87bb 62e0 96bd
00000170: 8402 c5bc 993c 9bbc 776e acbd 0824 233d
00000180: b7bf ca3d 9266 28bd 5163 34bd 286d 10bc
00000190: c294 9a3d 1049 2cbd 981d 2c3d a447 87bd
000001a0: 2c57 fc3c c365 93bc b094 503d 48e8 7a3d
000001b0: 2022 2a3d df77 883c e8a1 6b3d b1de b6bd
000001c0: 9f32 5f3c 491d 823d 4ec0 143d a41a 06be
000001d0: 9688 fabb 5596 933c 914e 533d d95d 4c3b
0.018661806 0.056181908 -0.04852809 0.058732226 0.014362791 0.056476574 0.0027980157 0.106902674
-0.0067692017 -0.0019574934 -0.013081582 0.027510216 -0.08338186 -0.02937686 -0.0056663975 0.050108735
0.025868325 -0.001560277 -0.0652422 -0.018533133 -0.049305823 -0.07074035 -0.037179787 0.08432868
-0.019353969 0.083658986 0.034731407 0.06970285 -0.08251019 0.010939077 0.071761094 -0.080210105
0.027438972 0.09845771 -0.08747372 -0.10874288 -0.0087205935 -0.1050495 -0.0043628314 -0.0445937
-0.03154566 -0.032971177 -0.11702449 -0.021870371 0.023104927 -0.05293222 0.021056082 -0.10580075
-0.08595963 0.023367276 0.050376832 -0.061067585 0.031762145 0.027074391 0.0524108 0.0023188593
0.0067054313 -0.003745776 -0.05381438 -0.055278573 -0.085710935 0.0048663053 -0.09840764 -0.022629341
0.07379342 0.014107537 -0.079099864 0.05328788 -0.06722348 -0.000593093 -0.035593603 0.08049837
-0.049820807 -0.03900083 0.07397439 0.0757283 0.06377181 -0.0007222276 0.06893444 0.040334903
0.013890561 0.06589176 -0.069331475 -0.012170949 -0.06959076 -0.030190574 0.0613403 -0.020063348
0.018030157 -0.090627365 -0.0041313358 -0.073670164 -0.024049051 -0.018949794 -0.08419507 0.039829284
0.09899848 -0.041113444 -0.044040028 -0.008815087 0.075479046 -0.042061865 0.04202041 -0.06605461
0.030803286 -0.01799286 0.05092305 0.061256677 0.04153645 0.016658721 0.057527453 -0.08929194
0.013622909 0.06353242 0.03631621 -0.130961 -0.007645677 0.01801602 0.0515886 0.0031183867

weight f4 [14, 120]
00000000: b0de aebd b347 4cbb 182a 3b3d 4a8f 7dbd
00000010: ed1f b3bd ccdb 573c 0930 5a3d 8b3d 8d3d
00000020: 9301 603d 49a6 313c 7ac5 b3b8 78eb 7e3d
00000030: 22c7 a13d 77f3 86bd 1437 52bc 5704 b03c
00000040: 6041 b63d 3773 c2bd 56ab 8ebd a8b1 8fbd
00000050: 73db 5dbd fdad a7bd c093 afbd aa21 a4bc
00000060: 3673 ecbc 1008 d7bc 19a8 cfbc abc9 05bc
00000070: 702b bcbd 6609 cbbd 42eb 25bc 0314 0b3d
00000080: 8573 b7bb d07a bb3d f279 09bd 6f13 dcbb
00000090: 7318 b83c 4cb7 b0bd 6ba0 8e3c 6ff0 233d
000000a0: 30ef 3b3d f063 c0bd 3dbb 80bd 81fe 363d
000000b0: 9521 a4bb 8fbc 933c 3608 c43d f714 143d
000000c0: 38f1 ae3d d2c3 2f3d 7827 2b3d 06b5 b5bb
000000d0: 817a 0dbc 2a33 6dbd 01e0 04bc 6126 d3bd
000000e0: 06f5 cabb 266d 8fbd 3efb 65bd 7d73 e93d
000000f0: bd40 cb3d 527d ac3d 402e 4bbd c084 98bd
00000100: e320 cb3d c265 c6bd 1c8b 2fbd 7293 393d
00000110: d9f7 90bd 9d07 acba 5e8b fd3b 0b66 8f3d
00000120: 16e8 c13d ca8e 64bd 62cf 823d 005a 8bbd
00000130: 698c 4a3b d49f a0bc 6199 503d 8ad2 093d
00000140: 9838 933d 127a fd3c d33b ea3d d00b c73d
00000150: f843 d43c 6818 e23c baa7 823d 676d c6bb
00000160: 879e 243e dd1c 72bd 165d 863d 230e 8abd
00000170: b4e3 a93c e43b a73d ad8e 23bd 95de 7e3d
00000180: e165 5d3c d5a6 97bc f14a b5bd 4d86 23bd
00000190: 0bbb b03d 7b1b 0abd a5e9 9bbc dcd5 b73d
000001a0: 23fa 143c a534 cf3c 7782 0dbd 427a 9f3d
000001b0: 76ab 303d b187 213c 47d0 183c 6a3f 76bc
000001c0: 1ca6 fdbd 9762 c4bb c888 cabc 4687 a33d
000001d0: 4da5 9fbb 29f9 c53b 9d9b 80ba 02cd 2ebc
000001e0: 5776 a43d 7122 a93d 0054 b0bd 3781 6b3b
000001f0: 113d c8bd fab4 b3bc 18df ab3d 0fa9 48bd
00000200: 0e01 9b3d bbc6 2d3d 7481 c8bd 32d5 d8bd
00000210: 0260 803c 038a 22bc fc2a a7bd efa8 ab3d
00000220: 8379 35bd e80a c73d aaac be3d ad43 6d3d
00000230: e7fc c23d 805c f13d 94b4 3a3c f1e0 cfbd
00000240: f58a ccbb eb80 d2bd 9cf2 d0bd 8119 b5bd
00000250: 2c4d 913c 8cdb 87bd 2d49 6f3d d39b a4bd
00000260: fa20 d8bd 35cf 32bd efcb cd3d 1edf 32bd
00000270: a574 323d 3ecc 363d 5786 ce3d 01d3 cc3d
00000280: 83a1 c63d 2556 b4bd 1bbe 713e 9bb9 d63c
00000290: 7979 8ebc 048d 953d dd43 02be 3533 e83d
000002a0: 42f3 1aba 4309 253d 8a8c a7bd 7132 b2bd
000002b0: d372 bd3d 9598 2e3c a82d a5bd ee1e 1b3d
000002c0: bfcd fcbc 0215 2ebd 69a9 363d 92a5 763c
000002d0: dfc7 ac3d 9308 f83d e249 b33d 28fd b039
000002e0: e092 6cbd 1950 b13d 2312 98bd d042 263d
000002f0: bbd2 ccbd 7935 373d 3fc9 1d3b b2a4 ac3d
00000300: e2a3 a4bc 1940 2cbd 71de c23d dda2 72bb
00000310: 5c18 9fbc 2d76 463d f4d3 483d 4d31 b2bd
00000320: 4502 103b 6a2a dc3d 01da a03c 558e 13bd
00000330: 0835 003d d59d adbd 4394 003d b2e3 073d
00000340: 224e c83d 1a11 293d 4871 a23d f36f 9fbd
00000350: bc50 92bb 50bd cbbd 6fee 5d3d 7619 993d
00000360: b2d1 abbd fab7 9dbd 22b7 29bd 7b23 9cbd
00000370: c4df d53c cae5 42bd 2978 b3bc d7c9 383d
00000380: 511b 3c3d 523d eb3c 1269 3b3d 5a18 45bd
00000390: f641 4c3d 0e3b 9cbd b4f0 be3d 9664 d0bd
000003a0: 7a71 bdbd bd2e 99bc c4ea 273c 4473 81bd
000003b0: 7fb9 81bd 358c a4bd 5fa3 d8bd b276 a9bd
000003c0: 7bd4 803d a711 b13a a9c3 873c 1578 20bd
000003d0: 22d6 c2bd f3cf c73d 32f7 823c ccbd b1bd
000003e0: 9346 88bc 6d47 a93b 029b c7bc edc5 1abc
000003f0: 434a 7fbd 82bc 69bd a028 d8bd c4ed b83d
-0.08538568 -0.0031170666 0.04569444 -0.06190423 -0.08746324 0.013174962 0.053268466 0.06896504
0.054689 0.010842868 -8.572168e-05 0.06223628 0.0789931 -0.06589406 -0.012830514 0.021486444
0.08899188 -0.09494632 -0.069662735 -0.07016307 -0.05416436 -0.081874825 -0.08573103 -0.020035584
-0.02886353 -0.026248962 -0.02534871 -0.008165757 -0.091879725 -0.09913902 -0.010126891 0.03395463
-0.005598488 0.09154284 -0.03356356 -0.006716184 0.022472596 -0.08628711 0.017410478 0.040024217
0.045882404 -0.093940616 -0.06285713 0.044676308 -0.005008886 0.018034248 0.095718786 0.036152806
0.085421026 0.04291136 0.041785687 -0.0055452613 -0.008635164 -0.057910122 -0.008110047 -0.103100546
-0.00619376 -0.0700324 -0.056147806 0.11398981 0.09924457 0.084223405 -0.049604654 -0.07447195
0.09918382 -0.096873775 -0.042857274 0.04530663 -0.07078523 -0.0013124828 0.007737561 0.07001885
0.09468095 -0.055800237 0.063872114 -0.068042755 0.0030906445 -0.019607462 0.050927524 0.03364805
0.07188529 0.030941997 0.11437192 0.0971905 0.025911316 0.027599528 0.063796476 -0.0060555222
0.16076098 -0.059109557 0.065607235 -0.067409776 0.02073846 0.0816572 -0.039930988 0.06222399
0.013513059 -0.018512169 -0.088521846 -0.039923 0.086294256 -0.033717614 -0.019032309 0.08976337
0.00909284 0.025293658 -0.03454825 0.07786991 0.043132268 0.0098590115 0.009327001 -0.0150297675
-0.123851985 -0.005993198 -0.024723426 0.07984786 -0.0048720003 0.006041665 -0.0009812001 -0.010668995
0.08030384 0.08258522 -0.08609772 0.0035935172 -0.097772725 -0.021936882 0.08392161 -0.04898935
0.075685605 0.042425852 -0.09790316 -0.10587539 0.01567078 -0.0099206 -0.081624955 0.08381831
-0.044305336 0.09718877 0.09310277 0.05792587 0.095208935 0.11785221 0.011395592 -0.10150326
-0.006242151 -0.102784954 -0.10202524 -0.08842755 0.017736994 -0.06633672 0.058419395 -0.080375336
-0.10553165 -0.04365464 0.10048663 -0.043669812 0.043568272 0.044628374 0.10084217 0.10001183
0.09698775 -0.08805493 0.23607676 0.02621155 -0.017391907 0.07302287 -0.127212 0.11337892
-0.0005910882 0.040292036 -0.081811026 -0.08701027 0.092504166 0.010656496 -0.08065349 0.037871294
-0.030859826 -0.042500503 0.044595156 0.0150541235 0.0843656 0.121110104 0.087543264 0.00033757952
-0.05775726 0.086578555 -0.07425334 0.04059106 -0.10001131 0.04472873 0.002407625 0.08429851
-0.020097677 -0.042053316 0.095150836 -0.0037023344 -0.019420795 0.048452545 0.04903026 -0.0870081
0.002197401 0.10750277 0.019635202 -0.03602441 0.031300575 -0.0847737 0.031391393 0.03317613
0.09780528 0.041276075 0.07931763 -0.077850245 -0.0044651907 -0.09948218 0.054182466 0.074755594
-0.083896056 -0.07701106 -0.041434415 -0.07623955 0.026107676 -0.047582425 -0.021907883 0.045114364
0.04592449 0.028715763 0.0457545 -0.048118927 0.049867593 -0.07628451 0.09323254 -0.10175435
-0.092501596 -0.018699044 0.010248844 -0.06320813 -0.06334209 -0.08034555 -0.105780356 -0.082745925
0.062905274 0.0013509289 0.01657279 -0.03917702 -0.09513499 0.0975646 0.015987013 -0.08678779
-0.016635215 0.0051659853 -0.024365906 -0.009446603 -0.06232668 -0.05706454 -0.105546236 0.09029725

bias f4 [14]
00000000: 08d5 57bd 96e0 663d af8b a0bd cce0 02bd
00000010: 83ed c23c 92c0 693d ed96 c7bd 3883 92bc
00000020: 8d99 7dbd 2b96 afbd 98d9 33bd a8a4 5bbd
00000030: cb80 6a3b 8269 953b
-0.052693397 0.056366526 -0.078391425 -0.031952664 0.023794895 0.057068415 -0.09745584 -0.017884836
-0.061914016 -0.08573564 -0.043908685 -0.053623825 0.0035782333 0.0045596967
