python/mod/mod.pth (torch, 133647 bytes, 8 tensors)

weight f4 [120, 14]
00000000: 0af0 3d3d 2c06 c13d 6e9d 323e 1379 a33d
00000010: 84c6 6a3e 28e8 063e da5d 033e c89a d33c
00000020: f7c1 923d 6867 373c 5679 883e 54cc 43be
00000030: 1aa5 0e3e 800c 59be eddc 033f 34b6 dbbe
00000040: 344d f63d 594f 063f 8c72 f83e 7116 e7bf
00000050: 4184 debf be1f 44bf a4fb 12bf 95c7 e93f
00000060: 3f90 3dbf 6048 afbf 5f32 1440 b2a0 3ec0
00000070: 87a6 aa3d 4cb1 45bd be5f 6dbd fa14 d6be
00000080: c016 9dbe 8e96 74bd 2c65 18be 172f 11be
00000090: 645b 613e d25a dd3c d9a5 8b3d 8ec7 f6bd
000000a0: cae6 04bd 1651 30be 50af 3c3e e9a4 cdbe
000000b0: 23e7 a3bf 3806 333f dced 3a3f c1ce b33f
000000c0: 04ea 3dbf f712 673f 8b4a adbf 0aff 1ebe
000000d0: e08a 92bf 0430 7c3f 714c ba3e bc4e 683e
000000e0: 4f67 66bf 45f6 fc3e 7a07 253f 8129 b4bf
000000f0: fef1 20c0 ff36 743f c923 18be 67ba 633f
00000100: d4f0 01bf 135d 2340 926b 74bd 229b a33e
00000110: 8732 c8bf d332 70bf ad97 8dbe abde debe
00000120: da23 0abf 3427 873f f8ce 28be 7911 a7bf
00000130: 767c 8fbd e3ac 313f fdde fabf 33be 0ec0
00000140: 3f28 13c0 48f5 1140 85ab e53f 6be9 ab3d
00000150: f808 593e 0509 0040 85e7 9ebf ea7d 8f3f
00000160: 3af6 e63f 2d3d f8bf 2959 10c0 1f04 d9be
00000170: 6079 55bf 953e 69be f150 80bf 6cb5 843e
00000180: da1a 1340 9c00 03bf 012f 4a3f 20cc 41be
00000190: 813d 253e acaa e73e 48db 3a3f 21af 30c0
000001a0: 0bf4 853d 5d8c 3140 3064 913f b939 2abf
000001b0: b1d8 833f 9231 04be 24f2 1c40 c380 ed40
000001c0: a55c fc3e 1269 e43d bac9 d43f 3ae5 19be
000001d0: b09d d2be 23ec a7be e016 8bbe ac63 9f3d
000001e0: 25cf b33e 7de7 33be efd9 4b3f 4511 503f
000001f0: 92e8 613e 65b3 01be 4e3f fa3d 0070 003b
00000200: 3439 1a3e dfa4 523e 48bc 25be baf1 abbd
00000210: de69 bb3d 6a96 403d fa20 6f3e 00aa 5439
00000220: 9064 9cbb 5c21 3ebe dcb7 4e3e 0ef1 353e
00000230: 9839 a3bd 6c6e 3bbf 484c 50c0 0772 b53e
00000240: 0788 e1bf e14c debe 33e8 193f d4c8 51bc
00000250: 7ffd 64bf 3b95 b8bf 6da4 adbf 9d03 e83e
00000260: e9c1 91c0 6639 8ebd 0f1e c53e 1557 9a3e
00000270: 1893 513e f24e 99bd 6df2 71be 18d2 78be
00000280: 342f 933f 4851 323d 04cf 013f b95e fa3d
00000290: d183 b83e 8a11 7f3e 8f01 533f dccd cabf
000002a0: a986 663f 681f e8be 1500 253f a784 3dc0
000002b0: 8166 8bbf 7c02 2c3d c72a 66bf 4bca 853f
000002c0: 33e0 283f 7750 41bf 956e 82be 290a 323f
000002d0: d641 07bf 1692 9c3f bc06 b63f 6d4b 22be
000002e0: d582 fbbe c8dc b83e 5d92 f7bf 577e 79bf
000002f0: d5de df3f 448b 93bf 83cf 80bf bad7 453f
00000300: d6b2 ac3e 174c 343e ac2e 0340 441e 26bf
00000310: ebbb 9dbf ad06 76bf bbdd 063e a902 663f
00000320: f822 1d40 673d 70be f265 dc3f be75 2a3e
00000330: 2281 8a3e 6e8c 52c0 54a1 e2bf 3631 173f
00000340: 3f63 d93f 5e3a 143f ae75 293e 55ab 09be
00000350: 3330 51bf 2145 873f 0861 9a3f 8b45 783f
00000360: 5262 23bf 2223 5c3e 0495 2040 c817 d33e
00000370: 299f cd3f 62cc f6bd aa32 83be d5da ba3e
00000380: fd7f f33e 9862 1640 2c49 b03f ad02 1ebf
00000390: a189 03c0 c315 59bd 145e d1be 181a 8cbe
000003a0: 66d0 dcbe dc69 a2be a39d f6be a723 5d3f
000003b0: 5b18 dbbe b830 073e 894c cd3f e060 ae3f
000003c0: c4c4 a2be c004 ab39 06d4 2f3d 890a 233e
000003d0: aa63 93be 35bc 0ebf 41de b13d 6a90 30be
000003e0: 7b69 9abe 55e8 283f 0a94 88be d58f 2dc0
000003f0: 7a4f 17bd 2adb 24be cf36 813d e1a4 8b3d
0.046371497 0.09425005 0.17442867 0.079820774 0.2292729 0.13174498 0.1282877 0.025830641
0.07165902 0.011194088 0.26655072 -0.19120914 0.13930169 -0.21196175 0.5150898 -0.42912447
0.12026444 0.52464825 0.48524892 -1.8053724 -1.7384111 -0.76610935 -0.57415223 1.8264033
-0.7404823 -1.3693962 2.3155744 -2.978558 0.08332544 -0.048264787 -0.057952635 -0.4181288
-0.3068142 -0.059713893 -0.14882344 -0.1417812 0.22007519 0.027020846 0.06818742 -0.12049781
-0.03244666 -0.17218432 0.18426251 -0.4016488 -1.2804912 0.69931364 0.73019195 1.4047471
-0.74185205 0.90263313 -1.3538374 -0.15526977 -1.1448631 0.98510766 0.36386445 0.22686285
-0.90001386 0.4940664 0.64464533 -1.4075166 -2.51477 0.9539642 -0.14857401 0.889563
-0.507581 2.5525558 -0.0596729 0.31954294 -1.564042 -0.9382755 -0.27654782 -0.43529257
-0.53960955 1.0558839 -0.16485202 -1.3052207 -0.07006161 0.6940443 -1.9599301 -2.2303588
-2.2993314 2.2805958 1.7942969 0.0839413 0.21194828 2.0005505 -1.2414404 1.1210301
1.8043892 -1.9393669 -2.255442 -0.42385957 -0.8338833 -0.2277778 -1.0024701 0.25919664
2.298514 -0.51172805 0.7897797 -0.18925524 0.16136743 0.452474 0.72990847 -2.760689
0.06540688 2.774192 1.13587 -0.6649433 1.0300504 -0.12909535 2.452279 7.421968
0.49289432 0.11152853 1.6624062 -0.15028849 -0.4113593 -0.32797346 -0.2716589 0.07782683
0.35118976 -0.17568775 0.79629415 0.8127635 0.22061375 -0.1266609 0.12219106 0.0019598007
0.15060884 0.20570706 -0.16185105 -0.08395715 0.09151052 0.047018446 0.23352423 0.00020281225
-0.00477273 -0.18567413 0.20187324 0.17767736 -0.079699695 -0.73215365 -3.2546558 0.35438558
-1.7619637 -0.4341803 0.6011993 -0.012804229 -0.89449304 -1.4420542 -1.3565804 0.45315257
-4.5549207 -0.06944542 0.38499495 0.30144563 0.20466268 -0.07485761 -0.23627634 -0.24298894
1.149878 0.043534547 0.50706506 0.12225098 0.36038068 0.24909034 0.82424253 -1.5844073
0.90049225 -0.4533646 0.6445325 -2.9612215 -1.0890657 0.041994557 -0.89909023 1.045236
0.659671 -0.75513405 -0.25474992 0.69546753 -0.5283483 1.2232082 1.4220805 -0.15849085
-0.49123254 0.36105943 -1.9341542 -0.97458404 1.7489878 -1.1526875 -1.0063328 0.772823
0.3373019 0.17607151 2.0497236 -0.6488993 -1.2322973 -0.96103936 0.13170521 0.8984781
2.4552593 -0.23460923 1.7218611 0.16646478 0.27051646 -3.2898211 -1.7705483 0.59059465
1.6983413 0.5790156 0.16548797 -0.13444264 -0.8171417 1.0567971 1.2060862 0.96981114
-0.638219 0.21497777 2.5090952 0.4122908 1.6064197 -0.12050702 -0.2562459 0.3649508
0.47558585 2.3497677 1.377233 -0.6172283 -2.0552752 -0.05299927 -0.40892088 -0.27363658
-0.43127745 -0.3172139 -0.48167142 0.86382526 -0.4279202 0.13202178 1.6038982 1.3623314
-0.31790745 0.000326192 0.04292681 0.15921988 -0.28786975 -0.5575593 0.0868497 -0.1724259
-0.301586 0.6597951 -0.26675445 -2.7119038 -0.03694103 -0.1609923 0.06309282 0.068185575

bias f4 [120]
00000000: fa0f 9dbe 38a1 bdbe ac6a 72be 17c6 36be
00000010: 00e7 b9be 627d 1abf 4690 42bd 771e 18be
00000020: 6959 f8bd 2285 fbbe d2c4 b1be 1863 febe
00000030: a21d 30be 29f2 27bb 4b4e 39bf cfd2 18bc
00000040: 878a 9cbd de7a c2bd 2ca7 a2be ba38 46bf
00000050: ea15 b4be d606 a5be 7224 b6be 7dff c6be
00000060: f585 b8be e580 2bbe 76f2 81be f59a edbe
00000070: 9659 13bf 71a7 b7be b397 aebe e2b8 7ebd
00000080: 180b cfbe 4ee3 8ebe ab79 96be 0715 89be
00000090: fcd6 eabe 1008 dcbe e248 54be 7163 00bf
000000a0: d6e6 d93d 7fed a3be 4165 debe 668a d8bd
000000b0: 407b 8dbe 479e b9be 7379 b5be 3676 49be
000000c0: bfba 19be 094e 8dbe 269c 7fbe 9649 12bf
000000d0: a07a 82be 4d73 2cbf 7dcf 85bd c4b7 25bf
000000e0: 54df 29be ff7b 64be cd94 a83c 248a 42bd
000000f0: cf8e 96be 65e3 92be 93db b0be 4442 23bc
00000100: b59b afbe e451 9bbe d7d2 a6be 143d acbe
00000110: 7d91 003e ffde 783d 6ccc 62be 989c aebe
00000120: 0d16 abbe 4e66 33bf 4e72 22bf 4d91 2a3d
00000130: 0d22 afbe 7b93 b6be db26 b13c 3486 27bf
00000140: 2a29 a1be e0f3 95be 9c27 5abe 89d2 1dbf
00000150: 1d83 d1be e404 fbbd 5b7a 9ebe 8c56 a8be
00000160: 781a 93be d19d 92bd 8c4c c2bc d44f 30be
00000170: 3914 20bf 5425 14bf 9fd5 e5bd 7efe b5be
00000180: fc34 35be aa04 77be 280d a3be 3157 0bbe
00000190: c0bd d0b9 5f3a 7fbe 437c 61bd a339 afbe
000001a0: dbf0 bcbd a907 85be ad5e b6be 9b0c 0cbe
000001b0: 2184 05bf 4c84 c4be aad3 1bbd 7501 b8be
000001c0: dfc4 5abe a0d0 1c3e c221 80bd 1489 21be
000001d0: a844 b6be 0b3d 05bf 3adb 37be 27c5 7dbe
-0.30676252 -0.37037063 -0.23673505 -0.17849003 -0.36309052 -0.6034757 -0.04750087 -0.14855371
-0.12126429 -0.4912501 -0.34720474 -0.49684978 -0.17198804 -0.0025626516 -0.7238509 -0.009327604
-0.076436095 -0.09496091 -0.31768167 -0.7743031 -0.3517297 -0.32231778 -0.3557468 -0.38866797
-0.360397 -0.16748388 -0.25380296 -0.46407285 -0.5755857 -0.35869935 -0.34100112 -0.062188037
-0.4043815 -0.27907795 -0.293897 -0.26773855 -0.45867145 -0.429749 -0.20730928 -0.50151736
0.106397316 -0.32017133 -0.43436626 -0.105732724 -0.27633095 -0.3625357 -0.3544422 -0.19674
-0.15012644 -0.275986 -0.2496191 -0.57143533 -0.2548418 -0.67363435 -0.06533716 -0.6473353
-0.16589099 -0.22312926 0.020578766 -0.047495022 -0.2940583 -0.28689113 -0.34542522 -0.009964529
-0.34298483 -0.30335915 -0.32582733 -0.3364035 0.125555 0.06075954 -0.22148293 -0.34103847
-0.3341526 -0.7007798 -0.63455665 0.041642476 -0.34205666 -0.35659394 0.021624973 -0.6543915
-0.31476718 -0.29287624 -0.21304172 -0.61649376 -0.40920344 -0.12256792 -0.30952725 -0.3287853
-0.28731132 -0.07159007 -0.023718141 -0.17217952 -0.6253086 -0.5786946 -0.112223856 -0.35545725
-0.17695993 -0.24122873 -0.31845975 -0.1360748 -0.00039814226 -0.2492461 -0.055050146 -0.3422366
-0.09225627 -0.25982407 -0.35619107 -0.13676684 -0.5215474 -0.38382185 -0.038043655 -0.35938612
-0.21364163 0.15313959 -0.06256439 -0.15774947 -0.35599256 -0.5204627 -0.17954722 -0.24782239

weight f4 [120, 120]
00000000: 50e5 153d 44c6 edbc f613 3fbd 83d6 99bd
00000010: 31e0 2abe d059 53bc 38b5 25bd f81f bebd
00000020: c3c0 b4bd 96aa 1dbe 9a20 41be 38be 10be
00000030: 3cf4 fdbd 3e90 c7bd daae b6bd 4488 873c
00000040: 806d 06bd 6a0e 86bd 90b9 6cbc 36ba a0bd
00000050: 2073 9d3d e6f4 2cbe 3c04 82bc 8f9e cabd
00000060: b2cc 92bd 5086 3bbe 5638 a03d 88b9 d6bc
00000070: 7773 a0bd 9be7 0abe 091f 13bd ec9d 0bbe
00000080: ca4a 8d3d 94e6 adbc 9c57 eebc 5c51 acbc
00000090: 7f27 dfbd 600e 8fbb 0282 22bd c151 c6bd
000000a0: c773 a2bd 241d dcbc 4e10 dabd 4fde 80bd
000000b0: cec5 2cbe 5ef7 39be 93eb 17be 628f 3ebe
000000c0: b626 58bd f45e 39be e315 70bd 7081 09bd
000000d0: b495 c0bd 45a5 30be 686e 64bd e4ea f8bc
000000e0: 69e0 d6bd 4421 8dbd 8014 20bc 37f5 ffbd
000000f0: f455 5e3d e50c 77bd 4440 0dbe 8393 b0bd
00000100: ac08 073d d6d4 3bbe 7729 88bd a460 b53d
00000110: f4e2 e4bd b66c aebd 954e 27be 1a2a 18be
00000120: 28a0 58bd c9c5 c9bd 4049 e03c 2493 bebd
00000130: 6064 66bb 2043 613b 2b14 04bd e488 0bbe
00000140: 5579 f0bd 647a a6bd 0cac 33be 44c1 3ebe
00000150: fbf2 14be 7cdd 8fbd ad78 87bd 06ab f3bc
00000160: 748e d3bd c012 d6bc 2574 fdbd 041e 0cbe
00000170: 88bc 22be 9a29 04bd 9579 ccbd 30df 3abe
00000180: a24b 03be 2865 293d bc13 ae3c 2098 43bc
00000190: 0636 2bbe f274 40be b0f6 5dbc e4e4 0c3d
000001a0: 8ac4 83bd 1875 8cbd 967c 1ebe 5d94 b0bd
000001b0: 8da2 42be 8ab2 39be d7c2 29be f0da 1abe
000001c0: ef44 8bbd 2693 d7bd 07fb afbd cee6 1cbd
000001d0: 6ed0 febc 7710 bdbd 4181 83bd 89db 96bd
000001e0: db13 57bd d0ea 05be ed35 4a3d 39b5 af3e
000001f0: 356d 163f f567 b8bf 2e67 80bf 9628 65bf
00000200: dc94 ba3e ce8d 37be 194a 84bf 31a8 a9be
00000210: cd11 0fbf 5ec1 0fc0 3d2c 8bc0 76cc d4bf
00000220: 478a c2bf 2c77 b43e 33ba 56bd b99f b5be
00000230: 0a0a 8e3d 6ffc dec0 c897 f6be 8775 b63f
00000240: 2586 ae3d 1aa4 08c0 cb74 a6bd c392 8ebf
00000250: 347c 91be afb2 8dbd 04a5 a83c 75c3 093f
00000260: a4f0 2d3d d8bf 21bf 73a5 f4bd 203c 6b3d
00000270: b760 813c a47b 403d 4ea8 88bd ecb4 f6bf
00000280: c9c3 e6c0 7aa6 8b3d e16f 33bf cf45 e2c0
00000290: 6849 a1bf 0a51 f9bd c808 abbf 2495 c8bf
000002a0: 21c2 5a3e 3d6b 14c0 2589 0ebe ddfd fbbe
000002b0: d4d9 bd3f 5836 c43e c24e 95be 950b c2be
000002c0: b8e3 aebf fec9 afbe 32c8 77be 5093 11c0
000002d0: a240 62bd 4d87 25be 531f 0ac0 46f4 a33c
000002e0: 900e 763d 73a2 433f 03fe b7bf 40c0 e7ba
000002f0: 433f 5dc0 6acd 3cbd 0244 a8c0 d6c1 3abe
00000300: 145d 49bf a2b0 283e 444d dd3c 6f74 12c0
00000310: f442 873d d15c a6bd 11ba cb3e 1246 91bf
00000320: dd48 37c0 b8b2 65bc 92f2 413e ad1a e83d
00000330: fa6e 18bf 6a92 bc3e 716c de3e d45a a33c
00000340: c5c4 683e eb66 20bf 08c8 00c0 1eaa e8c0
00000350: 9d91 42bf 6a68 103f 8f85 60bf 8c44 533e
00000360: 6739 b83d 0811 1e3d 40f9 163d 5175 f93e
00000370: 4fdc 43c0 f750 01bf bd10 cabf 2439 55bd
00000380: 89af cbbf 7841 f43c f991 2b3d 5e72 56be
00000390: 1229 8fbe b81e 873e 5fc4 f53f 482d 27be
000003a0: c440 acc0 4e74 36c0 a7fb 0ec0 abdd 0cbe
000003b0: 4038 ff3c 88f7 e23c 4b70 2a3f 48dc 903d
000003c0: e055 6bbd 79f0 a43e 54bb 873c d3d4 993d
000003d0: d8d3 debf 9b1d 95be 7225 83bf 3c31 043f
000003e0: 2356 d5bf e883 b83c 6d22 56c0 0f69 14bb
000003f0: 2b3d 84c0 8c4a dbbd e02d 0b3f 1bdd 173f
0.036595643 -0.029025204 -0.046649896 -0.07511618 -0.16687085 -0.012899831 -0.040456027 -0.09283441
-0.08825829 -0.15397105 -0.18860093 -0.14135063 -0.124001 -0.09744309 -0.08920069 0.016544469
-0.03281927 -0.06545718 -0.014448538 -0.07848017 0.07687974 -0.16890296 -0.01587116 -0.09893524
-0.07167949 -0.18312955 0.07823245 -0.026211515 -0.07834523 -0.13564913 -0.03591827 -0.13634461
0.068990305 -0.021228112 -0.02909451 -0.021034889 -0.10896205 -0.0043657273 -0.039674766 -0.09683562
-0.07932239 -0.026869364 -0.10647641 -0.06292402 -0.16872332 -0.1816077 -0.14835958 -0.18609384
-0.052771293 -0.18102628 -0.058614623 -0.033570707 -0.094035536 -0.17250545 -0.055769354 -0.030385442
-0.104920216 -0.068911105 -0.009770513 -0.12497943 0.05428119 -0.06031503 -0.13794047 -0.08621886
0.032967255 -0.18342909 -0.06648534 0.08856323 -0.111761004 -0.08516829 -0.1633857 -0.1485981
-0.052887112 -0.09852178 0.027378678 -0.093054086 -0.0035155043 0.0034372285 -0.032245796 -0.13626438
-0.11741892 -0.08128813 -0.175461 -0.18628412 -0.14545815 -0.07024667 -0.06614814 -0.029744636
-0.10329905 -0.026131988 -0.123756684 -0.13683325 -0.15892231 -0.032266237 -0.099841274 -0.18249202
-0.1282182 0.041356236 0.021249644 -0.011938125 -0.16719827 -0.18794611 -0.013547584 0.034397975
-0.06433971 -0.06858271 -0.15477213 -0.08622048 -0.1900732 -0.18134513 -0.16578232 -0.1512258
-0.068002574 -0.10526113 -0.085928015 -0.03830605 -0.031105246 -0.09231656 -0.064211376 -0.07366092
-0.05250917 -0.13077855 0.049367834 0.3431795 0.58760387 -1.4406725 -1.0031488 -0.89515054
0.36441696 -0.17925188 -1.0335113 -0.33136132 -0.55886537 -2.2461772 -4.34915 -1.6624897
-1.5198449 0.3524717 -0.052423667 -0.3547342 0.069355085 -6.9683146 -0.48162675 1.4254616
0.0852168 -2.135016 -0.08127745 -1.1138538 -0.28415072 -0.06918847 0.020586498 0.5381387
0.04246582 -0.63183355 -0.119456194 0.057430387 0.015793188 0.046992913 -0.066727266 -1.9273963
-7.2113996 0.06818862 -0.7009259 -7.0710216 -1.2600527 -0.1217366 -1.3362055 -1.5670514
0.21363117 -2.3190453 -0.13919504 -0.4921712 1.4832101 0.3832271 -0.2916165 -0.3789946
-1.3663244 -0.34333795 -0.24197462 -2.2746162 -0.05523742 -0.16164894 -2.1581619 0.02001394
0.06007248 0.7641975 -1.4374393 -0.0017681196 -3.4569862 -0.046094336 -5.2583017 -0.18238005
-0.7865765 0.1647363 0.027014382 -2.2883565 0.06604567 -0.08123172 0.39790395 -1.1349509
-2.8638222 -0.014019661 0.1894019 0.11333213 -0.59544337 0.36830455 0.4344211 0.019940771
0.22731312 -0.6265704 -2.012209 -7.2707663 -0.7600344 0.56409323 -0.87703794 0.20631617
0.08995324 0.03859046 0.036858797 0.48722318 -3.0603216 -0.5051417 -1.5786358 -0.052056447
-1.5912944 0.029816374 0.041887257 -0.20942065 -0.27961022 0.26390624 1.9200553 -0.16325867
-5.382906 -2.8508487 -2.2341096 -0.13756435 0.031154752 0.027705923 0.66577595 0.07073265
-0.057454944 0.32214716 0.016568817 0.07511296 -1.74084 -0.2912415 -1.0245802 0.51637626
-1.6666912 0.022523835 -3.3458512 -0.0022645628 -4.132467 -0.10707578 0.54366875 0.59321755

bias f4 [120]
00000000: 04f1 8abd cef7 c93e d999 6c3e 0c4c e8be
00000010: 475c 14be 5020 a0bc eb77 dfbd e0eb 28be
00000020: 849c 15be f912 a03e 0779 c5bd 59e7 e0bd
00000030: ed49 08be 4310 243e 7859 a63d f106 23bd
00000040: 55ca 14be c621 30be f50f 5c3e 0a15 09bd
00000050: f455 e2bd 2030 ee3c 09d7 e0bc 8425 1d3f
00000060: 06cd ebbd 3048 8bbc c878 61be 5ddf 0abe
00000070: 813d d23e 7600 bfbd ceff 38bd 00ac 233e
00000080: 46c6 9abd 07a2 b1bd f757 973e fabe 37be
00000090: c04b 11be 44a2 8f3e fa9c b6bd c06a 84be
000000a0: 6b01 983e 86d1 bdbd 825c 2abe 1874 4bbd
000000b0: 9512 e0bd 5c20 adbc 8407 bcbd 3c70 19be
000000c0: b2f5 c3be e3d9 d3bd fc58 c6be da49 ce3e
000000d0: 276e c8bd 1a1a ef3e 56ed 2dbe e8da d53e
000000e0: 4555 1fbf 1ed2 4ebd 6936 f33e 4a13 013d
000000f0: 7a79 3abe 9ed7 8d3e 6800 30be 2e86 55bd
00000100: ffd8 2cbe ec9b 3cbe 9849 1abe 3816 36bd
00000110: 7f96 90bd 81aa fdbd 18dd 02be cb6e 19bd
00000120: 0888 46bd 4b7b 81be ebf9 843e a89f 6cbc
00000130: 3e0b 56bd 8281 d93d fa57 2d3e eb25 a83d
00000140: f75d 7a3e d164 9abe 4cc9 863e f3c2 823c
00000150: 9727 793e a571 ecbd 2c99 28be 8e3f a4bd
00000160: 0c31 00be d23c db3d cab0 a0be ecc2 ac3e
00000170: bac3 e4bd ded0 15be c007 edbd 562f 8ebd
00000180: 289c 26be 763e 3cbd 32b0 e6bc 4823 f8bc
00000190: 5580 8dbd aadc 3cbe a643 6fbd c4ec e3ba
000001a0: a49e 36be 18d1 2c3d 3627 dfbd 75cd b03e
000001b0: 20bd e9bd 91ba 293f 74d3 97bd 2c9f b1bd
000001c0: 48b8 08be 54e4 933e c4a6 2bbb 1303 9b3e
000001d0: c95d 91bd 8328 1cbe d61d 0cbe 92a4 0ebd
-0.06784251 0.39446872 0.23105563 -0.4537052 -0.14488326 -0.019546658 -0.109115444 -0.16496229
-0.14610487 0.31264475 -0.09642225 -0.10981626 -0.1330945 0.16021828 0.081225336 -0.03980154
-0.14530309 -0.17200384 0.21490462 -0.03346733 -0.110515505 0.029075682 -0.027446287 0.6138537
-0.115137145 -0.017002195 -0.2201873 -0.13561769 0.4106255 -0.0932626 -0.04516583 0.15983582
-0.07557349 -0.086734824 0.295593 -0.17943946 -0.14189053 0.28053486 -0.0891666 -0.25862694
0.29688582 -0.09268479 -0.16636851 -0.049671263 -0.10941044 -0.021133594 -0.09181121 -0.1498422
-0.38273388 -0.10344293 -0.38739765 0.4029072 -0.09786635 0.466996 -0.16985068 0.41768575
-0.62239486 -0.050493352 0.4750245 0.031512536 -0.18210402 0.27703565 -0.17187655 -0.052129917
-0.16879652 -0.18418854 -0.15067136 -0.044454783 -0.07059955 -0.12386037 -0.12779653 -0.037459176
-0.048469573 -0.25289378 0.25971922 -0.014442362 -0.052256815 0.10620405 0.16928092 0.08210357
0.24449907 -0.30155042 0.26325452 0.0159621 0.24331509 -0.115451135 -0.1646468 -0.080199346
-0.1251871 0.1070496 -0.3138488 0.33742464 -0.111701444 -0.14630458 -0.11573744 -0.06942622
-0.16270506 -0.045958005 -0.028160188 -0.03029026 -0.06909243 -0.18443552 -0.058414124 -0.0017389287
-0.17833954 0.042191595 -0.10896151 0.3453175 -0.11413026 0.663003 -0.07413378 -0.08672938
-0.13351548 0.28885138 -0.002619193 0.30275783 -0.07097966 -0.15249829 -0.13683257 -0.034824915

weight f4 [120, 120]
00000000: 9c95 bb3c e997 3abf 64ae fd3e a437 96c0
00000010: 783d 5c3c 68f9 de3c cefa 013d d736 2cbe
00000020: 0a2b 073e b156 9c3d 3443 a63c 5a32 523e
00000030: 8814 873d 665d 82bf 7e6b 6ebf ba3a cebf
00000040: 1b75 323e c015 cdba 3289 82be 9918 ea3e
00000050: e904 933d 6314 45c0 c73c 003e d82f 67be
00000060: 1a6f c43d 7419 273e 6ad3 c5bf 78dc 153e
00000070: 0562 1ebf 1a8d 343e 7d3f c2bb cd90 35c0
00000080: 1a1e 3c3e d06a ac3c 19c5 ddbf 217b 313d
00000090: ff93 eb3d e230 8abf f418 b03d b8d6 f83e
000000a0: 9c1f 63bf b452 5c3d 20fd 06bc 1dfd 3bbd
000000b0: f48c f5bc e615 023d f228 f23d c950 503d
000000c0: 6f21 7e3e 4bef 883d 7154 c3c0 5470 a4bf
000000d0: 7425 163e 0533 92be 02a0 013d c2b1 63be
000000e0: 63a5 9bc1 ec70 3d3e 8e45 02bf cc6a 9f3e
000000f0: 12bb 33bd 721a 25bf d513 4d3d f3d8 bd3d
00000100: 09a8 e1be c3bd 9bbd c0d7 28bc f5cf 5cbf
00000110: 9ada 403e a059 a23c c9d4 91bd ebc5 bc3d
00000120: 8f2c 713d 3f94 b63d dace 0f3f e405 8b3c
00000130: 10de 973d a82c a83e 2030 a2bf b6a0 dbbe
00000140: 014b c2be 9398 c0be 5169 9cc0 c611 8dbb
00000150: 1b08 76be 923a 253d e82c 56bc c5c6 43bf
00000160: 614d f5bd e002 9cc0 46dd 62c0 ef57 2dbe
00000170: 1e1e 153e 79db bc3d 6222 d1c0 1191 013e
00000180: d09e 263e c66b 0a3e 7b5a e73d 98ed 0dc1
00000190: c4e5 033d b46a 3c3e 4eb3 0d3e f4b7 89be
000001a0: a72e b4bd f98d 41be e828 0dc0 7c3a dbbd
000001b0: e5d5 e63d 964f cf3d e0ab aebd d201 fbbe
000001c0: 416f fc3d fca4 d7be 9ac2 aabe 9e85 763e
000001d0: 96ec 143e b0a0 933d 02c7 b03d eb32 28c0
000001e0: f8e7 6cbc 770c 0ec0 03eb 703f d30a 3940
000001f0: 122b 09bd 3aa1 2cbe f782 dcbd f598 afbd
00000200: f86c eabd 4cf1 91bf 0ca6 9fbd fc76 193d
00000210: 0674 fabd 64bd 973d d408 c3be fee6 443f
00000220: 78a6 f7bd 8a76 00be 750c cdbe c10e 1d40
00000230: ecd0 f03c 2717 c23d 9e02 e1bf 8baa 77bf
00000240: a016 15bd 795f 10be 13bc 78bf 408e b6bd
00000250: 5109 91bf 84f7 8fbd c97f 5abe f089 fabf
00000260: d68b 03bd c3fa 98bd bcea 1dc0 e07b cbbd
00000270: 05d9 91bc a831 06bf d283 25be 97ca 293e
00000280: 627f 68bf 6e30 03be f449 5ebe 69ab 0fbe
00000290: 306e 68bc e6a5 02be 3302 7cbe 5886 113d
000002a0: 552c 23be 4681 29be 1a3e 97bf 25f3 223d
000002b0: 522b 39be 6590 a93e f03e dabc 2766 32bd
000002c0: f533 893f 4c0a 00be 9de8 58bf 7bb3 5cc0
000002d0: 9464 20be 9d8c 11c1 a45d ce3b 8d6c cbbd
000002e0: a76a 0a3e 325a bcbd 0080 43bc 3056 9cc0
000002f0: 679c eabd 808b 43bb f5f6 373d 4833 67bd
00000300: d2d2 70bd cdfa 23be 8d14 c43e e6f7 9fbd
00000310: 688a 0fbc f9ca c7c0 b101 25bf 4ba4 8dbf
00000320: 4c6b fcbf ca8f 0ec1 b4b5 dfbf 3724 083f
00000330: e894 ed3c 9555 13be b24c d83c 317d 98be
00000340: cb30 bebd 20d4 c53e 1f08 c6be 7d11 a1bf
00000350: 16bc 20bd 3f3f 03be 60f1 0abf b4ba 19be
00000360: 36e9 3e3d 71de ebbd feca 2dbe 6576 7abf
00000370: a89d 7fbc b32f ebbd 1093 18be 4dad 35c0
00000380: 9c1b a1bd b1b2 c6bd 0888 92c0 7616 3bbf
00000390: ea7a 91bd c7eb e53e 420d 13be 716a b4bf
000003a0: 7cac 23be 41c0 93be ed1d 673d e2fa 8dbf
000003b0: 3ba9 0fbe 2065 32bc 61ee 8abd c1e4 393f
000003c0: 748b f73d 913c 2fc0 e9ac 933e 1dc5 96c0
000003d0: eda5 e23d 3cd0 143e 8087 e23d 7867 03be
000003e0: 525f 263e 97ba a1be b081 3b3e 53ea fc3d
000003f0: c063 f03c fb6f a23f c251 3bbf afb6 eb3e
0.022898488 -0.72888047 0.49547112 -4.694292 0.01344239 0.027218536 0.031733327 -0.16817795
0.13200012 0.076337226 0.020295717 0.2052702 0.06595713 -1.0184753 -0.9313277 -1.6111672
0.17427485 -0.0015646741 -0.25495297 0.45721892 0.07178671 -3.0793693 0.12523185 -0.22576845
0.095915034 0.16318303 -1.5455143 0.14634883 -0.61868316 0.17631951 -0.0059279785 -2.836963
0.18370858 0.021047026 -1.7325774 0.043330316 0.115028374 -1.0796168 0.085985094 0.48601317
-0.8872011 0.05378981 -0.008239061 -0.045895685 -0.029974438 0.031759165 0.11824216 0.050858293
0.24817441 0.066862665 -6.104058 -1.284678 0.14662725 -0.2855455 0.031646736 -0.22235778
-19.455755 0.18500108 -0.5088738 0.31136167 -0.043879576 -0.6449348 0.05006774 0.092698954
-0.44073513 -0.076045536 -0.010305345 -0.8625482 0.1883339 0.019818127 -0.07120664 0.09217437
0.058880385 0.089149944 0.56175005 0.016970582 0.07415402 0.3284657 -1.2670937 -0.4289605
-0.37947848 -0.37616405 -4.887856 -0.0043050973 -0.2402653 0.04033906 -0.01307223 -0.76475173
-0.119776495 -4.875351 -3.5447555 -0.16928075 0.1456227 0.092215486 -6.535447 0.12652995
0.1627152 0.13517675 0.11296555 -8.870506 0.032201543 0.18400079 0.1383793 -0.26898158
-0.08797961 -0.18901815 -2.2056217 -0.107045144 0.11271266 0.10122602 -0.08528876 -0.49024826
0.123259075 -0.4211806 -0.33351594 0.24074408 0.14543375 0.07208383 0.08631708 -2.6281078
-0.014459603 -2.2195108 0.941086 2.8912857 -0.03348834 -0.16858378 -0.10767167 -0.08574096
-0.114465654 -1.1401763 -0.07795343 0.037466988 -0.12229161 0.0740917 -0.38092673 0.76914966
-0.12092298 -0.12545219 -0.40048566 2.4540255 0.029396497 0.09477072 -1.7578924 -0.967446
-0.03639853 -0.1409892 -0.9716198 -0.08913851 -1.1330968 -0.07029632 -0.21337809 -1.9573345
-0.03211578 -0.07469704 -2.467452 -0.09935737 -0.017803678 -0.5241952 -0.16163567 0.16581188
-0.9081937 -0.12811443 -0.21707898 -0.14030232 -0.014186427 -0.12758598 -0.24610214 0.03552851
-0.1593488 -0.1655322 -1.1815827 0.039782662 -0.18082932 0.33117977 -0.026641339 -0.04355445
1.0718981 -0.12503928 -0.8472994 -3.4484546 -0.15663368 -9.096829 0.006297784 -0.09932814
0.13517247 -0.09196891 -0.011932373 -4.885521 -0.11455613 -0.0029837787 0.04491325 -0.05644539
-0.058794804 -0.16013642 0.3829693 -0.07810955 -0.008761026 -6.243527 -0.64455706 -1.1065763
-1.9720244 -8.910105 -1.7477326 0.5318026 0.029001668 -0.14388116 0.026403759 -0.29783013
-0.0928665 0.386384 -0.3867807 -1.2583462 -0.039241873 -0.12817095 -0.5427456 -0.15012628
0.046609126 -0.11517037 -0.16971967 -0.97836906 -0.015601553 -0.11483707 -0.1489985 -2.8387024
-0.07866594 -0.097020514 -4.5791054 -0.7308115 -0.07103522 0.44906446 -0.14360526 -1.4094983
-0.15983766 -0.28857616 0.056425024 -1.1092188 -0.140294 -0.010888368 -0.067837484 0.72614676
0.120871454 -2.7380717 0.28842857 -4.7115617 0.11066804 0.1453256 0.11061001 -0.12832439
0.162473 -0.3158767 0.1831119 0.12349381 0.02934444 1.2690424 -0.7317163 0.46037814

bias f4 [120]
00000000: 950a 8abf f2d8 24bf 014d aebf 000a 36bf
00000010: b947 cbbf cf10 35bf f1f6 59bf 89fc 82bf
00000020: 994e e2be 5236 82bf 8ee5 30bf 4a30 69bf
00000030: 48e5 3bbf 835d 11bf 2c07 29bf 338a 74bf
00000040: 065f 7bbf ffcc 9bbf 1c47 95bc 7553 53be
00000050: f2c6 99bf 9c7e 7cbf c6a3 dbbe 11c4 8abf
00000060: bd1d 57bf cdab 85bf c3b8 10bf 256d 5cbf
00000070: d49d 5dbf 862b 86be fc4c b5bf 06a3 71bf
00000080: 6f50 2abf 3e95 0fbf d6d7 5cbf f0ec 2ebe
00000090: 4185 17bf 084a b2bf 7a3d 50bf 499c a4bf
000000a0: 3f09 edbe 2add a5bf 8a43 d1bf bea5 063f
000000b0: 15d8 79bf 26a8 51bf cc32 8dbf 2ab4 94bf
000000c0: 325c 8bbf 2bd1 2ebf cecf 5cbf 1e0e b1be
000000d0: fbed a8bf caa7 9dbf e684 0abf 6b27 87be
000000e0: 3c56 aebf 6229 b4bf 38dd 5ebf de83 6ebf
000000f0: 018e 0bbf 596c 82be 2992 3cbf 77ac d7bf
00000100: 7433 48bf fcfc 4cbf 604c b2bb f41c 35bf
00000110: 3589 4cbf 1d4f acbf 53fa 9ebf bb8a 21bf
00000120: ffb3 1abf 5915 36bf 804c 8abf a727 a3bf
00000130: 2e8e bebf a678 69bf fcec 2fbf c607 95bf
00000140: da2a b2be 8763 59bf c145 68bf a421 8dbf
00000150: 9c9a b8bf f2db b1bf 7459 13bf 88a5 81bf
00000160: 073f 56bf a19d 52bf d351 04bf cf77 07bf
00000170: d7ff ccbf d4d8 8cbf 334f 29bf f6d1 76bf
00000180: 4d30 87bf fb68 8ebe 7be6 74bf 9821 6fbf
00000190: 14a3 71bf e278 dbbf c760 49bf 148b 3cbf
000001a0: 0983 2bbf b545 24bf a518 6bbf 7eb0 2bbf
000001b0: 44f5 64bf b97b a0be 41d5 73bf f664 3ebe
000001c0: 4b14 b2bf b1be debe 79cd 8bbf 0698 32bf
000001d0: 188c 93bf 7414 babf 5e15 adbe e657 00bf
-1.0784479 -0.6439353 -1.361725 -0.7110901 -1.5881263 -0.7072877 -0.8514243 -1.0233318
-0.4420059 -1.0172827 -0.6910027 -0.9108931 -0.7339673 -0.5678331 -0.6602657 -0.95523375
-0.9819187 -1.2171935 -0.018222384 -0.20637305 -1.2013838 -0.9863069 -0.42898387 -1.0841085
-0.8402975 -1.0443054 -0.56531924 -0.8610404 -0.8656895 -0.2620508 -1.4164119 -0.9438938
-0.6652898 -0.560871 -0.8626684 -0.17082572 -0.59187704 -1.3928843 -0.81343806 -1.2860194
-0.46296117 -1.2958119 -1.6348736 0.5259665 -0.9759534 -0.818972 -1.1031127 -1.1617482
-1.0887511 -0.68287915 -0.86254585 -0.34581083 -1.3197626 -1.231683 -0.54109037 -0.2639726
-1.3620067 -1.4075129 -0.87056303 -0.93169963 -0.54513556 -0.25473288 -0.7366052 -1.6849507
-0.7820351 -0.80073524 -0.0054412335 -0.70747304 -0.7989686 -1.3461643 -1.2420143 -0.6310231
-0.604309 -0.71126324 -1.0804596 -1.2746476 -1.488714 -0.9119972 -0.68720984 -1.1642997
-0.34798318 -0.8491749 -0.90731436 -1.1025891 -1.4422183 -1.3895247 -0.5755837 -1.0128641
-0.8368992 -0.8227177 -0.51687354 -0.5291719 -1.6015576 -1.1003671 -0.66136473 -0.96414125
-1.0561615 -0.2781447 -0.95664185 -0.93410635 -0.9438946 -1.7146266 -0.78663296 -0.73649716
-0.6699682 -0.64168864 -0.9183448 -0.6706618 -0.89436746 -0.31344393 -0.95247275 -0.18593201
-1.3912443 -0.4350486 -1.092208 -0.6976322 -1.1527128 -1.4537492 -0.33805364 -0.5013412

weight f4 [14, 120]
00000000: 494e 88bf dd0e f73d 0f3e f0be 557b 85bf
00000010: 6b99 9ebf 88fd ad3f 081f 123c 0c7f bf3f
00000020: 65b8 b8bf 3ba2 2fbf 8f74 00bf a9a8 bbbf
00000030: 2a11 e83d 6a40 1fbf 4a47 be3f f8d6 36bf
00000040: 3fb1 cbbe 2c32 ef3e de83 26be b0a1 15bf
00000050: 25e8 db3f e5fd 62bf 7178 0440 b807 65bf
00000060: 9dfb 1240 246c 0f3f 14dc 9cbf 60df 683c
00000070: 5893 5a3f 27b3 463f b8ff f63f 3041 26bf
00000080: 5e34 523f d24d cfbf 827e 5bbf 1bde 39bf
00000090: cb57 d7bf 87cc 0740 8d4f 97be e9d0 4d3d
000000a0: 1dd6 a43e 4168 a2be 4ae2 3ebf 3f2d 49bf
000000b0: b48d 053f bb41 8a3f 91b3 a6bf c3a7 8d3f
000000c0: c1c9 c33e d95e e5bf 6c4d 4e3f 3dba cfbf
000000d0: 8365 b93f 351b 0740 fb45 c53e 02b7 ff3f
000000e0: 4bb7 483f 353f 75bf 1cdb d63f 6a51 db3f
000000f0: a1e5 ab3f 3899 f6be 90b8 b33f 2f28 8dbd
00000100: 3042 9abf a3c5 763f 53b5 663f 7995 67bf
00000110: 9faf 8abf 2088 1cbf 8ece 4a3d 70bf c83f
00000120: e4d3 0840 b914 afbf 4dce 56bf 3f4a 0dbf
00000130: 5560 873f 1507 b33f 3750 8fbf d2ba 143d
00000140: 8905 0bbf 1e85 73bf dcdc 84bf cecb d73f
00000150: 4578 393e e789 39be 0779 96bf 645c a13f
00000160: 0f39 353f f480 3ebf fef7 01c0 1abc 1bc0
00000170: 8f86 c93d 57c3 913d 44dc e8bf 00c1 91bf
00000180: 064a 853e 1b33 be3f feb9 163f bb85 67bd
00000190: 4523 3a3e 5213 bc3f e405 02c0 84ce 8ebf
000001a0: 836d e53e ca47 e5be ab70 0cbf 11c1 cdbe
000001b0: 0a6f d63f 871a 5cbf ad8d 793e 78e1 e13f
000001c0: 0d65 45bf d0c7 5a3f 2cdc 00bf 71e8 93bf
000001d0: 0d73 a9be 0254 cbbe c3cf eb3f d7dc f3bf
000001e0: 9272 65bf b6ad 76bf 8981 cebf 93aa 3cbf
000001f0: 5f61 2abf e870 82be 40e3 6bbf 1c6d 9e3e
00000200: 07fa 3dbe 9e0c 203f df37 d8bf 7748 75bf
00000210: cdb4 03c0 0db0 05be 7f91 403f 3d4f 71bf
00000220: cbe0 993f 4dd8 b6bf 7412 ea3d f184 92bf
00000230: 9706 933f 23d5 433e 5d17 2b3f 1dc0 593f
00000240: e463 963f 3008 79be 76cb 873e e2f4 ff3f
00000250: 9729 3abf f0a6 653e 28d5 85be bbbd 1d3f
00000260: f761 81be fa17 a4be 5266 1e3f 5865 0b3f
00000270: 3342 b8be 70a1 943f 4c7d ecbe f6dd 0f3f
00000280: f613 263f 2999 cbbf 2f27 01bf 230b c03f
00000290: 69ac c83e 735b df3e a6c9 823f f38e 773e
000002a0: 6f05 403f 9d07 2d3f dbe5 3d3f b336 a8bf
000002b0: 56e5 aebe d8e1 893f 3260 323e 0279 8c3f
000002c0: a6ed 133d ffa8 9e3f 1f1e 903f 4ccc 803f
000002d0: 46ff 0cbf f847 13bc ffa6 9bbe 9f62 58be
000002e0: a941 a73f 8fb1 01bf b18f 8b3f 0d87 b33e
000002f0: dad4 9ebf d016 d03d 3e56 7c3e 7d67 013f
00000300: 649e be3d df82 683f 7c33 a83f d823 d43e
00000310: c0b6 c33e 6708 df3e d7c0 a1bd 4818 8ebf
00000320: 4ea6 0bbf 93cf a63f 7c10 7abf 25c0 523e
00000330: 73d6 84bf f856 fabf 853f f83d 7eb2 243f
00000340: d0f9 6bbf 9cce 89bf fc5e e53d 8e64 b03e
00000350: a123 afbf 0ee0 97bf 386a 5d3f 6f94 a03f
00000360: 8464 87bf b84b 143e 1b7d 123e b01e f2bf
00000370: dce2 4ebf 69ac 943f 4581 acbf ba61 6fbf
00000380: 4687 af3f a091 273f c104 cabe ac0a 013f
00000390: b2d5 fd3e 36b3 e4bf dacf 1ec0 38ff ba3e
000003a0: 77a0 933f 3bb2 163e 2b53 fabd f090 91bf
000003b0: 4e36 27c0 842a a63c 1665 923f 678c 67be
000003c0: da7b 30be 9364 11bf 88e4 68bf c05e d03e
000003d0: c0f2 4bbf 4c7e 8fbf 732d adbf 3055 0fbf
000003e0: 735f 29bf 5e81 3fbf 3554 b5bf 1731 a33f
000003f0: d912 7cbf f64a 7ebf 19dd a7bf 9588 a4bf
-1.0648891 0.12063382 -0.46922347 -1.0428263 -1.239057 1.3592997 0.008918531 1.4960647
-1.4431273 -0.6860692 -0.50177854 -1.4660846 0.11331399 -0.62207663 1.4865506 -0.71421766
-0.39783666 0.46717966 -0.16261241 -0.5844984 1.718022 -0.8866866 2.0698512 -0.894649
2.2966073 0.56024384 -1.2254663 0.014213413 0.8538108 0.77617115 1.9296789 -0.6494322
0.82111156 -1.6195624 -0.8573991 -0.7260453 -1.6823667 2.1218584 -0.2955288 0.05024806
0.32194605 -0.31720164 -0.7456404 -0.78584665 0.52169347 1.0801309 -1.3023549 1.1066822
0.38239864 -1.791957 0.80586886 -1.622871 1.4484104 2.1110356 0.38529953 1.9977725
0.7840468 -0.9579957 1.6785617 1.7134221 1.3429452 -0.48163772 1.4040699 -0.0689243
-1.2051449 0.9639532 0.9012043 -0.9046245 -1.0834845 -0.6114521 0.049513392 1.5683422
2.1379328 -1.3678199 -0.8390854 -0.55191416 1.0576273 1.3986536 -1.1196355 0.03631098
-0.5430532 -0.95124996 -1.0379901 1.6859071 0.18112285 -0.18119012 -1.1755685 1.260632
0.7079019 -0.74415517 -2.0307612 -2.4333558 0.09840118 0.07117336 -1.819222 -1.1387024
0.26033038 1.4859346 0.5887755 -0.05652402 0.18177517 1.4693396 -2.0316095 -1.1156774
0.44810113 -0.44781333 -0.5485942 -0.4018636 1.6752636 -0.8597798 0.24370451 1.7646933
-0.77107316 0.8546114 -0.50335956 -1.155531 -0.3309559 -0.3971253 1.8422779 -1.905177
-0.89627945 -0.9635881 -1.6133281 -0.73697776 -0.66554826 -0.25476766 -0.9214363 0.3094262
-0.18552409 0.6251925 -1.689205 -0.958137 -2.0579102 -0.1305544 0.7522201 -0.94261533
1.2021726 -1.428476 0.11429301 -1.144682 1.1486386 0.19124274 0.66832525 0.85058767
1.1749234 -0.2431953 0.26522416 1.9996607 -0.7271971 0.22426963 -0.26139188 0.6161763
-0.25270054 -0.32049543 0.6187488 0.54451513 -0.35988006 1.1611767 -0.46189344 0.5619806
0.6487421 -1.5906116 -0.50450414 1.5003399 0.3919404 0.43624458 1.0217788 0.24175625
0.7500829 0.6758974 0.74178857 -1.3141693 -0.34159344 1.0772047 0.17419508 1.0974429
0.03611531 1.2395324 1.1259192 1.0062346 -0.55077016 -0.008989327 -0.30400845 -0.21131371
1.3066913 -0.5066156 1.0903226 0.35063973 -1.2408707 0.10160601 0.24642274 0.50548536
0.09307554 0.90824693 1.3140712 0.41433597 0.38225365 0.43561098 -0.078981094 -1.110116
-0.54550636 1.3032097 -0.97681403 0.2058111 -1.0377945 -1.9557791 0.121214904 0.6433486
-0.9217806 -1.0766177 0.111997575 0.34451717 -1.3682748 -1.1865251 0.864902 1.2545298
-1.057755 0.1448201 0.14305536 -1.8915615 -0.8081491 1.1615115 -1.347695 -0.93508494
1.3713157 0.6545658 -0.39456752 0.5040691 0.495771 -1.7867191 -2.4814363 0.3652284
1.1533345 0.14716427 -0.12222894 -1.1372356 -2.6126895 0.020283945 1.1437099 -0.22612153
-0.17234746 -0.5679409 -0.9097371 0.4069729 -0.7966728 -1.1210418 -1.3529495 -0.5598936
-0.6616127 -0.74806774 -1.4166323 1.2749356 -0.9846626 -0.9933313 -1.3114349 -1.2854182

bias f4 [14]
00000000: 5dba 2d3e 790d f0bd 8321 aa3d d7f0 9d3d
00000010: 9e61 803c 5b42 e53d 3283 88bd c6c1 4dbb
00000020: 9089 6fbd 5af5 ac3c 16f3 ba3c 3c32 09bd
00000030: 7cf3 0cbd fe8d d53b
0.16965623 -0.1172132 0.08307173 0.07711952 0.015671548 0.11194297 -0.066656485 -0.0031396016
-0.0584808 0.021113086 0.02282099 -0.033495173 -0.034411892 0.006517171
