python/mod/mod2.pth (torch, 133647 bytes, 8 tensors)

weight f4 [120, 14]
00000000: f2e6 8c3f 3c3a 76bd dc0f 36bf 5bdc 03c0
00000010: 9658 c43f 09b2 80bf 0772 e43c 9b51 853f
00000020: 7f01 553e ece4 163d c986 423f 566b a63e
00000030: 93e7 76bf 26ff b4bf f2ab 633f fa6e 1a3f
00000040: 21c8 80be 98a0 473f b8a2 97bf 33c8 17c0
00000050: 90b3 153f 0b2c eb3d e178 c0bf d78e 463f
00000060: a17c 96be cbd6 cbbf f023 f7be e01c b53e
00000070: 9c01 9f3c e2c9 58bd 3f13 f93d faaa 1b3d
00000080: 45f6 a3bd 4d05 dd3d 5cb7 7fbd 9b6a fdbd
00000090: ae32 5f3e 3a5b 5dbe b25e abbd 06fe 323e
000000a0: ce22 3ebe c8e6 b83e ba31 653e e44e 79bf
000000b0: 1146 99bd 5c08 2c3f 859c ddbf 668e e33f
000000c0: 59e5 4a3f db85 e3bf a03a 54ba e059 de3f
000000d0: 2b29 7b3f 2677 873e 1a90 2840 cfb9 35c0
000000e0: f4d3 3abe e1b1 8a3f 844f 35bd 16b2 1abe
000000f0: 6d6b 89be 557d 81bf 0b32 97bf 3500 8a40
00000100: 4fe6 ab3e 070a bdbf 3348 d83f 03a9 cebf
00000110: ba37 26bf cb00 eebd 9491 4a3f 8aaf 19bf
00000120: faf2 aebe d707 5c3f 1c14 a9bd 879a e7bf
00000130: 81fb 3d3e 8457 9c3f b8f9 4a3f d701 cdbe
00000140: 9b99 8e3f b05e d73f b4b9 bbbf 8f92 a040
00000150: 64cb 0abf 5380 4940 7f92 573f b3d3 a9bf
00000160: b99a f7bf 2f5b f7bf f2a1 723e 72c2 79bf
00000170: 0781 503f 8442 a8bf 95e2 fe3e 751c 423f
00000180: 2b43 b4bf 4e90 bc3e 623c 1fbf 9bd7 efbd
00000190: 580a 4bc0 8475 1d3f 464d 7b3f 4b56 3a3f
000001a0: dbdb 123e a8e6 0a3f 98df 81bf ae07 f6be
000001b0: b04a a13d 1699 c3be ad8c f1be b162 133f
000001c0: 1088 3cbf 60f2 3b3f a3b9 bd3e aa2c b6bf
000001d0: 8625 2840 8b04 14be f5c8 613f cb8b 2ec0
000001e0: c0a7 8cbe da1c 27bf a0cc 66be ef2d 3e3f
000001f0: 418f d8bf 9e3d 8c40 7f1b 943f c0aa 5abd
00000200: fb89 e2bf 5b6d cd3e 9de1 40be 2eaa f6bf
00000210: 656c 2b3f ac51 473f 7a46 b4bf 9067 b13f
00000220: 0aa3 113f bc2e cabd a8bd 2540 f233 d2bf
00000230: 2149 1bbe 959b 2b3f 6b4f 28bf aca7 bcbe
00000240: b2af 90be 9e6c 0ebe de44 6ebe dab2 d53e
00000250: 7a53 9dbd 2eeb 65bf 6d43 3fbf efe8 2a3f
00000260: 8c72 2c3e 011c 2e3f ee0d 4ebd c626 513e
00000270: 2856 ecbd b8de b5bc b0a5 18be 1dd4 673e
00000280: c6be 8dbe 0637 953e 1c76 853c 56d8 95be
00000290: 1acb a9bd 0637 8dbe c894 c4be 3851 dcbe
000002a0: f4fb d8bd 3a0b 983f 657e f4be 6edd 833f
000002b0: a8ca 6f40 1fc6 87bf 8fb9 43bf 24cd 7e3f
000002c0: 5a1b 8438 f1a3 e83d 5da0 46bf aef0 78be
000002d0: 29bc 1fbf 79ca 7d3f 5bf2 f93e 9252 2b40
000002e0: 3f53 81bf 8d39 51bf 7549 ca3f 65b6 9fbf
000002f0: ebc6 3dbf 1279 2740 b138 52bf 3ce0 253d
00000300: 6086 debf aebf 9bbf 5682 00bf 8b31 4c3f
00000310: 979d a03f 88d4 953f c204 0f3f 99d2 06be
00000320: 88d1 213e d64d 53bf 90e8 a63d 4e84 8fbf
00000330: 6210 ac3f 2e68 e7bf f398 2c3f 8284 d93f
00000340: e7a6 753f 04f5 d23f 1b0b 30be 2c35 0cbf
00000350: 6e7f fc3e 8344 05bf f904 b53f 7ebc 26bc
00000360: 96f9 b63f adc6 4f3e 68b2 1640 15f6 57bf
00000370: 5263 223f 0259 d9be fa4b bfbf 8cfb 73c0
00000380: 91d5 8cbe bed1 703e e450 a4bd e0f7 5fbb
00000390: 5ecd 843e 5cc4 6f3e 3c18 30be 68af 1e3e
000003a0: 5e52 33bd e65b 753e ac0b 0d3e 6fe7 343e
000003b0: 8477 38be b543 ec3d 389f 40bf 6bb4 ed3d
000003c0: fc0b 21bd 3761 b0bf b131 333f 9bb7 b93e
000003d0: 5aef e33d 9741 b53e 52a3 4b3f b8fd c7bd
000003e0: 6ba0 23be 7354 cdbe 5318 4b3e a336 eabf
000003f0: a8ee c53d 0a1d ba3e 1d15 823e d1ef 77be
1.1007979 -0.06011413 -0.7111795 -2.0603244 1.5339534 -1.0054332 0.027886404 1.0415529
0.20801352 0.03683941 0.75986916 0.32503766 -0.96447104 -1.4140365 0.8893424 0.60325587
-0.25152686 0.7797942 -1.1846533 -2.3715942 0.58477116 0.1148301 -1.5036889 0.77561706
-0.2939196 -1.5924925 -0.48269606 0.35373592 0.019409947 -0.052926905 0.12161874 0.038004853
-0.080059566 0.10792027 -0.062430725 -0.12373849 0.21796677 -0.21616831 -0.08367671 0.17479715
-0.18567964 0.36113572 0.2238225 -0.97386 -0.07484067 0.67200255 -1.7313391 1.7777832
0.79256207 -1.7775224 -0.0008095894 1.7371178 0.9810969 0.2645809 2.6337953 -2.8394659
-0.18244916 1.0835534 -0.044265285 -0.15106997 -0.26839772 -1.0116373 -1.1812147 4.3125253
0.3357415 -1.4768685 1.6897033 -1.6145328 -0.6492878 -0.11621245 0.79128385 -0.60033476
-0.3416975 0.8594946 -0.08255789 -1.8094033 0.18552972 1.2214208 0.7928729 -0.40040466
1.1140627 1.6825771 -1.4666047 5.0178905 -0.542166 3.1484573 0.8420791 -1.326773
-1.9344093 -1.9324702 0.2369459 -0.97562325 0.8144688 -1.3145299 0.49782243 0.7582467
-1.4082998 0.36828846 -0.6220151 -0.11711045 -3.1725063 0.6150744 0.98164785 0.7278792
0.1434168 0.54258204 -1.014636 -0.48052734 0.07875574 -0.38202733 -0.4717764 0.57572466
-0.73645115 0.7341671 0.37055692 -1.423238 2.6272902 -0.14454858 0.8819726 -2.7272823
-0.27471733 -0.652784 -0.22538996 0.7428884 -1.6918718 4.3825216 1.1570891 -0.053385496
-1.7698358 0.40122494 -0.18836065 -1.9270685 0.6696227 0.77858996 -1.4084008 1.385973
0.568894 -0.09872195 2.5897007 -1.6422102 -0.15164615 0.67034274 -0.6574618 -0.36846673
-0.28259045 -0.13908622 -0.23268458 0.41738015 -0.076819375 -0.8981198 -0.7471226 0.6676168
0.16840571 0.6801148 -0.050306253 0.20424947 -0.115398705 -0.022200927 -0.14906955 0.22639509
-0.2768461 0.29143542 0.01629167 -0.29266614 -0.08290692 -0.27581042 -0.3839476 -0.43030715
-0.10594931 1.1878426 -0.4775268 1.030195 3.7467442 -1.0607337 -0.76455015 0.9953177
6.299345e-05 0.11359394 -0.77588445 -0.24310562 -0.62396485 0.99137074 0.48817715 2.6769147
-1.010353 -0.8172844 1.5803667 -1.2477537 -0.7413165 2.6167645 -0.82117754 0.04049705
-1.7384758 -1.2167871 -0.50198877 0.79763097 1.2548093 1.1705484 0.55866635 -0.13166274
0.15802586 -0.82540643 0.081498265 -1.1212251 1.34425 -1.8078668 0.6742088 1.6993563
0.959578 1.6481023 -0.17191736 -0.54768634 0.4931597 -0.52057666 1.4142143 -0.010176776
1.4294918 0.20290633 2.354639 -0.84359866 0.634328 -0.4245072 -1.4945061 -3.8122282
-0.27506688 0.2351751 -0.08023241 -0.0034174845 0.25937933 0.23414749 -0.17196745 0.154966
-0.043779723 0.23960838 0.13773984 0.1766641 -0.18014342 0.115363516 -0.7524295 0.116066776
-0.03931807 -1.3779668 0.699977 0.36272892 0.11129637 0.35401604 0.7954608 -0.0976519
-0.15979163 -0.40103492 0.19833498 -1.8297924 0.09664661 0.3635028 0.25406733 -0.24212576

bias f4 [120]
00000000: 8a26 47bd 1e77 afbd b7f4 c6be 67e8 d0be
00000010: 07ae 9dbe 6b59 16be 3b72 00bf 9b42 7fbd
00000020: a6b0 9dbd e758 3ebd 188c 97be 9384 8cbe
00000030: 289b 9ebd 2c88 17bf 3c6c 40be e96f e6bd
00000040: fc7f b5be d7b2 9abd fd10 07be 8f49 de3c
00000050: 2ad8 a03d 195f d5be f4a5 f3be f126 acbe
00000060: 2da7 8dbe aafe 7c3d be63 44be b443 89be
00000070: cc98 fcbe d1b8 cabe 9600 60be 1559 80be
00000080: c3f8 f7bd d835 a7be f0d7 efbe 9496 c9bd
00000090: 367a b9be 5730 32be 1abb 24be 1919 b1be
000000a0: a613 55bd 1253 ddbe 83fb d2be 4fc5 90be
000000b0: d2f1 89be 3be9 b5be 4554 7dbe 6216 9abe
000000c0: fc41 58bf e80c 66be 5025 8bbe ebb2 f2be
000000d0: 1c0f 88be f644 fdbe 83b8 2dbe 1018 d3be
000000e0: 8e83 d0be 973e 9cbe 3f0a 4bbe 46d3 95be
000000f0: 0942 f8bd 4423 f5be f0f2 08bf 1840 c9bd
00000100: fe93 58bd d22a a9be b463 13bf 3b70 17bd
00000110: 9ff8 6fbd 2479 69be c5e9 20be 7cc6 6bbe
00000120: 9883 a5be 44da 46bf 4d61 edbc b403 16be
00000130: 2434 bdbe 04ce 65be 6093 8ebe 7d9d 9ebe
00000140: 59e3 5abe da0b b9be 4632 83be aad2 04bd
00000150: 40f4 d7be 05df b7be 1947 82be 3041 2a3e
00000160: 9fc8 4cbd 1760 d3bd c4fa 6dbe e724 c2be
00000170: 5954 80bf 2803 c8be 65f7 87be c0b4 73be
00000180: 0945 3ebe 7ac9 eebe 7b57 7bbe e714 10bd
00000190: 4282 e9be 9662 c03c 13bb adbe 581f b3be
000001a0: d881 5bbe a25a 85bc e45e c8be 3179 5fbe
000001b0: e001 d4be 2343 b3be 3aa7 e1bd 5172 76be
000001c0: fd88 38be 2ae5 30be 4bf4 28be 8481 f8be
000001d0: 5a4c 85be f4ae bdbe cef1 95be 2baf a8be
-0.048620738 -0.08567642 -0.38858578 -0.4080231 -0.30796835 -0.14682548 -0.501743 -0.06231938
-0.07699709 -0.046471503 -0.2959907 -0.27444896 -0.077444375 -0.59192157 -0.18791288 -0.11251814
-0.35449207 -0.07553642 -0.13190074 0.027134685 0.0785373 -0.41674116 -0.4758755 -0.3362346
-0.27666607 0.061766304 -0.19178674 -0.26809466 -0.49335325 -0.3959413 -0.21875224 -0.25067964
-0.121079944 -0.32658267 -0.46844435 -0.098431736 -0.36226052 -0.17401253 -0.16086999 -0.3458946
-0.05202069 -0.4322744 -0.41207513 -0.28275535 -0.26942307 -0.35529503 -0.24739178 -0.30095202
-0.84475684 -0.22465861 -0.27176905 -0.4740213 -0.26574028 -0.49466676 -0.16964917 -0.41229296
-0.40725368 -0.30516502 -0.19828127 -0.2926275 -0.1212197 -0.47878468 -0.53495693 -0.09826678
-0.05287551 -0.33040482 -0.5757401 -0.036972266 -0.058586713 -0.22800118 -0.15714176 -0.23024935
-0.3232696 -0.77676797 -0.02897706 -0.1464985 -0.36953843 -0.2244187 -0.27846813 -0.3097953
-0.21375789 -0.36141855 -0.25624293 -0.032427467 -0.42178535 -0.35912338 -0.25444868 0.1662643
-0.049996015 -0.10321062 -0.2324019 -0.3791878 -1.0025741 -0.39064908 -0.26555935 -0.2379942
-0.18581022 -0.4663809 -0.2454509 -0.035176184 -0.4560719 0.02348451 -0.3393179 -0.3498485
-0.2143625 -0.016278569 -0.39134896 -0.21823575 -0.4140768 -0.3501216 -0.11018224 -0.24067046
-0.18021007 -0.17274919 -0.1649944 -0.48536313 -0.26034814 -0.3704754 -0.29286045 -0.32946143

weight f4 [120, 120]
00000000: 8df8 dbbc 4256 8abf f037 5d3c 3584 e5be
00000010: d3cc dabf e63b 3fc0 2816 64be 635b 9cbe
00000020: 74d6 1dbf 69d9 a3bf 9f58 7cbd 9c0b 8f3d
00000030: 50d6 f23f b37d 0cc0 598c 993e e526 8abe
00000040: 5328 9cbd dc2a 453d 709c 473c 9863 273e
00000050: 5219 b43d aa1f 9cbe 70c5 59be 430b 91bd
00000060: 88a6 48bd 4804 893e ceb5 903d fcf2 49bd
00000070: ea39 5bc0 f9b4 9cbe 385f 4c3e 1209 53be
00000080: 0646 02bf 782b 2f3d 6108 d93d dfdc db3e
00000090: 8abf aebd 4063 5d3d a9fb 84bf 0afd 823e
000000a0: e1b4 443f b6c7 2ac0 6e20 123e 42cc 29bd
000000b0: 2ea4 9bbd 3804 8cc0 a3fd d1be f083 46bc
000000c0: fa9b 5dbf 1a31 e1bd fd6f 64bf db2b 67bf
000000d0: f3ce 58c0 7d1d 143f 9809 8cc0 7ef4 d6bf
000000e0: 6dc6 96be 8b96 4cbe bafd c73d d08a 8d3d
000000f0: 9fb1 dfbe f6bd bf3e 130f 863f 10cc c9bd
00000100: 58e4 b53e 4a22 64bd 68ee f1bd 1245 cbbf
00000110: caff 563e 0a9c 7bbd 0150 86bc 9f2c 813f
00000120: 649c d9be 62c8 e6bf e070 c1bf 6eb7 9a3d
00000130: b842 4fbc c0cb 8739 1c10 56bf 4d99 5f3f
00000140: f299 87be 8a19 953d f02d 7a3e 5a74 a73f
00000150: 3d7c cfbe a046 78bc 95b7 933e d6fb 243e
00000160: f7bb 1abf 9f53 5c3f 4ea4 1740 aedd 093f
00000170: 0dcd 70c0 57a9 57c0 0887 363d bae4 7cbe
00000180: 71ca f5bc 71b5 dbbf d90c 04bc eb0d 0abe
00000190: fc8c ab3d 8e1d 233f 656d 76bd c906 06bf
000001a0: addd 51bf 4faf e13e ec73 8a3d 8ad8 b33c
000001b0: 3071 86bd 17c6 8d3d 2a53 913e 9de4 c3be
000001c0: ca95 c7bf 88d9 51bc 8d76 9cbf e0f7 583f
000001d0: 0c99 28bd b6b9 9d3e d6d2 943d 67ae c93f
000001e0: 2674 00be 82d8 36be 258e 34be b411 b8bc
000001f0: d6a9 b6bd 2595 15be 70e7 d0bc 648c 35be
00000200: a4f7 02be 9438 83bc 8623 65bd 126d b83d
00000210: 2c72 b7bd 34f1 d2bc b397 05be b07c dfbd
00000220: 97e4 09be e863 0bbe 829e 25bd 56c8 65bd
00000230: d586 88bd bc66 0cbe f20e 03be b0a6 1cbe
00000240: 6e7b 33bd 5652 7ebd 8a62 6ebd 9a23 39be
00000250: 244e a5bd 772d b8bd 88ea 4c3d 8c72 b3bd
00000260: ec68 f6bd 4dcf fabd 8253 2bbe 2739 2fbe
00000270: 1923 64bd d1d4 fbbd bca4 50bd 4823 38bd
00000280: fc82 35be aac4 3ebe 5812 353d 18b2 61bc
00000290: 8c53 b13d f881 05be c8a6 18be db01 93bd
000002a0: fcd8 d6bd 1917 d1bd d227 3cbd d981 23be
000002b0: 1e92 3fbd 6438 9cbc 3fde 8ebd d86d 3abd
000002c0: 8ce1 e4bc de75 03be 4011 24bd 80e6 d9bb
000002d0: 4ded c1bd 3c32 d3bc a90e 12be ba5d b3bd
000002e0: 044a e0bd c289 7dbd 347e 1ebd d020 83bd
000002f0: 90f5 38bd 20c3 05bb b85f 7c3c 5bbe afbd
00000300: 8520 b4bd a2b8 a63d ea24 17bd 90ec 7ebd
00000310: bf1b 11be 0088 913d 9c7e abbd 339f dcbd
00000320: c327 1dbe 0172 cebd 2697 27bd fed0 cdbd
00000330: db82 acbd dc3e acbd e076 2dbe 48aa 2bbe
00000340: 5350 11be d26f 34be ea98 48bd f495 e2bc
00000350: 482e 77bd e4c9 43bd 0f0b d7bd cef7 18be
00000360: ef4b 81bd 3ab2 36be eac5 e9bd 8d71 e7bd
00000370: 395e b5bd ee15 69bd 98bd 0cbe 006f 31bc
00000380: 0c34 17be 23ef 93bd cab8 903d b4cd a3bd
00000390: 7482 acbc 2668 49bd 54f6 26bd 1b0f 03be
000003a0: 2c13 f2bd 54d7 52bd 9bec d2bd 96a0 30be
000003b0: 387e 85bc a657 fbbd 805b 43bc c24c 1bbe
000003c0: 729e 913d 4e84 1bbe 6faa efbd 7809 123d
000003d0: f8d8 12be 8852 193d 50e2 6a3d c036 8eba
000003e0: ec28 303d b639 21be 6ccf 7d3d fac6 b0bd
000003f0: 8753 6cbd d2d4 34bd 1a4b 40bd a8d5 17bc
-0.026851917 -1.0807574 0.013502106 -0.44827428 -1.7093757 -2.988031 -0.22274077 -0.30538473
-0.61655354 -1.2800723 -0.061607953 0.06984636 1.8971653 -2.195172 0.2998989 -0.269828
-0.07624879 0.048136577 0.012183294 0.16346586 0.08793892 -0.30492908 -0.21266723 -0.07082226
-0.04898694 0.2676108 0.070659265 -0.049303994 -3.4254098 -0.3060682 0.19958198 -0.20608929
-0.508881 0.042766064 0.10597301 0.4294195 -0.08532627 0.05404973 -1.03893 0.25583678
0.768385 -2.6684394 0.14270183 -0.04145456 -0.07599674 -4.375515 -0.41013822 -0.012116417
-0.86566126 -0.109956935 -0.8923338 -0.90301293 -3.3876312 0.57857496 -4.376171 -1.6793363
-0.29448262 -0.19979303 0.097651914 0.06911242 -0.43690202 0.37449616 1.047335 -0.09853375
0.35525775 -0.055696763 -0.118130505 -1.5880454 0.20996013 -0.061428107 -0.01639557 1.0091742
-0.4250213 -1.8029902 -1.5112572 0.07554518 -0.012650184 0.00025901012 -0.8361833 0.87343293
-0.26484638 0.07280262 0.24431586 1.3082383 -0.40524474 -0.015153557 0.28851 0.16111693
-0.6044306 0.86065096 2.3694034 0.5385388 -3.7625153 -3.3697107 0.04456237 -0.24696627
-0.030003758 -1.7164747 -0.008059704 -0.13481872 0.083765 0.6371697 -0.06016292 -0.52354103
-0.81978875 0.44079062 0.067603916 0.02195384 -0.065645576 0.06922548 0.28383762 -0.38260356
-1.5592587 -0.012808211 -1.2223679 0.8475323 -0.041161582 0.3080575 0.07266776 1.5756348
-0.12544307 -0.17856029 -0.17632349 -0.022469379 -0.089191124 -0.14607675 -0.025500983 -0.17729336
-0.1278978 -0.01601819 -0.05594208 0.090051785 -0.089573234 -0.02574978 -0.1304615 -0.10912454
-0.13466106 -0.1361233 -0.040434368 -0.05609926 -0.06666342 -0.13711065 -0.1279867 -0.15297961
-0.043818884 -0.06209024 -0.058199443 -0.18079987 -0.08071545 -0.08993047 0.050028354 -0.087620825
-0.12031731 -0.12246571 -0.16731074 -0.17111646 -0.055697534 -0.12296451 -0.050938353 -0.04495552
-0.17725748 -0.18629709 0.044206947 -0.013775371 0.086585134 -0.1303786 -0.14907372 -0.07178088
-0.10490605 -0.10209484 -0.045936413 -0.15967502 -0.046770208 -0.019069858 -0.06975984 -0.04551491
-0.02793958 -0.12837932 -0.040055513 -0.006649792 -0.0946909 -0.02578079 -0.14263405 -0.08758111
-0.10951617 -0.061898954 -0.038694575 -0.06402743 -0.04515606 -0.0020410493 0.0154036805 -0.08581229
-0.08795265 0.08140685 -0.03690044 -0.062237322 -0.1417074 0.07106018 -0.08373758 -0.10772552
-0.15347199 -0.10080338 -0.04091563 -0.10049628 -0.08423396 -0.08410427 -0.16939878 -0.16764176
-0.14190798 -0.17620781 -0.048973955 -0.027659394 -0.06034687 -0.04779996 -0.10500156 -0.1493828
-0.06313311 -0.17841426 -0.11414702 -0.11300955 -0.08855862 -0.05690568 -0.137442 -0.010829687
-0.14765948 -0.07223346 0.07066496 -0.07998219 -0.021058299 -0.04917159 -0.04076226 -0.12798731
-0.11820063 -0.051474884 -0.10299035 -0.17248759 -0.016295537 -0.12272577 -0.011923671 -0.15166
0.07110299 -0.15187189 -0.117024295 0.03565356 -0.1434058 0.037432224 0.057344735 -0.0010850057
0.043007776 -0.15744671 0.06196539 -0.08631702 -0.057696845 -0.044148274 -0.046946622 -0.009267248

bias f4 [120]
00000000: d5ea 8bbe 76ab 7dbd 587a 19be 19ab aabd
00000010: 253d 40be c1ee d6bb 34b7 f4bd a21f 80be
00000020: 6052 0abe aea9 3b3e 7012 5fba d984 34be
00000030: eafc a23c f72d 333e 29d2 8f3e 620b 7abd
00000040: 8a85 19bd b99c 3bbe ed57 b5bd eb33 4fbe
00000050: 7867 1abe 1ad1 33be 918a 013d 5373 5cbe
00000060: 233b f3bd cc50 82bd b74b e1bd c1d8 39bd
00000070: 7d40 c7bd 489b 6dbe c3f8 763e 4ec0 eabd
00000080: e7c6 4dbe a73d b5bd f2ad 8dbd 899a 783c
00000090: 3b9c b1bd 8ed9 93be f147 73bd 10ce c3bd
000000a0: a8d1 efbd 1820 f53d be05 57bd 9e61 e93d
000000b0: 201b 78bc b66d d63e 88e1 41bd 50a6 d03d
000000c0: 7560 9c3e abbf 80bd 7a73 17be 80cc 673d
000000d0: 1bc0 1cbe b5b7 8cbe 5cad 29bf 2fe5 3a3e
000000e0: 116a b1bd f464 493e f239 ca3e 9d59 d73e
000000f0: 8011 37be bc3b 22bd a089 913d a24a e2bd
00000100: 04f1 a03c 5732 14be 7eb7 573e 035b 003e
00000110: d938 5dbe 9091 57bd a20d 9fbe d55a d33e
00000120: 17fb cdbd ff33 6a3d e0a3 aa3d 8c11 26be
00000130: 5690 7fbe d006 fdbd 84c9 713e 16d1 1b3d
00000140: fa7b a8be 340c f7bd a3db 8bbd c571 9fbe
00000150: fc9f 293c ae19 db3e 0227 b5bd a151 c4be
00000160: 2797 17be 401b 743e 1df6 ec3e 58b0 27be
00000170: ae57 2cbd 0b87 04bd ce40 84bd f38c 96bd
00000180: 503e 0c3f 687d 20bc f920 76be 2e00 1d3f
00000190: 299f 0dbf b266 3abe 78f1 f9bd e91a c4bd
000001a0: 4a2d 7c3e ec9f 1ebb 67d0 78bd 3105 883e
000001b0: cdc9 27be 639d ecbd ec11 d3bd 404c 88bd
000001c0: 43ce c5be 24ce 18be 5c44 2fbe 3756 19bf
000001d0: 39eb aebd 1fd7 efbd ae08 40bc 48e0 41be
-0.273276 -0.061931096 -0.14988077 -0.083334155 -0.18773325 -0.0065592234 -0.11949006 -0.25024134
-0.13507986 0.18326446 -0.00085095223 -0.17628802 0.01989599 0.17498003 0.28090027 -0.06104601
-0.03748087 -0.18321504 -0.08854661 -0.20234649 -0.15078533 -0.17560235 0.031626288 -0.21528368
-0.11876514 -0.06363067 -0.110007696 -0.04537273 -0.09729097 -0.23203766 0.24118333 -0.114624605
-0.20095406 -0.0884965 -0.06917943 0.015173563 -0.08672377 -0.2887692 -0.05939478 -0.09560788
-0.11709911 0.11969012 -0.05249571 0.11395572 -0.015143186 0.41880578 -0.047334224 0.101879716
0.3054234 -0.06286558 -0.14790145 0.05659151 -0.15307657 -0.27483907 -0.6628015 0.18251489
-0.08662809 0.19667417 0.39497334 0.42060557 -0.1787777 -0.03960775 0.07106328 -0.11049391
0.019646175 -0.14472328 0.2106609 0.12534718 -0.21603717 -0.052629054 -0.3106509 0.41280237
-0.10057657 0.057178494 0.08332038 -0.16217631 -0.24957404 -0.12354815 0.23612028 0.038041197
-0.32907087 -0.120628744 -0.06829002 -0.31141487 0.010353085 0.4279303 -0.08845331 -0.38343528
-0.14803754 0.2383852 0.4628152 -0.16375864 -0.042075805 -0.03235535 -0.06457673 -0.07351103
0.5478258 -0.009795524 -0.24036016 0.613284 -0.55320984 -0.18203238 -0.1220426 -0.09575445
0.24626651 -0.0024204208 -0.060745623 0.2656646 -0.16385575 -0.11553457 -0.10306153 -0.066551685
-0.38633928 -0.14922386 -0.17115921 -0.5989718 -0.08540959 -0.11710953 -0.011720819 -0.18933213

weight f4 [120, 120]
00000000: f42b 89bf 851f 8fbd 20e9 3cbe 0e82 76bd
00000010: 1e50 0dbe 3929 4bbf 1e63 73bd ad20 28be
00000020: f41b 3ebe ff25 463e 8e40 b2c0 86e8 28bb
00000030: 8d83 9ebe 9258 78be 06ad 29bf 165f 9cbd
00000040: 157e 37be aa13 00c1 380c babc ce94 fc3f
00000050: 4e82 12be f342 fdbd df1a 34c1 dcae 973f
00000060: e8da 75bc b0db 3ebd 3b9f a6bd ed93 003f
00000070: f48b e9bc 03dd 4abd 0fef b6bf 00f3 09be
00000080: e9dc febc 8d83 dabc ffcd e83d 278d a3bf
00000090: 4ec0 dbbd c829 cdbd 5b22 73be 9a4f 1fbe
000000a0: aa48 05be 8468 20bf 6cf3 eabc 78e9 23bf
000000b0: e162 e2bd 6479 7cbe 2a7a b9bd 23c3 00bf
000000c0: 50e3 083f 2eb0 c7bf 77ea 12be 30a6 613e
000000d0: 0b20 c2bd 441a 01c1 b461 ccbd 75ca acbe
000000e0: bcdf 90bc 416a 82bf 8a5a ddbf 73ef 973e
000000f0: bb61 dabd 5945 c2be 4f31 bbbf d735 89bf
00000100: 8a8e d9be e673 0fbd 82a5 9e3e df31 2dbf
00000110: 748c 85bf 603a e93c e818 c9c0 d196 44bf
00000120: 0dc9 8abd 75ed d5be a517 27bd e8e7 babc
00000130: 5c1d e9be 1ebf 4d3d 8896 8bbf 7407 143e
00000140: 14e4 e1bf fc22 35be 60fe 13bd a2f2 d2bf
00000150: a363 c83e e3da febe 174a aebd 9da1 dabc
00000160: 21a6 ddbc b3c6 44c1 4d61 713f 5af3 0bbd
00000170: bc8b e3bd a0e8 78be 69dc 13be 8123 bebd
00000180: 54ff 45be 8f7e 94bd 55e3 0540 0a2e fdbe
00000190: 8567 753e cf1f 18be 154b 07be a9c1 c1bd
000001a0: a8f7 8fc0 3811 67c0 b8d2 e9bf c747 13c0
000001b0: 60f5 9abe c49c 28be 96c1 aebe b793 b5c0
000001c0: 7c69 bdbf 474d 3b3d b8b7 62bc fc22 61c0
000001d0: 0c43 663f d40c 95bd 2d54 00c1 e9a0 e33c
000001e0: dbec c53f bf5a 20be 8027 b8bb 4c06 33bd
000001f0: 5fc6 19be 4ebb 36bf ee3c f8bd 4eab 4cbe
00000200: e09c 34be c960 613f 2a0d d6bf ef8c aa3d
00000210: c63a 21bf 7641 2e3b 51cc 21bf b2f7 3ebd
00000220: f06b 14be 3066 98c0 d46d 0abe 43ec 20bf
00000230: 0824 75bd d281 43bd 3ee8 34bf 764d 643f
00000240: 8046 c6bc 242b 01be 3803 00be a4b5 c9be
00000250: abf8 8dbd 3fc7 a0bc a406 15bf 54cc 0dbd
00000260: 841b 6b3f c417 3ebd 5ab3 57c0 0c54 c6be
00000270: bb32 00be e1aa 3ebe 1d0e 0ebe 2072 2dbe
00000280: 076b 27be e2a8 a0c0 f180 febd f750 a8be
00000290: a30c 95bd 8d2e 34bf 5cdd f5bd 255e 40bf
000002a0: 8a1a fb3e 9ba2 adc0 e2d4 35be a168 c33e
000002b0: d740 edbd 75f8 c1c0 edd4 0340 e01c 543e
000002c0: f0d1 8b3b ae20 dabf 56cc cebf b90e 873e
000002d0: e8ee 75bd 0887 083e 22ea 54be 22f3 d8bf
000002e0: 83db 51bf 3133 0ebd e467 0f3f 91a4 e1bf
000002f0: eb8d 3fc0 5885 48bc 9ef3 283c a7f7 f5c0
00000300: 58af 9cbc ee9a a4bf 9283 ad3b 0c1f e8bc
00000310: c785 8a3f 584f 3cbd f500 a7c0 fdc7 c3be
00000320: 6070 b53f 02e4 7abd 18e4 3fbd f144 86bf
00000330: 30dd b33e d906 09c0 667d bcbd 8867 363d
00000340: 30a9 2f3d f991 38c0 2cda 1abf 1726 1dbe
00000350: 6310 b7bc 18a0 ad3f 34e6 2cbe 4071 73bd
00000360: bbf7 2abf eb59 99bd 2da7 3f3f 69aa 4dbf
00000370: a4c5 4840 ab70 bdbd 58b6 8dbc 9e8a 38be
00000380: ef8e 0d3f fa87 8ac0 36ab a0be 1e3a afbe
00000390: 0755 92be 2570 99bd 703f 05c1 9238 04c0
000003a0: fc87 b1bd bec4 1d3d 279f 97bd 2a6c 96bf
000003b0: 9d8e 9ec0 9c3c 3cbe c0ee 91c0 80dc ae3d
000003c0: b52a aebb 54cf 223d 407b efbc d66a 093e
000003d0: 4281 8a3d 19b5 0ebf 848d 843c b524 c9bf
000003e0: fe2b 75bd a833 8ec0 1590 11bf 682f 8abc
000003f0: aa9b cbc0 5bb6 1ac0 baa5 67c0 0d88 dd3d
-1.0716538 -0.06988434 -0.18448305 -0.060182624 -0.13800094 -0.79359776 -0.059420697 -0.16418715
-0.18565351 0.19350432 -5.57038 -0.002577336 -0.3095974 -0.24252537 -0.6627964 -0.07635324
-0.1791919 -8.004801 -0.022710904 1.9732912 -0.1430752 -0.12366285 -11.25656 1.1850238
-0.015005805 -0.04659623 -0.081358396 0.50225717 -0.028509118 -0.04952718 -1.4291705 -0.13471603
-0.031111198 -0.026674056 0.11367416 -1.2777451 -0.107300386 -0.10017735 -0.23743574 -0.1555771
-0.13016 -0.6265948 -0.028680526 -0.6402812 -0.11054016 -0.24655682 -0.09056504 -0.50297755
0.5347185 -1.5600641 -0.14347254 0.22036052 -0.09478768 -8.0689125 -0.09979573 -0.33748212
-0.01768481 -1.0188676 -1.7293255 0.29674873 -0.10663172 -0.37943533 -1.4624423 -1.0719556
-0.4249156 -0.03502264 0.30985647 -0.6765422 -1.0433488 0.028470218 -6.2842903 -0.7679263
-0.06776629 -0.41782728 -0.040794034 -0.02281566 -0.45530212 0.05023109 -1.0905313 0.14455968
-1.7647729 -0.17689127 -0.036131263 -1.6480296 0.39138517 -0.49776372 -0.08510225 -0.026688391
-0.027056755 -12.298511 0.94289094 -0.034167625 -0.111106366 -0.2430749 -0.14439549 -0.092841156
-0.19335681 -0.07250702 2.0920002 -0.49449188 0.23965271 -0.14855884 -0.13212235 -0.09460766
-4.4989815 -3.610426 -1.8267431 -2.301256 -0.3026533 -0.16466051 -0.3413207 -5.6742816
-1.4797816 0.045727994 -0.013837747 -3.5177603 0.89946055 -0.072778374 -8.020551 0.027786689
1.5462908 -0.15659617 -0.005619943 -0.043707177 -0.15017079 -0.71379554 -0.121209964 -0.19987223
-0.17637968 0.8803831 -1.6722767 0.08327662 -0.62980306 0.002658931 -0.6320239 -0.04662294
-0.144943 -4.762474 -0.13518459 -0.62860507 -0.059848815 -0.04773123 -0.70666873 0.89180696
-0.024203539 -0.12614113 -0.12501228 -0.39396393 -0.06932195 -0.019626258 -0.5821326 -0.03461869
0.9183886 -0.046409383 -3.3703218 -0.38735998 -0.12519352 -0.18619873 -0.13872571 -0.16938066
-0.16349421 -5.0206156 -0.12426937 -0.3287427 -0.07277801 -0.7038353 -0.120051116 -0.75143653
0.49043685 -5.4260993 -0.1775699 0.38165763 -0.11584633 -6.061579 2.059871 0.2071414
0.00426697 -1.7041223 -1.6156108 0.2637842 -0.060042292 0.1333276 -0.2079244 -1.6949198
-0.81975573 -0.03471679 0.560179 -1.7628347 -2.993037 -0.012238823 0.010311989 -7.686481
-0.01912658 -1.2859781 0.0052952254 -0.028335117 1.0822076 -0.045974106 -5.218867 -0.38238516
1.4174919 -0.0612526 -0.046848387 -1.0489789 0.3512969 -2.141043 -0.09203605 0.04453233
0.04288596 -2.8839095 -0.60489154 -0.15346561 -0.022346681 1.3564482 -0.1688469 -0.059434175
-0.66784257 -0.074878536 0.74864465 -0.8033815 3.137063 -0.09250005 -0.017298862 -0.18021628
0.55296224 -4.3290987 -0.31380624 -0.34224027 -0.28580496 -0.07492093 -8.327988 -2.0659528
-0.08668515 0.038517706 -0.07403403 -1.1751759 -4.954909 -0.18382496 -4.5603943 0.08538151
-0.0053151497 0.039748505 -0.029233575 0.13419661 0.06762935 -0.55745083 0.016180761 -1.5714327
-0.059856407 -4.4438057 -0.56860477 -0.016868308 -6.362752 -2.41738 -3.6194901 0.10816965

bias f4 [120]
00000000: c754 20bf 42ce f2be c0fe 70bf 9b36 02bf
00000010: 98fc 2abe 5696 80bf 1668 c7bf e65f 5dbf
00000020: 2f3e 87bf 104e 4ebf f764 61be 0c1b e2be
00000030: e864 33bf 526e 4cbf 500b ffbe a541 7ebf
00000040: 678e 8fbf 5ec0 56bf 9d8e 53bf 8d24 dcbe
00000050: 813b 4cbf 3d0d 4bbf 5aef 47bf db51 d9be
00000060: 3640 51bf 4faa 4dbf c07e 80bf b279 8bbf
00000070: fe76 81bf 05d6 45bf 71ea 96bf c2c4 cabf
00000080: cc3b a5bf 1ae9 8abf b070 75bf 55a3 8cbe
00000090: 522d 81bf 30bf 48bf b140 75bf 3cc1 37bf
000000a0: 5b7f 46bf 2c6f 85bf d038 f8be 6ef7 83bf
000000b0: c870 82bf 391c 45bf 3a2a 33bf e66b 29bf
000000c0: b55e 86bf 8f37 77bf 2ad8 63bf f75c 5bbf
000000d0: 2e9e 62bf 9e78 72be ae45 a2bf ce8a aebf
000000e0: 9b2a 82be 35a6 b8bf 4fd9 80bf bb03 a1bf
000000f0: 60f3 07bf 2965 adbf f3d9 92bd d3b2 57bf
00000100: c0fb 63bf f6e3 4cbf 5cc4 b53d c144 0fbf
00000110: 335e b7bf 3187 57bf 10e3 e8be 7259 83bf
00000120: 907b 8abf e6c2 4dbf a226 39bf 3187 5fbf
00000130: 777c 0cbf 5284 0ebf 8c13 32bf 6eda 6fbf
00000140: 4c24 8dbf 5921 74bf 2520 57bf 7cbf 91bf
00000150: 1469 82bf af1d 59bf 5ca8 c8bd 2d00 4bbf
00000160: 7078 59bf 2945 5ebf 4ac4 c0be 0826 8cbf
00000170: 2b95 58bf 3b06 aabf e661 5ebf afa4 3bbf
00000180: ca82 31bf 75a0 83bf 8f4a a0bf d0d7 bebf
00000190: 0550 9cbf c268 41bf 6fa8 90bf 55bc 95bf
000001a0: 09da 66bf 7e10 8abe 6b0d 34bf eed4 5bbf
000001b0: 7932 61bf e332 5cbf ceed 63bf 7a5a 6fbf
000001c0: 0ca1 30bf af8b a6bf 19b9 4fbf 372e acbf
000001d0: 89f4 57bf 2fca 3ebf aceb 66bf 7846 a5be
-0.6262936 -0.47422987 -0.9413872 -0.5086457 -0.1669792 -1.0045879 -1.557864 -0.86474454
-1.0565852 -0.80587864 -0.22011171 -0.4416126 -0.70075846 -0.79855835 -0.49813318 -0.99318916
-1.1215333 -0.8388728 -0.82639486 -0.42996636 -0.79778296 -0.79317075 -0.78099597 -0.42445263
-0.81738603 -0.80337995 -1.0038681 -1.0896513 -1.0114439 -0.7727969 -1.1790296 -1.5841296
-1.2908874 -1.0852387 -0.9587507 -0.27468362 -1.0091956 -0.7841673 -0.95801836 -0.7177923
-0.7753808 -1.0424552 -0.48480844 -1.0309885 -1.0190668 -0.7699619 -0.6998631 -0.66180265
-1.0497652 -0.9656915 -0.89001715 -0.8568873 -0.88522613 -0.23678824 -1.2677515 -1.363611
-0.2542313 -1.4425722 -1.0066317 -1.2579263 -0.53105736 -1.3546497 -0.07170477 -0.8425724
-0.89056015 -0.8003534 0.08875343 -0.55964285 -1.4325622 -0.8419066 -0.45485735 -1.0261672
-1.0818958 -0.80375516 -0.72324574 -0.8731566 -0.5487742 -0.55670655 -0.69561076 -0.9369267
-1.1026702 -0.95363384 -0.84033424 -1.1386561 -1.0188317 -0.8481092 -0.09797737 -0.79297143
-0.849494 -0.8682428 -0.37649757 -1.0949106 -0.8460261 -1.3283151 -0.8686813 -0.7329816
-0.69340193 -1.0283343 -1.2522753 -1.4909611 -1.221192 -0.7555047 -1.1301402 -1.1698099
-0.90176445 -0.26965708 -0.70332974 -0.8587178 -0.8796764 -0.86015147 -0.89034736 -0.9349743
-0.6899574 -1.3011378 -0.8114181 -1.3451604 -0.84357506 -0.7452726 -0.90203357 -0.32280326

weight f4 [14, 120]
00000000: f80e f93e 1691 0d3f 8e2f 473f 9f2c ea3e
00000010: d8c8 7fbf f8ce 13bf f589 903f d9f2 8c3e
00000020: f917 af3f b9d3 b03f fb50 afbe 0902 d2be
00000030: ec97 753f 714f c33f 35b8 9a3f f044 b03f
00000040: a6b1 8e3f f2f3 efbf d425 8e3f b94a a03f
00000050: 289e f43e 98b4 a5bf 36fd 6cbf a1d8 04bf
00000060: 7852 e03f f31e 423d caf0 0140 a7e4 d8bf
00000070: 7e27 cf3f 00b9 053f 7957 af3f 5491 2c3e
00000080: ae08 5cbe 350a e0bf 0887 04bf 0d66 dcbd
00000090: 9139 86bf 850e 51bf b9b0 0d3f 9ed7 2e3e
000000a0: ab48 393e 8740 663f 5289 de3f c6aa f13f
000000b0: 72c3 d5bf ef40 3bbf cc65 073f e1f2 803f
000000c0: a0f0 c1bf ce3e 01bf c187 9e3f 8274 ee3f
000000d0: 1cde c73f 0c50 c6be 71b9 05c0 104b 773f
000000e0: ebe4 45be f6a0 04c0 7935 ffbf 2bd8 d5bc
000000f0: 7e81 f23f 00e9 95bf 8d43 353e e3be a83f
00000100: 6e3f afbf 0f48 0a3f 473e 5bbe af8a 863e
00000110: c202 fe3f 99eb 983f 1b8a b53f e2c3 ebbe
00000120: 4c12 0cbf 0a0d 643f e14c cd3f 7c23 bcbf
00000130: 799a 9ebf 7581 b63f 01bd 98bf 8020 bcbe
00000140: a648 b43f 5415 47bf fa7d e43f 514f c2bf
00000150: dd65 c73f 8c3e 383f 1177 03bf 7cf1 a03b
00000160: bac0 843d d7e8 b23f c38f 843f bb66 15bf
00000170: bc58 fd3e 9fc1 eb3d 0a21 d6bf 17fc c7be
00000180: 538a a73f c94e 73bf a7d0 293f d096 093f
00000190: abb4 96bf 04f1 8cbe 0d49 163f ee8b 9f3f
000001a0: 7d39 f8be 917c 863f f0cb 39bf 8327 db3f
000001b0: 4df9 d2bf ce3f af3f 6ae8 a5bf 516b e23f
000001c0: 7a0a c63e bdbd a33e c7f2 0240 9348 3f3f
000001d0: 1616 4d3f d3a2 b6bf 0338 f33f 71ce c7bf
000001e0: de7d c83d da7f b53e 1527 573e 8f9c c83f
000001f0: 80b5 5a3f e0ee 833f 2044 f5b9 81e7 84be
00000200: 2b4f e4be 6223 5abe 9e82 433f 5369 24bf
00000210: 0ce7 0e3d 0e8d 053f 62e5 813f a4e2 e93e
00000220: 13ee 90bf 5c93 cdbe 44a6 1e3f 9326 893e
00000230: 0c2f c33e d7f5 99bf 0e5a 9bbf 52e0 6c3d
00000240: c347 cdbd 3683 653d 7774 303f 3aed 6e3e
00000250: bca6 223f 54f3 063f ea02 9d3e c279 503f
00000260: 6e5d 29bf f7a6 32bf 19c9 91bf d50d 36bf
00000270: 52e6 d8be 97fc d13e 3abb 463e 196a 003e
00000280: 2c1a 77bf 638c 33bf d6ce de3e 5f6c 293e
00000290: 2a35 8bbf 4bf4 04c0 312a 80bf 3f17 903e
000002a0: 25df 8f3e bb92 aebe abb9 743e a475 a5bd
000002b0: fe5b 483e e9c7 1a3f 5be5 cf3e 0f96 5abf
000002c0: c5db 053e ee45 95be f332 6bbf 19ea 18bf
000002d0: 27db f53e acae 77bf f7df 98bf b8b1 653f
000002e0: e11f 603c 0842 52be d142 bf3e 0463 9b3e
000002f0: 0516 eb3e b6f3 243e b0b9 513a 9ade 71bf
00000300: 9d50 ad3f 620f 103c 243e 62be fc3b b7bf
00000310: 206f 483f 46cd 1cbe d1c0 75bf 8c30 28bf
00000320: b0eb a83d 2517 5e3f 3378 263f f48e 7ebf
00000330: 7a97 cd3e 5024 cd3e 2294 02be 0a45 3d3e
00000340: 76c0 11bf 9c23 953e c6e4 06bf 38a3 1f3f
00000350: 8a01 14bf f30d cdbe c1db 04bf 592e df3f
00000360: 1911 543e 1e6e 95be 9f45 55bf 4327 9dbe
00000370: 6ff4 bebf 8dc7 0b3e eed0 65bf 4c04 ea3e
00000380: f546 68be 241f 133f 2006 9dbf 20ed 7dbe
00000390: cbf8 e2be 5e69 cdbe 078a 5cbf f2da 3d3f
000003a0: 1a86 123f 830d 4ebf 1765 313f 9b4f f9be
000003b0: 57f0 50bf e39a dfbf 1d04 153f 24ce 80be
000003c0: 2cdb 253f 8e14 1cbf f560 d7be 05b7 a83f
000003d0: 31d2 2d3e 1567 91be 44f5 87bf 9dde 2ebf
000003e0: 7296 a7bf 198d 25be 0495 dbbe be3b 8ebf
000003f0: f256 da3e 5f3a acbf df6b c2be a6c8 5bbf
0.48644233 0.5529951 0.7780694 0.45737168 -0.9991584 -0.57737684 1.1292101 0.27529028
1.3679191 1.3814613 -0.3424147 -0.41017178 0.9593494 1.5258619 1.2087466 1.3771038
1.1147964 -1.8746321 1.1105294 1.2522804 0.47776914 -1.2945738 -0.9257387 -0.5189305
1.7525167 0.047392797 2.0303216 -1.6944779 1.6183927 0.5223541 1.369857 0.16852313
-0.21487686 -1.7503115 -0.5176854 -0.10761652 -1.0486318 -0.8166278 0.5534778 0.17074439
0.18094127 0.8994221 1.7385657 1.8880241 -1.670027 -0.73145956 0.52889705 1.0074121
-1.5151558 -0.5048646 1.2385179 1.8629305 1.5614657 -0.38732946 -2.0894434 0.9659891
-0.19325607 -2.0723243 -1.9938194 -0.026104053 1.8945768 -1.1711731 0.1770155 1.3183254
-1.3691232 0.540162 -0.21410476 0.26277682 1.9844592 1.1946899 1.4182771 -0.46047884
-0.5471542 0.89082396 1.6039087 -1.4698329 -1.2390891 1.4258257 -1.193268 -0.36743546
1.408467 -0.7776692 1.7850945 -1.5180455 1.5577961 0.7197044 -0.51353556 0.0049115997
0.06482072 1.3977307 1.0356373 -0.5835988 0.4948176 0.1151154 -1.6728833 -0.39059517
1.3089088 -0.9504209 0.66334003 0.53745747 -1.1773885 -0.2752763 0.58705217 1.2464578
-0.4848136 1.0506765 -0.7257681 1.7121433 -1.648233 1.3691347 -1.2961552 1.7689
0.38679868 0.31980696 2.046068 0.74720114 0.80111825 -1.426844 1.9001468 -1.5609876
0.09789632 0.35449106 0.21011002 1.5672778 0.854332 1.0307274 -0.000467808 -0.25957873
-0.4459165 -0.2130256 0.7637118 -0.6422321 0.034888312 0.5216836 1.0148127 0.45680726
-1.1322654 -0.4015149 0.6197245 0.26787242 0.3812183 -1.2028149 -1.2136858 0.057831116
-0.10023453 0.056033336 0.6892771 0.23332682 0.63535666 0.5271504 0.30666286 0.8143579
-0.6615819 -0.6978602 -1.1389495 -0.71114856 -0.4236322 0.41013023 0.19407359 0.12540473
-0.9652431 -0.7013609 0.43517178 0.16545247 -1.0875599 -2.0774105 -1.0012876 0.28142735
0.28099933 -0.3409632 0.23898952 -0.08079079 0.19566342 0.6046129 0.40604672 -0.8538522
0.13072117 -0.29154915 -0.9187462 -0.59732205 0.48018762 -0.96750903 -1.1943349 0.897243
0.0136794755 -0.20533001 0.37355664 0.3034898 0.45915237 0.16108593 0.0008000387 -0.9448029
1.3540226 0.00879273 -0.22094017 -1.4315181 0.78294563 -0.1531268 -0.9599734 -0.65699077
0.08248079 0.86754066 0.6502716 -0.9943688 0.4015463 0.40066767 -0.1275182 0.18483368
-0.569343 0.2912873 -0.5269283 0.6235843 -0.5781485 -0.40049705 -0.5189782 1.7436019
0.20709647 -0.29185575 -0.8330936 -0.30694017 -1.4918345 0.13650341 -0.89771926 0.45706403
-0.22683318 0.5746939 -1.2267494 -0.24797487 -0.4433044 -0.4011945 -0.86148113 0.7416221
0.5723587 -0.8048937 0.69294876 -0.48693547 -0.8161673 -1.7469143 0.582094 -0.25157273
0.64787555 -0.60968864 -0.4206616 1.3180853 0.16974713 -0.28398958 -1.0621724 -0.6830843
-1.3092787 -0.16167106 -0.42887127 -1.1111982 0.4264446 -1.3455313 -0.37972924 -0.8585304

bias f4 [14]
00000000: e4de 9d3d c653 dfbd 4206 b73d 3d66 ba3d
00000010: 327a edbb c2b2 c13d 37cf 95bd 5f2e 3ebc
00000020: 47a6 66bd 3b23 87bc 32b0 e33c 0f16 3d3c
00000030: 228a 28bd 2b23 4e3d
0.07708529 -0.109046504 0.089367405 0.09101532 -0.007247233 0.094579235 -0.07314914 -0.011607735
-0.05631092 -0.016496291 0.027793977 0.011540904 -0.04114736 0.050326508
