python/mod/mod3.pth (torch, 133647 bytes, 8 tensors)

weight f4 [120, 14]
00000000: d29b f3bd 8e79 613e 6450 7abe 7464 16be
00000010: 8009 1abe 8058 2a3e 9051 df3d 8878 013d
00000020: cc7f 90bd ec7e 183e 000c ff3b 6897 4c3e
00000030: 3cd8 123e d8bf d03d fcf3 053f ae4b d93e
00000040: f8a3 b63e 4b60 34bf b20a 7d3f 2dbb efbf
00000050: fdae 9e3f 7e4d 93bf 7cd1 7cbf 433f f83d
00000060: 26c4 10c0 2a9c 14c0 1052 0dbf ce0d 1ac0
00000070: 5967 0d3f 0383 ebbc 6375 4ebf 945c 4f3f
00000080: 349d 6f3f 135c 90bf 9e71 ecbd e0c6 0bbe
00000090: 772e 3e3f 6f61 d23f cd62 9e3e 3a76 e93f
000000a0: e191 9ebe 2528 61bf fc53 c73e 0799 263f
000000b0: 513e 5f3f 16ba 863f 44be 673f 0ccf 16bf
000000c0: 764e 02bf 69db 9b3f 2caa b53f 7b9c df3f
000000d0: 4703 c53e 9eab 7f3f 8f22 0b3f 4b27 f2bf
000000e0: be0c f03e 79ae b33e 33b1 2d3f 61b2 af3e
000000f0: 2094 8f3e c621 17c0 87b0 813e d825 a1bc
00000100: eaa2 83bf 5352 31bf 573e 0bc0 4153 0ec0
00000110: a2ed 0b3d 3a1a c43f 3288 49bd 8c6c 8abd
00000120: 00ba e0be d7df 88be e644 2abe fb7d b3be
00000130: aed0 b6bd 73b3 03be 58ec babd 5a66 ef3d
00000140: b94d 90be 5cd8 7bbe 033f 173e c574 e9bc
00000150: 7eb9 2fbf d1ea 313f 9333 47bf 4ed9 acbe
00000160: 7ced 68bf 7178 433e 4068 b03f 8d0e a23d
00000170: c7f9 973f 78b3 e0bf 7305 08bf 21ad 24bf
00000180: 5aad 43bf 8482 ebbe 3a2d 28be a67a 1c3f
00000190: 1ad9 b4be d30e c4be bebc 0dc0 8c7c 8d3f
000001a0: 81aa 113f db25 b8bf 0de6 bebf f106 42bf
000001b0: fc61 f8be b2e2 0d3f 325a aebe 3190 63be
000001c0: d09c 403d 8466 0040 450d 303e 20fe 35bf
000001d0: 2e22 c33f 2704 93be c364 73bf 6768 1040
000001e0: 0c75 e0bf 5e71 373e 845c 3bbf 20e1 c13e
000001f0: 4571 953e 20fa f83d 3268 d1be 8684 853e
00000200: 1d2e 5b3f 8f24 82bf 1e85 df3f 58f2 073f
00000210: fb17 713f 0fe7 923f 4107 0d3f 2295 f5bf
00000220: 16bf 61bf b338 fcbf db11 cbbe f15d 3bbc
00000230: 7658 95be 68b7 9a3e 11ee 13bf 32f2 483f
00000240: e7ec 38be f388 c1bf ceb0 49c0 0d24 a63e
00000250: b1ff cebc dc86 843f 8e87 95bf d241 e43f
00000260: 41a7 1d40 bed6 bdbf 9f73 dd3d 639d 5c3f
00000270: ed90 e5bf 46f3 0f3e 627b 7d3e 4a27 8bbf
00000280: fdec 2ebf 267e 543f 1abe 363d 62a4 89bd
00000290: b6c7 1d3f 92a4 ee3f 9731 783f 52e2 5d3e
000002a0: 0e5c 963f d924 b33d ec72 1cbf 0195 07c0
000002b0: 35fe 85bf 9d5e febe 9133 583f ebb3 d9be
000002c0: 88ca 8e3f 7889 cdbd e5f8 073f 0dc9 42bf
000002d0: a745 7d40 d41d 87bf c6d4 943f 8252 33bf
000002e0: 547c 99bf 50af a83e 3535 e6bf 822b cdbf
000002f0: 9a75 393f 0657 8fbe 0021 efbf a470 223f
00000300: cb47 b2be 2643 e3be 25cc 1b3f c00a b9bf
00000310: 1c21 0a3e 8ff6 0cbf 798f 5ebe be27 323f
00000320: 9f30 853f 0707 81bf 3b5a c1bd 1669 64bf
00000330: 84f9 bd3e 7908 0540 8244 2fbf cb2a 5bbf
00000340: 7eae 31c0 6008 fb3f 0789 8c3f c6d8 21be
00000350: dfc0 8fbe e1f3 0bbf a1ac c63e 496f 30c0
00000360: ceb4 ae3e ba95 fb3e fbd1 823e f48e 533d
00000370: 83fd d63d e0cf f93e eec0 98be b106 e23f
00000380: a528 81bf c964 5f3f 5a09 a73e 919b 0fbe
00000390: 0f7d 7dbf 88f8 0f3f 60d7 143f 5d32 a13f
000003a0: b026 06be 088c 3640 9b03 21be 3b24 523e
000003b0: 0b9c 653d dc1a bebe 0dd0 0fbe 1c91 4d3f
000003c0: 4e18 fbbe 7082 37be ab8d 30be 4a69 943e
000003d0: b5c8 513e 5b0f 2d3f 0e0a 653e 0a6f 253d
000003e0: 11ec 67be 0734 f53d 67e9 f13d abf4 06bf
000003f0: 5055 103f fe40 0dbf 4d64 52bf 9712 2ec0
-0.11894955 0.22019026 -0.24444729 -0.14686757 -0.15042686 0.16635323 0.10904229 0.03160909
-0.07055625 0.14892167 0.007783413 0.19979632 0.143403 0.10192841 0.52325416 0.42440552
0.35671973 -0.7045943 0.98844445 -1.8728997 1.2397152 -1.1508024 -0.9875715 0.12121441
-2.261972 -2.3220315 -0.5520334 -2.4070926 0.5523582 -0.028748995 -0.8064787 0.8100064
0.9359925 -1.1278099 -0.11545108 -0.13650084 0.7428965 1.6435984 0.30934754 1.8239205
-0.30970672 -0.8795188 0.38931262 0.6507725 0.8720446 1.0525539 0.905247 -0.5890968
-0.5090097 1.2176334 1.4192557 1.7469629 0.38479063 0.9987124 0.5434961 -1.8918241
0.46884722 0.3509405 0.6784851 0.3431578 0.28042698 -2.3614364 0.25329992 -0.019671366
-1.0284092 -0.6926624 -2.17568 -2.2238314 0.03416217 1.5320504 -0.04920215 -0.06758985
-0.43891907 -0.26733276 -0.16627845 -0.35057053 -0.08926521 -0.12861423 -0.0912711 0.11689444
-0.28184298 -0.24594253 0.14770131 -0.028498063 -0.68642414 0.69498926 -0.7781307 -0.3375954
-0.9098737 0.19088914 1.3781815 0.079129316 1.1873101 -1.755477 -0.53133315 -0.64326674
-0.7643639 -0.45998013 -0.16423503 0.61124647 -0.35321885 -0.3829256 -2.214645 1.1053634
0.56900793 -1.4386553 -1.4913956 -0.7579184 -0.48512256 0.55424035 -0.3405319 -0.22222973
0.047024548 2.006257 0.17192562 -0.7109089 1.5244806 -0.28714105 -0.95075625 2.2563722
-1.753572 0.1791434 -0.7318804 0.3786707 0.2918798 0.121570826 -0.40899807 0.2607767
0.8561724 -1.0167407 1.7462499 0.5310416 0.94177216 1.1476763 0.55089194 -1.9186137
-0.881822 -1.9704803 -0.3966206 -0.011435972 -0.29169053 0.30218053 -0.57785136 0.7849456
-0.18059121 -1.5119919 -3.1514163 0.3244938 -0.025268408 1.0353656 -1.1681993 1.7832587
2.4633334 -1.4831159 0.108130686 0.86177653 -1.7934853 0.14057645 0.24754098 -1.0871365
-0.68330365 0.8300499 0.04461489 -0.06720807 0.6163286 1.8643973 0.9695067 0.21668366
1.1746843 0.087472625 -0.61112857 -2.1184695 -1.0468203 -0.4968156 0.84453684 -0.4252008
1.1155558 -0.10035986 0.5311416 -0.7608803 3.9573762 -1.0555978 1.1627433 -0.7004777
-1.1991067 0.32946253 -1.7984987 -1.6028903 0.7244507 -0.2799608 -1.8681946 0.63453126
-0.348204 -0.44387168 0.60858375 -1.4456406 0.13489193 -0.5506372 -0.21734418 0.6959189
1.0405463 -1.008027 -0.09441038 -0.8922285 0.37104428 2.0786421 -0.6846391 -0.8561217
-2.7762752 1.9611931 1.0979317 -0.15805349 -0.28076836 -0.54669005 0.3880358 -2.7567923
0.34122318 0.4913767 0.25550827 0.051650003 0.10497572 0.4879141 -0.29834694 1.7658292
-1.0090529 0.8726316 0.32624322 -0.14024188 -0.9901895 0.56238604 0.58141136 1.2593495
-0.13100696 2.8522968 -0.15724032 0.20521633 0.056057017 -0.37129867 -0.14044209 0.80299544
-0.4904198 -0.17920852 -0.17241542 0.2898658 0.2048672 0.67601556 0.22367117 0.0403891
-0.22648646 0.11972814 0.11812096 -0.52717084 0.56380177 -0.55177295 -0.82184297 -2.7198846

bias f4 [120]
00000000: 0a5b 44be a2ec 59bd 4ffc ffbd 89a3 19be
00000010: 79db b1bd 82fb 47be 9ba2 7ebe aed8 cebd
00000020: f441 dcbe 0a8f 15be 4544 63be 80c0 15be
00000030: 52cd e63c bb71 89bd e150 95be cfc9 3cbc
00000040: 9069 7fbe f551 cfbd 3349 7ebd 886c 343d
00000050: 6fdd adbd b52e f6bd 3857 68bd d773 cabb
00000060: c222 07be 45b8 c6bd c1c2 a8be 4725 50be
00000070: ee2a 31be 5b51 1ebd 71b7 91be ca7a 85be
00000080: cc91 473d 3797 433d fb2f b23b 99d3 99be
00000090: 4768 5dbe 5d09 af3d bee0 81be 144a 99be
000000a0: c160 22be 2b9d 1e3d d0b7 3cbd d3d0 64be
000000b0: 952b 1bbe df56 87be cfea 9fbe 4885 5abd
000000c0: 5d80 27bd af6d 79be effe d7be 76cc e2bd
000000d0: 5b8b cabe 5cd0 3cbe 3af5 82be 2e6c 74be
000000e0: 0813 30be 4f69 20be 7068 27be bd2e e1bd
000000f0: d2ac a5bd 40c9 cebe ae68 c6be 5258 c4bd
00000100: 5b1b 8fbe 3c90 e4bd 41b1 3abe c09c b6be
00000110: 3809 47be 3848 26be c3e8 d6be 5210 60be
00000120: e262 4fbe 945f 06be 7e67 97bd 2e0d 81be
00000130: 58a8 06bf 5735 afbd 03b0 a5be 7af5 26be
00000140: ae23 43be 056c a1be ded9 17be 76b0 1ebd
00000150: b8ff 203c c438 5fbd f140 17be 1df3 47be
00000160: 37e9 b9be e722 9ebe e549 71be ac35 70be
00000170: bf2b c13d 30c9 69be 2988 09be ba83 9bbe
00000180: 58ff c6be 8b9f 5abd 0856 b7bd 2ebd cbbe
00000190: 179e 92be 0ad4 44be 3006 adbe 997a c5bd
000001a0: b42f 8fbe c01f a2be 6356 83be 5a67 45be
000001b0: a843 a5bd b8a4 a4be 8082 33bd 17a1 86be
000001c0: 4bce 74be 2abf 8dbe 517d 47bc f84a 40be
000001d0: a2dd 73be edfb c63b c13c 06bf 6dcb d43b
-0.19175354 -0.053204186 -0.12499296 -0.1500379 -0.08684439 -0.19529536 -0.24866717 -0.10099922
-0.43019068 -0.14605346 -0.22194012 -0.14624214 0.028174076 -0.067111455 -0.29163268 -0.011522724
-0.24942613 -0.10123054 -0.062081527 0.044048816 -0.08489501 -0.120206274 -0.056723803 -0.00617836
-0.13196853 -0.097031154 -0.32961085 -0.2032672 -0.17301533 -0.038651805 -0.28460267 -0.26070243
0.048723027 0.04775163 0.0054378486 -0.3004425 -0.2162181 0.08546708 -0.25366777 -0.2993933
-0.15857221 0.038724106 -0.046073735 -0.22345285 -0.15153344 -0.26433465 -0.31233832 -0.053349763
-0.0408939 -0.24358247 -0.42186686 -0.11074154 -0.39559445 -0.18438858 -0.25577718 -0.23869392
-0.1719476 -0.15665172 -0.16348433 -0.10995243 -0.080896035 -0.40387917 -0.3875174 -0.09587158
-0.27950558 -0.11160323 -0.1823168 -0.35666466 -0.1943711 -0.16238487 -0.41974458 -0.21881226
-0.20252565 -0.13122398 -0.073927864 -0.25205368 -0.5260062 -0.08555096 -0.3236085 -0.1630458
-0.1905658 -0.31527725 -0.14829203 -0.038742505 0.009826593 -0.054497495 -0.14770867 -0.19526334
-0.3631074 -0.30886003 -0.23563345 -0.23457974 0.09432172 -0.22830653 -0.13430847 -0.30373937
-0.38866687 -0.05337481 -0.08951956 -0.3979277 -0.28636238 -0.19221511 -0.33793783 -0.09642524
-0.27966082 -0.31664848 -0.25651845 -0.19277707 -0.08069545 -0.3215692 -0.043825626 -0.26294777
-0.2390682 -0.2768491 -0.012175874 -0.18778598 -0.23815015 0.0060725124 -0.52436453 0.006493977

weight f4 [120, 120]
00000000: 5355 55bd 1322 54bf afb1 e2be e3ed 54bd
00000010: b728 10c0 84e7 083e ddf8 fac0 d8fc f7bf
00000020: 6b88 633f ac0e 86c0 493a fcbf a779 e8be
00000030: cfa2 ce3f 971c 023e 95ab 81bf 8bea cf3d
00000040: 23db 11be 79a9 473e 7b3e 01bf bec1 9fbf
00000050: 5e1d 94bf dd3a b7be f64e 23bf 4894 d7be
00000060: ae52 c7be 7eea f33d 6952 78c0 3e23 0fbe
00000070: de48 4a3e 9b7d a13f 60a5 423d 66b6 a63d
00000080: 8171 07be fa14 cb3f ceec b13e 89fe f0be
00000090: 3dd0 e4bf 669e 8e3f 296e 093e 0636 c93f
000000a0: 3317 283f c0ac 93bf 8fdb 483f aa17 823d
000000b0: b559 b43e ba82 ad3f d03d 8e3f e8eb d33d
000000c0: 3866 cbbe 3f7e 423f c81d d93f cd25 6cbe
000000d0: 3b18 efbe b277 dcbd 2f77 0ebf 701d 6a3d
000000e0: 25f8 aabf a4ff d13d 0886 0bbf 1223 303e
000000f0: b492 31bf dcc9 7f3e 62dd 313d 1ca8 86c0
00000100: 74d8 26be be91 513d 15b4 82be 3c1a febc
00000110: 00bf c63d ba8a 62be 3e40 393f eb2d b6bd
00000120: 4c1c b8bf b7c5 cf3f ae84 72bf 61fc 1abf
00000130: 3818 013f 8c88 d73f 279b 7f3e ece7 d93c
00000140: 8d0b f13e ce16 27bf 8211 1dbe 1441 88bf
00000150: 2b64 b4be d4f7 6e3d 7082 03bc df29 58be
00000160: dd90 1ebf 82d1 ff3d b152 ed3d 2536 13bf
00000170: ea64 fb3e 28f5 b33c 7b77 c33f fb14 8a3f
00000180: 28c8 0440 d5c6 ce3e 2387 183e 613d 90bd
00000190: abeb a63f b569 27bf 10e0 22bd dbcd 70be
000001a0: 2bdb 2d3e 6211 f03e 34ca 87be b73e 13c0
000001b0: e964 08bb ff6b 613d a891 64be 40f8 433d
000001c0: 852c b0bc 3c6a e6c0 4ef6 db3e b4b6 17be
000001d0: ee83 563e f77d c7bf 48c4 4dbf edcc 13c0
000001e0: c4dc 803d 88a3 be3e e8d5 58bd 16da 963e
000001f0: ad08 e5be 183f 8d3d 63d9 54c0 bc90 2dc0
00000200: 8589 a7bf ec1c 32bf 5afe a9be c66c cc3f
00000210: 56fd a33e dc0e 72be 6f41 7c3f 94d1 173f
00000220: 39ed 1dc0 bf92 b1bd 84b3 07be a630 abbf
00000230: 7ba6 a6be 0e79 763b d419 683f f3e6 54bf
00000240: 128e ed3e ba03 48bd 8e98 333e 5175 533d
00000250: 7235 113e b032 953f 74a3 f53c 6cb9 a6bd
00000260: 5c53 443e 1347 af3f eb2b a43e 0099 28bc
00000270: c0c7 233f 5ad7 16bf 13be 323f b089 d0be
00000280: 8aa8 153e a46e 083f 74af 963f d011 93bc
00000290: 940d a03f eb6f 193f fc5d c93e 50f3 97be
000002a0: 7ffd c3be 87c8 363e 5e74 3abf d9db 0c3f
000002b0: ca4e 5fbf 1dfb 19c0 bda4 fabf e016 313d
000002c0: 9b0b 11be 2af8 993e 6bb5 203e 12c3 833e
000002d0: 7149 eeba d5f4 8ec0 ac0b 303e 27ac d1be
000002e0: 1134 bd3d c1fd 543e 3136 a7bf cde0 a83d
000002f0: 7803 eb3c 4e5c da3b badf fd3e b2e4 02bd
00000300: 0aa9 28bf e413 7d3f 7d27 0dc0 906f 033d
00000310: 5edf 67bd cc78 8fbf 514f fabe c1ea 75bf
00000320: 6cee 803f 304d 1f3e 2e1b c3be 3367 d5be
00000330: afc1 243f d402 273f a81d 0f3d 5f75 82bf
00000340: 30cf 2440 3ae2 393e ff07 0d3e b00e 94be
00000350: 2521 193f 08c5 2b3c 7c56 bc3f eeb1 e93c
00000360: 09be 9f3e 5d10 083f c62e 3fbf 6641 4c3d
00000370: 0131 fc3f 4212 31be ce1e 013d fc03 9ebf
00000380: 9df7 9a3d 6ab0 72bf 2d86 c8bf 497d 7bbf
00000390: a09f b7bc 87e8 02c0 1036 5b3d c0cc ecba
000003a0: a6f7 b8bd 5fa8 88c0 00a5 ae3e 2cf0 b63d
000003b0: e0ae 3e3e 3757 03bf 6e8c ffbf c480 fcbe
000003c0: 2050 ae3b b165 c43b 3b40 ca3e 1814 b83e
000003d0: 2a2d ff3e a0aa 27bb c6a6 ae3f bf0b 043f
000003e0: 209c abbe 0984 9d3e 7268 8b3f dd2a 243f
000003f0: 6c1c 33c0 2ef6 ba3e 0aa7 bd3e 5ba5 06bf
-0.052083325 -0.82864493 -0.44276187 -0.05198468 -2.252485 0.13369566 -7.842879 -1.9374037
0.8888003 -4.189291 -1.9705287 -0.45405313 1.6143435 0.12706219 -1.0130488 0.101521574
-0.1424375 0.19498242 -0.5048596 -1.2481 -1.1571462 -0.35787097 -0.6379236 -0.42105317
-0.38930267 0.1190996 -3.88003 -0.13978288 0.19754359 1.2616457 0.047520995 0.081402585
-0.13226892 1.5865777 0.3475098 -0.47069195 -1.7876049 1.1142089 0.13420929 1.5719612
0.656604 -1.1537094 0.7846002 0.0635217 0.3522469 1.355552 1.1112614 0.1034773
-0.39726424 0.75973886 1.6962214 -0.23061295 -0.46698174 -0.107650176 -0.5565061 0.05715698
-1.3356978 0.10253838 -0.5450139 0.17200878 -0.69364476 0.24979347 0.043424018 -4.208021
-0.16293508 0.05116438 -0.25528017 -0.031018369 0.09704399 -0.22123232 0.7236365 -0.08895477
-1.4383636 1.6232213 -0.94733703 -0.6054135 0.5042758 1.6838546 0.2496153 0.026599847
0.47079125 -0.6526917 -0.1533871 -1.064486 -0.35232672 0.058341816 -0.008026704 -0.21109723
-0.61939794 0.12491132 0.11588038 -0.57504493 0.4910043 0.021967486 1.5270838 1.0787653
2.0747166 0.40386072 0.148953 -0.07042957 1.304067 -0.6539567 -0.039764464 -0.23516028
0.16978137 0.46888262 -0.26521456 -2.3007028 -0.00208121 0.055034634 -0.22321188 0.04784417
-0.021505604 -7.200468 0.42961353 -0.1481579 0.20948765 -1.5585316 -0.80377626 -2.3093827
0.06292108 0.3723414 -0.052938372 0.2946326 -0.44733182 0.068968 -3.3257682 -2.711959
-1.3088843 -0.6957538 -0.33201867 1.5970695 0.32029217 -0.23638481 0.98537344 0.59304166
-2.467604 -0.08670568 -0.13252074 -1.3374221 -0.3254889 0.0037608775 0.9066441 -0.831649
0.46397454 -0.04883168 0.17538664 0.051625554 0.14180544 1.1656094 0.029985167 -0.08140835
0.19172424 1.3693565 0.32064757 -0.010290384 0.6397667 -0.5892235 0.6982128 -0.40730047
0.14615074 0.53293824 1.1772294 -0.01795283 1.2504144 0.599364 0.39329517 -0.2967782
-0.3827934 0.17849933 -0.7283381 0.5502296 -0.872296 -2.4059517 -1.9581524 0.043234706
-0.14164583 0.30072147 0.15694205 0.25734764 -0.0018179846 -4.4673867 0.17191952 -0.40951654
0.092384465 0.20799924 -1.3063413 0.08246002 0.028688177 0.0066638356 0.49584752 -0.031956382
-0.65882933 0.98858476 -2.2055352 0.032088816 -0.056609504 -1.1208739 -0.4888864 -0.9606133
1.007276 0.15556788 -0.38106674 -0.41680297 0.6435804 0.6523869 0.03494039 -1.0192069
2.5751457 0.18152705 0.13772582 -0.28917456 0.598162 0.010483988 1.4713893 0.028527226
0.31199673 0.5314997 -0.74680746 0.049867056 1.9702455 -0.17292121 0.03152352 -1.2344966
0.0756676 -0.94800436 -1.5665947 -0.98238045 -0.022414982 -2.0454423 0.053518355 -0.0018066391
-0.0903161 -4.270553 0.3411026 0.08932528 0.18621397 -0.51304954 -1.9964731 -0.4931699
0.0053196102 0.005993568 0.3950213 0.3595283 0.49839145 -0.0025583878 1.3644645 0.51580423
-0.3351755 0.30764797 1.0891249 0.64127904 -2.7986097 0.36515945 0.37041503 -0.5259606

bias f4 [120]
00000000: 39b0 2fbd 85fc 3d3e b56b 383e 5590 20be
00000010: 7c6b cebd ae72 1abd 60f2 963e 5495 aebd
00000020: a9cc fbbd ad37 8f3e a114 f93e 993a 633d
00000030: bc45 b0be beeb 51bd 8055 50be f06f f4bd
00000040: 6a42 59bd 0143 9a3e 2198 03be 65fe 693e
00000050: b113 b8bd cdc5 363e 8610 2abe 7736 3a3e
00000060: 9b97 62be 2cf5 8ebd 04d8 afbd ffd3 42be
00000070: e46e 8fbd 421c 11be 8793 8fbe fc1a c6bc
00000080: 0a07 933d 69e9 a43e ecfb 12be 334c f9bd
00000090: f9eb eabd 97ad 2bbe 27ff 96be 609f 423e
000000a0: 1c24 4c3e abe2 183e 847d 02be ecab 2abe
000000b0: 896a 5b3d f292 a93e c368 053e 15e9 cf3e
000000c0: f068 92be 06e0 d7bd 4ae5 12be de02 fa3e
000000d0: ff4d 3fbe face 96be 30da 683e 8085 2bbc
000000e0: bed0 9b3e a3b5 f0bd 309c 67bd cd18 8dbd
000000f0: 7c92 f2bd ccd2 5ebe de5e 66bb 21b4 adbd
00000100: 9e3b 893c b806 84bd 05ea c2be 6494 e3bd
00000110: c334 8fbd acb6 37be 2ce1 12bd 20e6 63bc
00000120: 723f 1bbe 74fa 36bd 887d 2ebd d130 da3e
00000130: 7cd6 20be 92ff 26be 618f e2bd 84d5 7abd
00000140: 0498 d5bd 26f0 01be 8b8e 8cbe 0c12 b7bd
00000150: 9e6c 46be 3841 093f 527c 30be b85f 3a3e
00000160: 50e0 68be 0a0e efbd 91cc 943e 486a d4bc
00000170: a1a2 27be 7f69 2abc 0adf 52bd e361 e3bd
00000180: 1457 f7bd 51d1 833c 58fb e23d 57a4 8bbe
00000190: 1450 25be 9ffb 2b3e 05a1 cfbd 83b5 afbe
000001a0: 6b4d 163e 1e5c 123f 8a83 08be da0c d6be
000001b0: ae6c 01bd 426e cbbd debb 30be 5ead 0dbd
000001c0: 6469 b1bc a2e0 c63d 3e57 cabc 29d8 82bd
000001d0: 1dbe e1bd 968d 03bd f11e 28be 78de c33e
-0.04289267 0.1855336 0.18009837 -0.15680058 -0.10079095 -0.037707023 0.29481792 -0.08524576
-0.12294895 0.27972165 0.4864855 0.055475805 -0.34428203 -0.051250212 -0.20345116 -0.11935413
-0.053041853 0.30129245 -0.12851001 0.2285095 -0.08988131 0.17848893 -0.16607866 0.18184839
-0.22128145 -0.069803566 -0.085861236 -0.19026183 -0.070035726 -0.14170936 -0.28042242 -0.024182789
0.07179077 0.32209328 -0.14353913 -0.12172737 -0.114707895 -0.16765438 -0.2949154 0.19006109
0.1993565 0.14930217 -0.12743193 -0.16667145 0.053568397 0.33119923 0.13028245 0.40607515
-0.28595686 -0.10540776 -0.1434528 0.48830312 -0.18682097 -0.29454786 0.22739482 -0.010468841
0.30432695 -0.117533945 -0.056545436 -0.06889496 -0.11844346 -0.217601 -0.003515176 -0.084816225
0.01675206 -0.06446594 -0.38069168 -0.11112288 -0.069924854 -0.17940778 -0.035859272 -0.013909847
-0.15160921 -0.044672444 -0.042600185 0.4261537 -0.1570682 -0.1630843 -0.110625036 -0.06123878
-0.10429385 -0.12689266 -0.27452502 -0.08938989 -0.19377372 0.5361514 -0.17234924 0.18200576
-0.22741818 -0.116725996 0.29062322 -0.025929585 -0.16370632 -0.010401129 -0.051482238 -0.11102655
-0.12077156 0.01609102 0.11083096 -0.2727382 -0.16143829 0.16795205 -0.10138134 -0.3431817
0.1467797 0.5717181 -0.13331428 -0.4180668 -0.031597786 -0.099331394 -0.17259166 -0.034589164
-0.0216567 0.09710814 -0.024699803 -0.063888855 -0.11022589 -0.03211745 -0.16418053 0.38255668

weight f4 [120, 120]
00000000: ac5a 9ec0 e504 d7c0 0b4d 06c0 9556 843d
00000010: 2cba 97bc 2c99 dbbc 74ac 8cbf db6f 18be
00000020: a6b6 3bbe c7ce 033f 3b04 b5bf ff2f 10c0
00000030: 9eb0 02be 8492 8bbd 986b abc0 95d3 bbbd
00000040: 4696 72bd e78f 08bf 5891 92bd 682a 22c0
00000050: 24cc 39be 58db 94c0 b295 cabd abc7 abbe
00000060: 7a3d 41be ea61 77bd fc05 e23d ee63 6dbd
00000070: 0f1e 39be e945 13be 5217 363d 1bff d6bd
00000080: 9f3d 15bf 9953 86c0 546d aebd cc3e bd3c
00000090: 3638 a4bd 58b8 893d d0e3 d7be 4c2f cdbe
000000a0: 1265 18c0 bb36 95bd 80c8 913a a539 28be
000000b0: 10d6 9ebe dd72 17bf ba7d 253e b9e3 91c0
000000c0: 453a febd 37b4 8abd c545 2e3f 83a4 303d
000000d0: 141e 9ebc e4ee d23d b653 0e3d 0948 f53b
000000e0: fdf6 e5c0 c2dd 36be cce9 02be aa3e 36be
000000f0: 1f06 81bd 3849 edbc 830b c2bf 8416 3abd
00000100: 4633 f5c0 f4fd bcbc d722 f0be db32 ccbd
00000110: a95e 04bf 1459 f7bd 28a3 b9bd 24c4 7fbd
00000120: e29a 9ebd 36b8 c6bd 557b d0bd cfc8 e5bf
00000130: 4f3c 99bd e0d8 77bd 0a10 a7bd b840 88bd
00000140: 17ac b8bd 6fab 31bc 809e d5bf 07eb 58bf
00000150: c036 37be 3270 87bd 8b00 d9bd c91e fc3e
00000160: 5710 82bd 2f58 8fbd 9a01 d3bf d436 9bbc
00000170: 84fb 41bd 0cf0 89bf 6c68 41be f4ac 73bc
00000180: 2e36 05bd 2a63 0bbf befa 66c0 2ee8 8ec0
00000190: 62ea 34be 9c2b 46c0 0731 3b3d af03 b5bd
000001a0: b43b 76bf 8853 a1bf bc77 873c 8864 28bf
000001b0: e89a b0bd d54f ccbd 9cf8 5d3d eac4 80be
000001c0: 2071 5dbc 8f86 3a3f 565c f9bd b018 dfbd
000001d0: 2dec 49bc b857 43bd a0b9 393b 5ec4 e4bf
000001e0: f924 50c0 6369 67bf 938e 96c0 f035 f43c
000001f0: 80e0 39be d6e8 1abd eb27 99bf f0c0 c0bc
00000200: f73a c2bd 7b61 5bc0 45dc e83e 0ac0 80be
00000210: a750 02bf 69ef 24be cf13 33bf 92bd 6cbf
00000220: 6a6f 2bbe c42f b3c0 9767 74bd ab9c 4fbf
00000230: 2460 03be a46d ee3d a0d2 783c bee2 0bc0
00000240: f7bf 4fbd e1d1 e2bd a5d0 f4bd 1646 6abd
00000250: 042c 51be 285f 833d c4a1 51be c978 ffbd
00000260: e7ea a2c0 f8b0 aabf 623f 12be 869f 133d
00000270: 468a 07be 7c50 85bd f572 b83f 2bb5 87be
00000280: 4f62 743f 641f 55bf 61a0 81c0 70e1 01be
00000290: 4d77 d1c0 2c34 173e c9a0 48bf 5c81 38c0
000002a0: 0a6e 9dbd 4a65 18be 7256 71c0 2c7a b73e
000002b0: 1650 1bbe 351c 8fc0 54f0 bebf ac15 3bbe
000002c0: 84a1 a3bf 9223 1abe b2cf 6abd d9b9 a8bd
000002d0: a1ab d0bd 38eb 4cbc dd6d e8be ef08 e5bd
000002e0: 8024 b23c 4b3d c2bd 3656 f6bf 7c6e 32be
000002f0: 65ad 8dbf 887c 723d 6012 a3bc 14d6 b5bc
00000300: d8ff ab3d 073b 95bd 06b1 16be 8626 83bf
00000310: 4e53 853d ff5a edbd 5026 e6bc 5428 8bbc
00000320: 3846 4bbd 3817 e03a c72a 30bd 4569 a5be
00000330: 540f 07be 7dea c7be 7e60 24be f185 013e
00000340: 2cbb 42be 76b0 17be 7e55 e73e 6e75 cbbd
00000350: c8b2 65bc aa9f 30c0 e413 9bbd 2361 12be
00000360: b2fb 39be 80f2 c0c0 0a2e d53e fe17 3abf
00000370: 8375 0bbe bf68 dabf 9494 91bc 6c92 abc0
00000380: 3f35 1bc0 9160 12bd 88f6 743c 535a f63f
00000390: e116 a7bd 628b 34be b630 efbc de9c 32be
000003a0: 6873 dfbd 5361 ffc0 1387 9fbd 1fbc 403d
000003b0: 31fd 843c 8e76 1fbe a9bb 10be 55d1 e4bf
000003c0: ea4a 403d bb86 c6bf 7e80 16c1 a96e 8e3c
000003d0: e626 2fbe 9031 39be 941f 8f3c cce9 1bbd
000003e0: 1f34 0bbe 4f10 86bf dab0 65bf b356 803f
000003f0: 0a66 62bf d604 abbd 8c6e 0fbf fa1c 58bf
-4.9485683 -6.7193475 -2.0984523 0.06461827 -0.01852139 -0.026806436 -1.0990129 -0.1488642
-0.18331394 0.5148739 -1.4141916 -2.2529294 -0.12762687 -0.06815055 -5.356884 -0.091712154
-0.059225343 -0.5334458 -0.07156628 -2.5338383 -0.1814428 -4.6517754 -0.09891833 -0.33550772
-0.18871108 -0.060396113 0.11036298 -0.05795663 -0.18077873 -0.14382137 0.044455834 -0.10497876
-0.5829715 -4.197705 -0.085169464 0.023101233 -0.08018534 0.06724614 -0.42165995 -0.40075147
-2.3811688 -0.0728583 0.0011122376 -0.1642824 -0.31022692 -0.5915964 0.16161242 -4.559048
-0.12413458 -0.067726545 0.6807521 0.04312564 -0.019301452 0.10299471 0.0347478 0.007485394
-7.1864 -0.17858031 -0.12784499 -0.17797342 -0.06299996 -0.028965577 -1.5159763 -0.04543163
-7.662509 -0.023070313 -0.4690158 -0.099706374 -0.5170694 -0.12077537 -0.09064323 -0.062442914
-0.07744385 -0.09703104 -0.10179774 -1.7951907 -0.07482206 -0.060509562 -0.08157356 -0.06652969
-0.090171985 -0.010844096 -1.6688995 -0.84733623 -0.17891979 -0.066131964 -0.10595807 0.49242237
-0.06350773 -0.069992416 -1.6484864 -0.018947043 -0.047359005 -1.0776381 -0.1888749 -0.014872778
-0.032522373 -0.5444819 -3.609054 -4.4658422 -0.17667535 -3.0964117 0.045701053 -0.08838593
-0.9618485 -1.2603617 0.016536586 -0.657784 -0.08623296 -0.09976164 0.05419217 -0.25150234
-0.013515741 0.7286157 -0.12175815 -0.10893381 -0.012324375 -0.047691077 0.00283394 -1.7872427
-3.2522566 -0.9039518 -4.704904 0.029810876 -0.18152046 -0.037819706 -1.1965307 -0.0235295
-0.09483903 -3.4278247 0.45480552 -0.25146514 -0.50904316 -0.16106953 -0.699521 -0.9247676
-0.1674172 -5.599581 -0.059669103 -0.8109843 -0.12829643 0.11642006 0.015186936 -2.1857142
-0.05072018 -0.110751875 -0.11953858 -0.057195745 -0.20426947 0.06414634 -0.20471865 -0.1247421
-5.0911746 -1.3335257 -0.14281991 0.036040805 -0.13236341 -0.06509492 1.4410082 -0.26505408
0.95462507 -0.83251023 -4.0508275 -0.12683654 -6.545813 0.14765996 -0.7837034 -2.8828955
-0.07687004 -0.14882389 -3.7709012 0.35835397 -0.15167269 -4.4721932 -1.4917092 -0.18269986
-1.2783666 -0.15052631 -0.05732698 -0.082385726 -0.101889856 -0.012507252 -0.4539632 -0.111833446
0.02174592 -0.09484347 -1.924506 -0.17424959 -1.1068541 0.059200794 -0.019906223 -0.022196807
0.08398408 -0.07286649 -0.14715967 -1.0246131 0.0651003 -0.11589622 -0.02809444 -0.016987003
-0.049627513 0.0017096763 -0.043009546 -0.32306877 -0.13189441 -0.39046088 -0.16052434 0.12648751
-0.19016713 -0.14813408 0.45182413 -0.09934507 -0.014019676 -2.7597451 -0.07572153 -0.14294867
-0.1816242 -6.029602 0.41636688 -0.7269286 -0.13619046 -1.7063216 -0.017771043 -5.361624
-2.425125 -0.035736624 0.014951356 1.9246315 -0.08158661 -0.17631295 -0.029198032 -0.17442653
-0.10910684 -7.9806304 -0.07789435 0.047054406 0.016234012 -0.15572569 -0.14134087 -1.7876383
0.046946444 -1.5509866 -9.40637 0.017386751 -0.17104682 -0.18085313 0.017471112 -0.038064763
-0.13594101 -1.0473727 -0.8972298 1.0026459 -0.8843695 -0.08350532 -0.56028056 -0.84419215

bias f4 [120]
00000000: 4295 debe faac 29bf e471 59be 2916 35bf
00000010: 35fb 0bbf bc75 1abf 9007 62bf 49de d8be
00000020: 20d8 e6be d9e2 31bf 2af2 2bbf 170b 40bf
00000030: fac0 43bf 2867 17bf 4ee0 12be cedb 2cbf
00000040: bef1 32bf 0d58 0fbf f85d 6abf 102b 32bf
00000050: 5a35 47bf 47f5 1abf 15a0 35bf 0aa9 96be
00000060: 1a20 3ebf b3b5 4fbf 1d04 5bbf 141f 0abf
00000070: b937 1bbf 0f2a 4dbe 6954 30bf 2cc7 f8be
00000080: 1295 0dbf 90be 05bf e73d ddbe 0540 4fbf
00000090: 0a06 70bf b72f 2ebf 47b4 a5bf d96e 88bf
000000a0: b946 41bf 6a9d acbe 79dc 12bf d165 73bf
000000b0: 68cd 50bf b064 58bf 70d0 22bf 1fee 05bf
000000c0: d5bf dcbe 821c 00bf 4206 c3be a3a9 69bf
000000d0: 42ee 35bf 8ae9 2ebf 701b 49bf ecb1 f3be
000000e0: 0437 71bf 9b43 6abf d47d 67be 575d 7fbe
000000f0: 3cbe 95be 9633 87be 41f0 5abf b8e9 38bf
00000100: 7178 03bf 7d18 08bf ef3f 3dbf 07dd 84bf
00000110: 5270 efbe 9172 37bf 7c7c 72bf cd8f babe
00000120: ee84 80bf 157e 0c3e 7919 c0be 8717 0cbf
00000130: dfc2 b7be 6ad2 26be 41e4 18bf 2588 05bf
00000140: 2181 6dbc 3973 a6be 976d e0be 853f 6cbf
00000150: bd8a 45bf d794 25bf b999 f9be 269e cfbe
00000160: 0fa6 6cbf 51e6 29bf 75a7 0cbf 5d68 42bf
00000170: b97f 2dbf bcf3 b9be e046 f9be 2cbe 11bf
00000180: d41b 1cbf 6071 4abf 29c5 05bf 6961 c0bd
00000190: 569f 88bf 032f 2abf 2bfe 1bbf 661e 2abf
000001a0: c13f 25bf 86d5 99be fed7 45bf 887d a8be
000001b0: 2180 95be d074 49bf c577 a0bf 48b8 99be
000001c0: d8b8 36bf 31a4 4bbf cf65 5cbf 1ccd 69bf
000001d0: f824 26bf 20c5 67bf adbc 34bf a069 57bf
-0.4347325 -0.66279566 -0.21234852 -0.7073694 -0.54680187 -0.603359 -0.8829279 -0.4235709
-0.45086765 -0.6948677 -0.6716639 -0.7501692 -0.76466334 -0.5914178 -0.14343378 -0.67522895
-0.6990012 -0.5599373 -0.91549635 -0.6959696 -0.77815783 -0.60530514 -0.7094739 -0.29425842
-0.74267733 -0.81136626 -0.8555315 -0.5395367 -0.606319 -0.20035575 -0.688788 -0.48589456
-0.5530559 -0.522439 -0.4321129 -0.8095706 -0.93759215 -0.6804156 -1.2945641 -1.0658828
-0.7549854 -0.33713847 -0.57367665 -0.95077235 -0.81563425 -0.84528637 -0.635993 -0.5231647
-0.43115106 -0.500435 -0.38090712 -0.9127447 -0.7106668 -0.683251 -0.7855749 -0.4759668
-0.9422457 -0.9150941 -0.22606593 -0.2493795 -0.292467 -0.26406544 -0.8552285 -0.72231627
-0.51355654 -0.53162366 -0.7392568 -1.0379952 -0.4676538 -0.7165919 -0.947212 -0.36437836
-1.0040567 0.13719971 -0.37519434 -0.547234 -0.35890862 -0.16291204 -0.5972329 -0.52160865
-0.014496119 -0.32509783 -0.4383361 -0.92284423 -0.7716482 -0.64680237 -0.48750094 -0.40550345
-0.92440885 -0.6636706 -0.5494302 -0.75940496 -0.67773014 -0.36318767 -0.48686886 -0.56930804
-0.6097996 -0.79079247 -0.5225397 -0.093935795 -1.0673625 -0.66477984 -0.60934705 -0.66452634
-0.64550406 -0.30045718 -0.772827 -0.32908273 -0.29199317 -0.78693867 -1.2536551 -0.30023408
-0.713758 -0.7954741 -0.8609285 -0.913286 -0.6490016 -0.90535164 -0.70600396 -0.84145546

weight f4 [14, 120]
00000000: 1afc a33f 519d 6abd 62c0 263f 2939 84bf
00000010: ee9f ccbe 62ba 9e3e 6906 cd3e 49cf 89bf
00000020: 1ab8 0bbf c4eb 893f ff2a 453f 7457 98bf
00000030: aeef 08bd c95d 4c3d 6dec e4bf 30ab 62bf
00000040: 3ea0 0dbf e282 90bf 3f8f a2bf a253 97bf
00000050: 3c14 f23d 0776 93be 0f61 e4be 5b4b 0cbf
00000060: c36b 9d3f a01c 1e3e 3aba c6be 7b3e 63bf
00000070: 807f ca3e dbd8 143f eeef 173f d63d f4bd
00000080: 89d8 16bf b030 47bf 584e d43f 2f00 1a3f
00000090: 8a0e 80bf ff40 7e3f 85f4 43bf eabb e53e
000000a0: 38b0 efbe 9236 9c3f 9ea4 3c3f 672e 62be
000000b0: 1d79 133f 546b 8b3f 057a 223f 3f1f a03f
000000c0: 3c28 78bf 4c9e 943f c4ca 47bf 6564 193f
000000d0: b588 833f 624d 2e3f dd48 803f 7d3d 8d3f
000000e0: 4e08 45bf 706e 1f3f 9b83 1a3f c8fc aa3d
000000f0: 2fad b9bf 4419 5cbb 8a26 e3be e827 773f
00000100: 2ad8 21bf b6d1 3cbf 1a3f 043e 0db0 2cbf
00000110: f96a 93bf ec2c 88bf de90 44bf 7adc 15bf
00000120: 664e c63e ca13 b4bf 82ce 673f 96aa f13f
00000130: cba1 1c3e 061b b5be 0428 2c3f faeb ad3f
00000140: 634e 09c0 c33b a53e 796a 253f bb44 28bf
00000150: 701f e93b 7789 f93e 020f 02be ab10 acbd
00000160: ef08 333f 99da 80bf bcc2 7b3f fb8c 66bf
00000170: 62e8 293f 48e2 303f 8df7 65bf b8c0 263f
00000180: d953 843f 2280 863e dd0a 88bf 38dd b73e
00000190: 544a e33e 7740 86be ddeb 5dbf 6544 693f
000001a0: 0be0 ebbe d0eb 9a3f 3a5e cb3e b82b 74bf
000001b0: 8100 b63f ac54 43bf a253 73bf 6904 babe
000001c0: c890 aabf 8274 5f3e fe91 a73f 5c83 9fbf
000001d0: 4c7d 6a3f 05c4 a1bf fc5f 58bf 0778 9bbf
000001e0: 89b9 003e 65c7 92bf e80a 85be 9e9d 0ebf
000001f0: c377 e33e b217 a9be 4c19 9e3f cf68 0f3f
00000200: abee 58bc 7200 cabe f85e 7c3e d96c ae3d
00000210: aa19 94be ba7f ac3e 966d d4be 5afc e03e
00000220: a303 53bf 5f75 823d 93a1 06bf 0b4d 85bf
00000230: 7083 6ebf 9a70 3fbf bff8 273e 5c8a 8bbf
00000240: c520 79be 71db 8e3c af37 cfbe 7c97 523f
00000250: 57fc 753c e7c0 d8bc 0fd4 2abf d026 ae3e
00000260: 48e0 98bf fd1c aabd 64ca f63e d83d 32bf
00000270: a924 22bf b7ee a13d 9a77 8ebf 80e3 7cbd
00000280: 16be 8d3f a415 7ebd 664a 87be 7722 0ebe
00000290: 5fe2 4fbf e98c e5be 646d 8abe eb6f c13e
000002a0: 1ed6 1fbf 4933 45be f7b2 1cbf abd8 0fbf
000002b0: 10f1 a43e 8c03 e83d eaa9 36be 21ce 613e
000002c0: 92e0 06bf b9da e0be 4a1e fe3d b994 e5be
000002d0: fd68 ccbe ac2b 653e f936 c03e 106a cc3e
000002e0: 3eaa ebbe 8622 3b3e 0f96 d13d 002b 9cbf
000002f0: 44cd 34bd 9b8f 9fbf 00ce 59bf 2260 80be
00000300: 4f34 3cbf ba7d 7f3f b752 3abe f5a0 0abe
00000310: 55b4 86be ce78 54be 41dc 4b3e 99df 173d
00000320: c0eb 68be 755b 263e 83c3 7abe 550a 96bf
00000330: ebb7 f4be f585 363f de79 893e 64f8 70bf
00000340: adb5 c6be 898f 25bf 8496 d73d 3697 f1be
00000350: 48a4 fbbd 78cf 57bf 28b6 91bf 3ab4 f5be
00000360: 52f4 3e3f efba 683f d6d0 28bf 0bb4 98bf
00000370: cf77 913e d79b 41bd 2565 07bf 02ab 3ebe
00000380: daa7 7dbe 432d 0a3f 8c96 5cbe b58d 8ebe
00000390: 63de afbe a0a1 5c3a 021c 0ebf b45f 8f3f
000003a0: 1a87 9dbe 9c32 103f a6fd d73e 88b6 03bf
000003b0: 5e77 b63e 98ec 4ebf 6fea a0bf 1210 5cbf
000003c0: db97 0b3e 743d 65bf c87b 2abf 1925 4d3f
000003d0: 5219 d0be 08c5 60bf ce17 093f b7b1 833f
000003e0: cbb9 93bc a904 f8be 7458 0abf 7d95 21bf
000003f0: dcbf 79bf a7c0 d43f 1971 f5bd da48 6a3f
1.281131 -0.057278935 0.651373 -1.0329944 -0.39965767 0.31001574 0.40043953 -1.0766383
-0.5457779 1.0775075 0.7701873 -1.1901689 -0.0334317 0.049894128 -1.7884651 -0.8854246
-0.55322635 -1.1289942 -1.2699965 -1.1822398 0.11820266 -0.28800985 -0.446053 -0.54802483
1.2298511 0.15440607 -0.38813955 -0.8876721 0.395504 0.58143395 0.5935048 -0.11925857
-0.58924156 -0.77808666 1.6586409 0.6015653 -1.0004437 0.99317926 -0.7654498 0.4486993
-0.46814132 1.2204154 0.73688686 -0.22088014 0.5760668 1.0892129 0.6346744 1.2509536
-0.9693639 1.1610808 -0.7804377 0.59918815 1.0276095 0.68086827 1.0022236 1.103439
-0.76965797 0.6227789 0.60357064 0.083489954 -1.4505976 -0.0033584395 -0.4436534 0.9654527
-0.63220465 -0.73757493 0.12914696 -0.6745613 -1.151702 -1.0638709 -0.7678355 -0.58539546
0.38731688 -1.4068539 0.9054948 1.8880184 0.15296094 -0.3537218 0.6724856 1.3587639
-2.1454093 0.32272157 0.6461559 -0.65729874 0.0071143433 0.4873769 -0.12701038 -0.08401617
0.69935507 -1.0066711 0.98344016 -0.9005887 0.66370213 0.6909528 -0.8983086 0.65137815
1.0338088 0.26269633 -1.0628315 0.35910964 0.44392645 -0.26221058 -0.86688024 0.91119987
-0.4606937 1.2103214 0.39720327 -0.9537921 1.4218904 -0.76301074 -0.9504949 -0.3633149
-1.3325434 0.21821788 1.3091428 -1.2461963 0.9159744 -1.2637945 -0.8452146 -1.2146004
0.12570776 -1.14671 -0.25984883 -0.55709255 0.44427308 -0.3302589 1.235147 0.560193
-0.013240497 -0.39453465 0.24645603 0.08516855 -0.2892583 0.33691198 -0.41489857 0.4394253
-0.82427424 0.06370043 -0.5259029 -1.0414137 -0.9316931 -0.7478119 0.16403483 -1.0901599
-0.24328907 0.017438622 -0.4047217 0.82262397 0.015013776 -0.02645917 -0.66729826 0.34013987
-1.1943445 -0.0830631 0.48201287 -0.69625616 -0.6333719 0.07906859 -1.113025 -0.0617404
1.1073635 -0.062032357 -0.2642395 -0.13880335 -0.8120479 -0.44834068 -0.27036583 0.377807
-0.6243609 -0.19257845 -0.6121058 -0.56189984 0.32215166 0.113288015 -0.17838255 0.22051288
-0.5268642 -0.43916872 0.12408121 -0.4484003 -0.3992385 0.22379941 0.3754194 0.3992467
-0.46028322 0.18274888 0.102336995 -1.2200623 -0.04414107 -1.24657 -0.85079956 -0.25073344
-0.73517317 0.9980122 -0.18195616 -0.13537963 -0.26309457 -0.20749208 0.19908239 0.037078474
-0.22746181 0.16245826 -0.24488644 -1.1721903 -0.47796568 0.7129815 0.2685079 -0.94129014
-0.38810483 -0.6467214 0.105267555 -0.47185677 -0.122871935 -0.8430095 -1.1383715 -0.47989064
0.74591553 0.9091024 -0.6594366 -1.1929945 0.2841172 -0.04726776 -0.5288871 -0.18619922
-0.24771062 0.53975314 -0.21541804 -0.2784249 -0.34349355 0.0008416418 -0.55511487 1.1201081
-0.30767137 0.56327224 0.42185706 -0.51450396 0.35637945 -0.80829763 -1.2571543 -0.8596202
0.13632147 -0.89546895 -0.66595125 0.8013473 -0.40644318 -0.87800646 0.5355195 1.0288609
-0.018032929 -0.48441055 -0.5404122 -0.63118726 -0.9755838 1.6621293 -0.11984462 0.9151741

bias f4 [14]
00000000: f47d d53d 8ae7 adbd 6c4d cb3d 664d b83d
00000010: d387 453c ded3 e43d b037 84bd 2fab f9bb
00000020: 9034 44bd 38d8 8bbc 2e79 263d 7008 123a
00000030: cf32 3cbd 724c 0a3d
0.10424414 -0.08491428 0.099268764 0.089991376 0.012056309 0.11173223 -0.06455934 -0.0076192836
-0.04790169 -0.017070875 0.04064291 0.00055707153 -0.045946892 0.03376431
