python/mod/modelstate2.pth (torch, 131127 bytes, 8 tensors)

weight f4 [120, 14]
00000000: 60fb 943e 5701 aabe 7ed4 fc3e b63b f2be
00000010: d526 423f 799b 993e 342a 243f fc0d e33e
00000020: 026a 9bbf 999a 3bbf 4c80 6ebf 23f3 5e3d
00000030: 2efe 2ac0 27b7 a6bf 2894 af3e 41eb 533e
00000040: d69b 32bf 0079 b23e 5afb 0bbf 3343 efbe
00000050: 5b97 823d 0592 13bf 6e7d 9abe 4d66 9cbf
00000060: 084e 37bf 188f 253f 1dfc 153f 9c78 f53f
00000070: b5fa 2c3e 6f88 393f ad24 9a3d 4fd6 cfbd
00000080: 9d6d f6bd bbc9 abbe 2452 0abe 82c2 fa3e
00000090: 8647 1bbf 8e1e 8abf 82b9 32be 52bc a6be
000000a0: 367d 643d a135 803f 3ab1 a93e 2dc7 83bd
000000b0: 44b5 3a3f 2ab4 3b3f 8951 5b3d a052 ebbe
000000c0: 2304 70bf 9c57 2f3f 593e 943f 385a f6be
000000d0: 84c2 40bf c334 803e e0da 4e3f 6928 2c3f
000000e0: 0084 8dbb 74f8 383e 74bd 843d 0057 4b3e
000000f0: c8bd a53d 65d0 49be 564f 96bd b4eb a8bd
00000100: fcca 32be 8620 2e3e 681e af3d eaa7 703e
00000110: 50eb 80be 50f2 edbc 9e7a b93e 0433 853e
00000120: 0557 e4be 5720 8cbf 7b77 1f3f a16f 6c3e
00000130: 2c6b c43f dedd 61bf 6c7e 9abf 53b0 e4be
00000140: f1c9 d1be 3d33 e13e d3d4 f8bf a9d8 a8bf
00000150: 6fe9 10bd 28bf ee3e a79e b5be eb58 c43d
00000160: 2445 453f fd0c 7abe 6b0f ce3e 17f0 b83e
00000170: 2784 1d3f 4da3 a03e dab9 30bf b311 24be
00000180: 527b f33f 2789 b13e 50bb 613d 6ae5 0dbe
00000190: e775 12bc 99c8 12be 6d93 af3d 7bb9 703d
000001a0: bb9a 033e 5dad 0b3e 9341 533c a98c 783c
000001b0: 26f2 ccbc 080e c93d a300 953c a5e1 86bd
000001c0: eab2 0d3f d040 ad3e 9243 9e3c 5945 65bf
000001d0: a486 b73f 79aa 2bbf 18f1 fd3f 9a65 4fbd
000001e0: 510b 55be 8f94 b83e 0382 903c e5dd f1be
000001f0: e240 5b3f 183e 2340 9c7a dcbc baef 813d
00000200: 5cc4 37be fbdc d63e d7ca 013f 04d1 e5bd
00000210: 156d 85bf 60e0 293f f290 fcbd 9cc8 f13e
00000220: 49c2 2c3f e869 723f 4d78 90bf 7785 303f
00000230: afb8 913d 4c00 953e 28af cdbb 0586 77bf
00000240: 48bb a53d c256 ee3e c355 30bf 4afa 573f
00000250: cd09 4f3f a2c3 fa3e 64b2 aa3e 2cfa 8a3e
00000260: eb31 d2be 8fbf 63c0 eeb5 d93e f355 e2be
00000270: f3fa 69bf d541 a8bd c05d e8bc 6327 26bf
00000280: 3324 e23f afc4 433f fe83 21bf 0495 39bf
00000290: 290d 77be b570 c1bd 62dc 5240 1b31 1740
000002a0: dff0 383d c618 f03e 035b 72bf 6725 453f
000002b0: 1713 4ebf 0754 b73f 5a2b 343f 16ab 4dbe
000002c0: b27d 113f d33f 9dbf 8f0c 9e3f f43f 8d3f
000002d0: 9aae ef3f b6a5 04c0 b089 723e 3970 d63d
000002e0: 5fc3 aabc 8389 0b3e 8c04 dbbd 1419 753d
000002f0: f697 643d 8248 e13d 2cb0 0d3f 7785 debd
00000300: df06 98be d0bd 393f d45b 803d dff6 c53f
00000310: e56b 333e 0e1c c13d b93b 1fbf e185 003f
00000320: 0277 b83e d9c0 0ebf 8845 2c3f 8647 34bf
00000330: 8159 093f 524c f53d 0af5 4bbd ecee 0bbf
00000340: 328d 3040 1ad1 50be 5df1 793e 2904 e93d
00000350: 1863 a93f 1865 113f 83e2 333e abc8 5bbf
00000360: 038e 6e3e f379 81be afd9 8c3e cf55 b3bf
00000370: 28d7 a2be 6242 be3f a71d 953c eaa4 c83e
00000380: c5d5 9bbd 3052 313f 4c93 ec3e bfc4 0c3f
00000390: 7d69 a6be 5e83 68be 9671 153f e334 68be
000003a0: 7d0c 82bf f063 e53f 1ae1 d2bd beed a9be
000003b0: b137 0640 f882 a6bf a948 c53e 90ee 423d
000003c0: 7280 ebbe e440 52be 5c0a 4ebf f49f 473e
000003d0: 2e0f 8a3e 29af eb3f 0f8d f23e d2d6 ecbc
000003e0: 123e 923f fb85 e33d 05a5 4f3f 4cf6 a53e
000003f0: 1c41 1a3f 004b 193e 1027 49be eed8 eb3e
0.29098034 -0.33204147 0.4938087 -0.4731118 0.758405 0.3000143 0.64126897 0.44346607
-1.2141726 -0.7328277 -0.93164515 0.054431092 -2.671764 -1.3024644 0.34292722 0.20695211
-0.69769037 0.3485794 -0.5468041 -0.46730956 0.06376525 -0.57644683 -0.3017382 -1.221872
-0.7160344 0.6467147 0.5858782 1.9177432 0.16892512 0.72473806 0.075265266 -0.10148298
-0.12032626 -0.33552346 -0.13507897 0.48976523 -0.6065601 -1.0790575 -0.17453578 -0.32565552
0.055783473 1.0016366 0.33143026 -0.06434474 0.7293284 0.73321784 0.053544555 -0.45961475
-0.9375631 0.68493056 1.1581527 -0.48115706 -0.7529681 0.25040254 0.80802727 0.6724916
-0.004318714 0.18063527 0.06481448 0.19857407 0.080928385 -0.19708402 -0.07339351 -0.08248082
-0.17460245 0.17004594 0.085507214 0.23501554 -0.2517953 -0.029046208 0.36226362 0.26015484
-0.4459764 -1.0947369 0.6229169 0.23089458 1.5345206 -0.8822917 -1.2069831 -0.44665775
-0.40974382 0.43984404 -1.9439949 -1.319112 -0.03537887 0.46630216 -0.35472605 0.09587272
0.77058625 -0.24419017 0.40246138 0.36120674 0.61529773 0.3137459 -0.69033587 -0.16022377
1.9022009 0.3467495 0.055110276 -0.13857046 -0.008939243 -0.14334334 0.08573041 0.058770638
0.12851994 0.13640352 0.012894052 0.015170255 -0.02501781 0.098171294 0.01818878 -0.06586007
0.55351126 0.3383851 0.01931933 -0.8955894 1.4337964 -0.67056996 1.9839201 -0.050634004
-0.20805098 0.3605084 0.01764012 -0.47239605 0.8564588 2.550665 -0.026913933 0.06344552
-0.17945999 0.4196547 0.50700134 -0.11221507 -1.0423914 0.66357994 -0.123323336 0.47223365
0.67483956 0.9469285 -1.1286713 0.6895365 0.07115304 0.2910179 -0.006276984 -0.9668887
0.08092362 0.46550566 -0.6888086 0.84366286 0.8087433 0.4897738 0.33339226 0.2714399
-0.4105371 -3.5585668 0.42521614 -0.442062 -0.91398543 -0.082156815 -0.028365016 -0.6490385
1.7667297 0.7647199 -0.6309203 -0.72493005 -0.24126114 -0.09445325 3.294701 2.3623722
0.045151588 0.468939 -0.9467012 0.77010196 -0.8049788 1.4322518 0.7037865 -0.20084795
0.5683242 -1.2285103 1.2347583 1.1035142 1.8725159 -2.0726142 0.23685336 0.104706235
-0.020845113 0.13626675 -0.106942266 0.05983837 0.055808984 0.11000158 0.5534694 -0.108653
-0.29692742 0.72555256 0.06267515 1.5465964 0.17521627 0.09429179 -0.62200505 0.50204283
0.36028296 -0.5576301 0.67293596 -0.70421636 0.536522 0.119774476 -0.049794234 -0.5466144
2.7586179 -0.20392266 0.24408479 0.113777466 1.3233366 0.5679488 0.17566876 -0.8585307
0.2329636 -0.25288352 0.2750983 -1.4010562 -0.31804776 1.4864008 0.018202616 0.3918832
-0.07609133 0.69266033 0.4620613 0.5498771 -0.32502356 -0.22706363 0.58376443 -0.22676425
-1.0160061 1.7921124 -0.10296841 -0.33189195 2.0971491 -1.3008718 0.38531998 0.047590792
-0.45996433 -0.20532566 -0.8048456 0.19494611 0.26964706 1.841283 0.47373244 -0.028911028
1.1425192 0.11109539 0.81111175 0.32414472 0.602556 0.14970016 -0.19643807 0.46063942

bias f4 [120]
00000000: 6b46 d93d 3fc4 8b3e cddc 883e 50ce aa3d
00000010: 1804 6ebe 96f4 1abe 29f8 613e 6da3 2cbe
00000020: 0c23 7a3e 4082 9b3e 2d55 d53c ad82 e8bd
00000030: cc97 2bbe 7bbc 863e 3db7 263e 13ba 573e
00000040: b175 143e a4ba 773e 7554 edbd 9de1 58bd
00000050: b91f 373e 712a 833e f59d 9b3d 1fc4 76be
00000060: d75f 9e3e 8cfb 1e3e 32aa 9b3e 0c70 2e3e
00000070: 549f 663e dfd5 41be 79a5 413e 1c7b 433c
00000080: 27d9 983e 3515 493e 90d4 28bd 6dec 5b3e
00000090: 503b 84be 0674 82bb 6b5c 813e 9349 403e
000000a0: d98b 763d 4254 7e3e 13db e93d 5ca3 8f3c
000000b0: 0036 c93d 1715 523e 996f 053e b836 9f3e
000000c0: a920 9a3e df17 373d ce18 c13e cab0 51be
000000d0: 48a7 603e bfbc 863e 003a 18be 787a 0a3d
000000e0: 9d91 533e 3a2e b33e b6a3 823e 4df0 bdbc
000000f0: 7f22 9b3e 16c5 093e 6b55 753e 4109 073e
00000100: 7c85 933b 982d ae3d ab66 883e e4a8 e83d
00000110: ade7 803d 60bb 7f3d 9318 303e b8ea 913e
00000120: a257 213e 6e01 723e 8cde a3bd acc4 e23c
00000130: e5d1 b93d 7f8d f13d 6a6c 9a3e 03fd 7c3e
00000140: f738 a13d 70af 133e 5646 483e 2d48 313e
00000150: 1309 ae3d d739 823b c9e8 2e3d b369 a03e
00000160: 3fd2 843e 43c5 2bbe 6eda 883e 553a bbbc
00000170: c280 c63d 476a 0d3e 158e 5c3e 93f5 943e
00000180: dae3 c33c e2fb 6e3e cd9c 703e 11f5 21be
00000190: 4699 2f3e ece0 523e 70b8 753e 231b 06be
000001a0: 5b0e 4d3e 578a 10bc 8ba8 673d 7fff 0c3e
000001b0: a575 713e 159b 603e c16f 82be dafb 90be
000001c0: 9b8b 613e 30d5 1fbe 5500 493d bd2e 8f3e
000001d0: a58a c03d 5149 793e ea76 9b3e 7444 52be
0.10609134 0.2729816 0.26730958 0.08340132 -0.23243749 -0.15132365 0.22067322 -0.16859217
0.24427432 0.3037281 0.026041592 -0.113530494 -0.16757125 0.26315674 0.16280837 0.21067075
0.1449802 0.24192291 -0.115883745 -0.052949537 0.17883195 0.25618318 0.07598487 -0.24098252
0.30932495 0.15525645 0.30403286 0.1703493 0.22521716 -0.18929242 0.18910779 0.011931207
0.29853174 0.19636996 -0.04121834 0.21476908 -0.25826502 -0.003981116 0.25265822 0.18778066
0.060191963 0.2483683 0.11418738 0.01753395 0.09824753 0.20515858 0.13030852 0.31096435
0.30103043 0.0447005 0.37714237 -0.20477596 0.21938813 0.26315877 -0.14865875 0.0338082
0.20661016 0.34996206 0.25515527 -0.023185873 0.30299756 0.13454089 0.23958366 0.13187124
0.0045019966 0.0850479 0.2664083 0.11360338 0.06294189 0.062434554 0.17196874 0.2849939
0.15756086 0.23633358 -0.08001432 0.027681671 0.09073237 0.11794566 0.30160838 0.24705891
0.07872193 0.14422393 0.19558081 0.17312689 0.084978245 0.00397418 0.04270247 0.31330642
0.25941655 -0.16774468 0.2672915 -0.022854963 0.09692527 0.13810073 0.21538575 0.29093608
0.023912359 0.23338273 0.23497315 -0.15816142 0.17148313 0.20593613 0.23996139 -0.1309629
0.20025007 -0.008822045 0.05655722 0.13769339 0.23580034 0.21934159 -0.25475886 -0.28317147
0.22025912 -0.15608668 0.049072582 0.27965346 0.09401444 0.24344374 0.30364162 -0.20533925

weight f4 [120, 120]
00000000: 5136 7a3d 7e58 483e f2e3 e4bc 646f 8bbc
00000010: f27b 803d 4530 e5be 2696 b73e 1d19 a7bd
00000020: 6b12 99bd d5a4 993e a343 b93b dc5d 15bf
00000030: 9022 243e 0e96 2d3c b6c8 693e 99e2 0d3e
00000040: 46da 3d3f 5422 bc3e 4b3c 093d 09c3 4cbd
00000050: 0a5d 64be 3709 c33d 74ba 9dbe aba8 03bd
00000060: 0df4 1b3e 6cdc 7bbd 1029 533d ea7b 8f3e
00000070: 4bf8 763e d5f5 a1bf c0f4 a43e 088f d53e
00000080: 0fe2 c93b 9b7c 6e3e 0aa3 96be 909e e7bd
00000090: 6033 ab3d 60bf 79be 057f 883e b664 483e
000000a0: 1253 8b3d b4f5 1a3e 3641 8e3e 592c 33be
000000b0: f899 cbbe 1a0e cb3e 93a0 09bf d1cd 803e
000000c0: c1d2 92bd c88c 37bf 9675 1e3e 7f13 283f
000000d0: d6af df3d 16d0 6c3b da36 5cbe 7947 db3e
000000e0: da05 043e daca 373e c190 6c3d 248f 8abd
000000f0: ddf1 973e 6737 ea3e 40c0 d03e 87c3 c03e
00000100: d176 bd3e 12a2 253e 2c85 52be f383 e93d
00000110: 3b9a 25be 2361 ea3d df83 57be 697d 1c3e
00000120: 691b b53e 99b8 5d3e 63c0 4a3e dbc7 f13e
00000130: c03e f43e 3b1d 7abe b684 abbc 2fa3 423e
00000140: 2451 55be 2e65 edbd 31bf 8f3e cbad 863e
00000150: a2c7 efbe b90c 93bf 7683 cebe e1b5 813d
00000160: 835c e23e 7022 38be ddf4 99bc fb89 f3be
00000170: 45e1 633e 4fc0 803e 5cdf 33bd 89b2 71bd
00000180: d8a6 653e e688 d6bd e619 903e a261 b5be
00000190: e60d 813e e47e 963e a0bc 103f 4bc3 433c
000001a0: b99a 423e 6d7a ab3e 6ab2 c33d 65d9 9d3e
000001b0: 591f 3ebe 7129 3d3d 5345 fabc 315b a5bc
000001c0: ec6c 01bc 8136 6ebf 98a5 f43e 8993 34be
000001d0: 8778 b93d 87f3 e5bd 9c60 18be 56c1 943e
000001e0: d6df 1a3e 2c18 153f 3316 bbbe 4ad2 51bf
000001f0: 50c6 4dbc acc6 863f f9ad d13e 907d 2d3d
00000200: f8fc 1ebe ffa1 db3d 3d2e 29be 8d8c 4c3f
00000210: 1219 973f a248 e53e 5d53 e83e 1740 523f
00000220: 32bc d53d 1d15 a53f f34f 263f d753 1f40
00000230: 9c7f a93f a5b3 dd3e ec3b 233f ccb3 6f3d
00000240: 1079 443f 09d5 10bf f2fc 193f 02ee e1bc
00000250: 031a 87bd 8168 943f 25fc 71be 6d37 0c3f
00000260: 2e03 8c3e 4f15 7abe 4136 923f 8f1c cc3e
00000270: 7c47 1a3d 971d d2bf ddc9 713e fde9 6c3f
00000280: aa49 ccbd 8dd8 713e fa08 68be 0623 663f
00000290: a07a 8bbe 77e2 cebe 381f bebe 62e7 2bbd
000002a0: 0c7f 863e d409 34bf e49b aebd b2ac dbbd
000002b0: a55d 193e bfa8 1f3f c684 863f f2cf c4be
000002c0: 900a 733e 214b 803e 00b9 743e ab31 653f
000002d0: c667 223f 6562 13bf 5887 59be b93c 1a3f
000002e0: b193 453f fac4 5cbe 68ba 833e b0f7 d13f
000002f0: a8c2 a43f ed73 9cbe c6ec a2bd 8048 fe3e
00000300: d504 c5bd 0081 693e d4b7 103f 2de6 b2bd
00000310: f659 23bf 4d0f e33e 5b10 773e 7192 063e
00000320: e48d d9be 2cf6 b83c cddd 5f3f f440 39be
00000330: b296 9fbe c7a4 323f 316d c83e 0297 183f
00000340: 434e 26be c49a 3fbf b39c d03e b3dc 963e
00000350: 0cb4 42bf 9797 233e 8328 ea3e 2cf0 213f
00000360: 84f3 913f 4219 9bbe b872 bf3d 3e96 8ebf
00000370: eb92 1cbe 2a85 37bf 9acb 4e3f 8cc3 3cbd
00000380: 9262 133f 8f46 88be c184 8bbe 096e 263d
00000390: f1da f4bd 5773 05bf 80e3 723d 3697 8fbd
000003a0: ac27 863d 2e7b 63be 5578 a13f 7df1 8abe
000003b0: 5713 043f b3b1 fe3e 9e44 69be 2866 b63f
000003c0: f04a 23bd d0e4 063d 7668 883c 3c4d 8abd
000003d0: 36c3 883d 8fc1 8cbd 82fb d0bd 5016 fdbb
000003e0: 0a26 5a3d 8d67 0bb9 5952 8e3d c842 55bd
000003f0: 573f 6fbd 5ec4 1d3d a471 a3bb faee d0bd
0.061086956 0.19565007 -0.027940724 -0.017020889 0.06273641 -0.4476339 0.35856742 -0.08159087
-0.07474216 0.3000857 0.005653815 -0.58346343 0.1602881 0.010594858 0.22830471 0.13855971
0.74161184 0.3674494 0.033504765 -0.049990688 -0.22301117 0.09523242 -0.30806315 -0.032143276
0.15229817 -0.061489508 0.051552832 0.28024226 0.24118154 -1.2653147 0.3221798 0.41710687
0.0061609815 0.2328972 -0.29421264 -0.1130954 0.083594084 -0.2438941 0.26659408 0.19569668
0.06802954 0.15132791 0.27784127 -0.17497386 -0.39765906 0.39659196 -0.5376064 0.25157025
-0.07169104 -0.7169919 0.15474543 0.6565475 0.1092221 0.003613477 -0.21505299 0.42827967
0.12892857 0.17948475 0.057755236 -0.06765583 0.29676715 0.45745394 0.40771675 0.37649176
0.37004712 0.16175106 -0.20558614 0.114021204 -0.16172116 0.114443086 -0.21046399 0.15282215
0.35372475 0.2165245 0.19799952 0.4722279 0.47704124 -0.24425213 -0.020937305 0.19007562
-0.20831734 -0.11591564 0.28075555 0.2630447 -0.46831995 -1.1488258 -0.40334672 0.06333519
0.44211206 -0.17981887 -0.018793518 -0.47566208 0.22253902 0.2514672 -0.043914184 -0.059008155
0.22426927 -0.1047533 0.2814476 -0.3542605 0.25205916 0.29393685 0.5653782 0.011948417
0.19004335 0.3349184 0.09555514 0.3082992 -0.18566646 0.0461821 -0.030550634 -0.020185085
-0.007899504 -0.93051916 0.47782588 -0.17634405 0.09056192 -0.1122809 -0.14880604 0.29053754
0.15124449 0.5824001 -0.36540374 -0.819615 -0.012559488 1.052938 0.40953043 0.042356074
-0.15526187 0.10724258 -0.16521545 0.79901963 1.1804526 0.44781977 0.453761 0.82129043
0.10436286 1.2897068 0.6496574 2.4894922 1.3242068 0.4330112 0.6376331 0.058521077
0.76747227 -0.56575066 0.6015159 -0.027579311 -0.06596758 1.1594392 -0.23631342 0.54772073
0.27346176 -0.24422191 1.1422807 0.39865538 0.03766583 -1.641528 0.23612161 0.9254454
-0.09974988 0.23617764 -0.22659674 0.8989719 -0.27241993 -0.40407154 -0.37133193 -0.04196871
0.26268804 -0.70327497 -0.085258275 -0.107262984 0.14977129 0.6236686 1.0509269 -0.384399
0.23734498 0.2505732 0.23898697 0.8952891 0.63439596 -0.57572013 -0.21243036 0.60248905
0.77178484 -0.21559516 0.25728154 1.6403713 1.2871904 -0.30557194 -0.07955317 0.49664688
-0.09620062 0.22803116 0.565305 -0.08735309 -0.63809144 0.4434761 0.24127333 0.131418
-0.42491066 0.022578321 0.87447816 -0.18091184 -0.3116966 0.6978268 0.39145806 0.5960542
-0.16240792 -0.7484553 0.40744552 0.29465255 -0.7605598 0.15975796 0.45734033 0.632571
1.140244 -0.30292708 0.09348053 -1.11396 -0.1529042 -0.7168757 0.8077942 -0.046084926
0.5757228 -0.26616332 -0.2724972 0.04063228 -0.11955822 -0.5212912 0.059298992 -0.07011263
0.065505356 -0.22214958 1.2614847 -0.27137366 0.5159201 0.4974495 -0.22780082 1.4249926
-0.039866388 0.032933056 0.016651373 -0.067530125 0.066778585 -0.06872856 -0.10204221 -0.007723607
0.053258933 -0.00013294649 0.069493 -0.05206564 -0.058410015 0.03851735 -0.0049879123 -0.10201831

bias f4 [120]
00000000: 0f80 fa3d 4592 3c3d e034 03be 3beb a23d
00000010: 296b 4b3e 93c1 013c c52b e83d f266 023e
00000020: 1e6e e1bc a55f 64bd 0de5 183e 9652 163e
00000030: 1831 5b3e c35c fc3d c8bc 32bd 1e57 0d3d
00000040: 8457 d3bd d88c 0ebe 99ec da3d 34f1 423e
00000050: 8674 14bd db7a 723d 6d11 e23d 5da1 d03d
00000060: f887 48be 71a5 80bd 3f04 17be 8cbc 113e
00000070: 76a0 2c3e d2a5 0c3e ae6f 0a3e e995 8fbd
00000080: 1a3d 283d fa1b 00bc 0ec1 bf3d b915 223e
00000090: 2f88 083e 98c1 473e 8604 8d3e 5cdd debc
000000a0: edb0 3d3d 8990 0f3e 5c43 443e 7756 9dbd
000000b0: a41a 2f3e b839 013e 1581 3f3e 9ddb 2d3e
000000c0: 3746 813d a862 a0bd 8281 043d bdc5 213e
000000d0: 5e3f f9bd e0c5 b83d df31 cfbd 7e16 c0bc
000000e0: c5b3 a43d a810 3c3b bf63 e43d b489 e4bc
000000f0: b0bf 093e 650d ae3d 88e2 993b fe1b afbd
00000100: 0898 08be 488c 3ebd 0f6f e8bd cbce d13d
00000110: 4881 643d 02a0 50bd d621 b0bd c72d 153e
00000120: 99ec 593e ff91 a3bd 0892 293e b45c 123e
00000130: 6019 4dbd 3f28 bcbc dbcd 293e 26b1 113e
00000140: ee6a 1cbd ad56 dcbc c6e8 603e dae5 fcbc
00000150: b4bd 073e 0fd4 483d e58b 393e d069 183d
00000160: 4f59 7cbd 090a 303e a784 213e fc4f 253e
00000170: 1481 673e 3ddd b13b 0b8d 8fbd 5e0b 003e
00000180: 8507 e93d f9d8 9c3c de67 84bc f66f e8bd
00000190: 2533 0c3e d26d 063a a3f5 cb3c 9e3b 633e
000001a0: 861d 1abd 5616 ac3d 31f5 de3d ef02 a0bd
000001b0: 8ec9 9dbc ae73 063e 67bd bebd b2dd d8bc
000001c0: 28d8 033e 80df 5d3d bc0e 3b3e 4285 493e
000001d0: aa59 eebb 43a6 cf3d a50e d2bd ec1d 483d
0.122314565 0.04603793 -0.12813139 0.07955023 0.19865097 0.007919687 0.113364734 0.12734583
-0.027518328 -0.055755276 0.14931126 0.14679942 0.21405447 0.123223804 -0.043637067 0.03450691
-0.10319427 -0.13920915 0.10689659 0.19037324 -0.036243938 0.059199195 0.1103848 0.101870276
-0.19583118 -0.062815554 -0.14747714 0.14232081 0.16858086 0.1373513 0.13519165 -0.07011015
0.041073896 -0.00781917 0.09362994 0.15828599 0.133332 0.19507444 0.27542514 -0.027205162
0.046311308 0.1401998 0.1916632 -0.076825075 0.17100006 0.12619674 0.18701585 0.16978307
0.063122205 -0.07831317 0.03235007 0.15798087 -0.121702895 0.09022117 -0.10116934 -0.023448225
0.08042101 0.0028696451 0.111518376 -0.027897693 0.13452029 0.084986486 0.004696194 -0.08550261
-0.13339245 -0.0465205 -0.11349308 0.10244521 0.055787355 -0.050933845 -0.08600204 0.14568244
0.21281661 -0.07986831 0.16559613 0.14293176 -0.050073028 -0.02296841 0.16582434 0.14227733
-0.038187914 -0.026896799 0.21963796 -0.03087132 0.1325596 0.04903036 0.18119772 0.037210286
-0.06160861 0.17191328 0.15773259 0.16143793 0.22607833 0.005427985 -0.07009324 0.12504336
0.11378387 0.01914643 -0.016162809 -0.1134948 0.13691385 0.0005128059 0.024897402 0.22190711
-0.037625812 0.08402698 0.1088661 -0.078130595 -0.019261148 0.13130066 -0.093134694 -0.0264729
0.12875426 0.054168224 0.1826734 0.1967974 -0.0072738724 0.10139134 -0.102566995 0.04885666

weight f4 [120, 120]
00000000: af34 b4bd 498a 473f 2c83 57bd d1fc e8bd
00000010: 8952 adbe 8ffe 003d d7cd 043f c65a b43e
00000020: 9c5f 183e 77e4 c83d c27c a8be 76ce bb3d
00000030: 821e 6ebd e7c8 1ebe b9ae 743d 826b b53e
00000040: b59c 0040 bafe f7bb 8f4a 1ebe 64dd 06be
00000050: edf5 813d b087 96be 23ea 66be 4cc3 f6be
00000060: 76fb 09bf 99da 62bb b295 433e 7b61 ec3d
00000070: 853a 90be ca54 9dbe fc71 08bf 41c7 843d
00000080: 770c bc3d 703e 0cbe e01a 853d e7ce 83bd
00000090: 9101 e4bd 7c11 00be e7a9 d9bd 6f8f 50bd
000000a0: 6f99 81be ffbd b13e c214 0bbe 036c 32bc
000000b0: 3011 89be 03ea 60be 11a8 f7bd 2cae 03bf
000000c0: ab03 5fbd 9f38 f23d 8a43 57be 12ca 5abe
000000d0: 7a7b 79bc b834 4e3e 6217 d6bc 5148 943d
000000e0: bda4 273b f0a1 1bbc ac35 d43d b0af 823d
000000f0: 1ca9 81be f3fe 82bd 6252 d73d e00f 883d
00000100: a849 f73d c2db b8bc 248d 013e 7c7e a6be
00000110: bb00 83be b7bc a0bb 1717 c73d 0116 ecbe
00000120: 3ce4 483e 84a6 c9bc 6156 303f 7dd2 14be
00000130: 0126 953c 82e1 793e 7446 24be 04ca b8bd
00000140: 951d 52bc 76ae debe 4870 8d3f a852 b73d
00000150: 4e19 9a3e 03c6 acbe 6e91 cdbe a46c a5be
00000160: 5f6d 95bc 0611 c9bd e314 a9be 4944 c6bd
00000170: 2f18 cfbd 4040 9b3e 8e4d 553e dd46 6cbe
00000180: 9eae d9be b631 30bd 2e43 8a3c ffeb 903c
00000190: 609e ce3c 7793 a33c 7ec9 d03d 0751 82be
000001a0: 04e9 e73d a578 adbd b289 61bd 2c72 85bc
000001b0: 8f03 253d 6999 9fbd 3593 a3bd 85f3 e13c
000001c0: addd f9bd 7b05 48be 6326 b8be 88f5 95be
000001d0: d0c0 e43c 0adf dcbe c876 da3d fbca 26bf
000001e0: 6f5e 883e 73af d83e 7bc4 b3bd ca9a 183d
000001f0: 3898 b2be 3de4 133e 94c8 1bbe 56cc d3bf
00000200: b995 acbc 56df 803d a4c8 61be 617f e3be
00000210: 2a6b ce3e 1d11 e1be da7b 87bc 602f d43d
00000220: 19f8 ac3f b36f d4bc b25f 553e 9a2b 0bbe
00000230: ef3e 213c fac6 f6be 5cd9 d0be 4798 adbe
00000240: 88fe 23bf cc15 a43b 226f 713f 240f bcbe
00000250: 872a a8be ed91 8cbe b546 d0be 811b edbd
00000260: 2ba0 0dbf b09c b6be 2f17 fbbd e1f6 583e
00000270: badd 28bf a9fa a63e 2d7d 873e b0c5 8bbd
00000280: 7090 33bf 7ce0 e6be 8ccd 8e3e 6ffb 11bd
00000290: 5c62 b8be bf91 58be 6e82 bbbe a951 4abe
000002a0: 5e99 95be f635 e5bd 229c 91be 821f aebe
000002b0: 952e 3abc f265 6a3e 2cef cabc 3deb f5bd
000002c0: beb7 a53e f4ce f2bc 0fd4 e7be 8280 05bd
000002d0: c224 e0be 5b00 0bbe abe3 c93e e4bb 993c
000002e0: c455 a23d 1532 43bc 8497 fcbd d059 59be
000002f0: 352d a1be 4317 e13c d8f2 813d 9fc7 c4be
00000300: fe56 d63e 1901 f0bd 3dcf 4abd b900 d93d
00000310: 008f 463c cc99 1abf 3097 83be 099a 5d3e
00000320: 8071 a43e 07af ccbe 7ed2 8fbe 85f3 b13c
00000330: ebe3 cbbe 6775 69bd f23e 88be 83a8 12bd
00000340: 51d9 9cbd 625b a3be e597 00bf 8f3f a83e
00000350: a881 83be 4b4f dbbe fdc4 843e 8417 75be
00000360: 9c0f a43c 6574 1abf 86f7 c8bc c97c afbb
00000370: 3531 573e ae0d 323d 36ff ecbd 19a7 983d
00000380: f4ed ca3d 53a1 f13e 0fc6 48be 1950 a2bd
00000390: 2089 8ebb 06c5 113f 861a 673d 43ef 983d
000003a0: d824 ddbd 7cbd 43be c25b a0be a57b 06be
000003b0: 8c40 683d 4cd5 5ebf c492 033b 7c4c e0be
000003c0: 9c29 2abd fa23 4abe 8f72 d93c a0fb ffbd
000003d0: 724d ca3e 6961 fdbb 105c b1be 1578 113f
000003e0: 58a8 a5ba 89fa ecbd c3f0 fc3e 25ff b0be
000003f0: f774 46be 88fa 9ebe d659 bcbc be75 e2be
-0.08799111 0.7794538 -0.05261533 -0.11376346 -0.33852032 0.031492766 0.51876587 0.35225505
0.14880222 0.09809201 -0.32907683 0.09170239 -0.058134563 -0.15506326 0.05973694 0.35433584
2.0095646 -0.0075682076 -0.1545813 -0.13170391 0.06345735 -0.29400396 -0.22550254 -0.48195875
-0.53899324 -0.0034615158 0.19100073 0.115420304 -0.28169647 -0.3072875 -0.53298926 0.06483317
0.09182065 -0.13695693 0.064992666 -0.06435948 -0.11133111 -0.1250667 -0.106281094 -0.05091804
-0.25312373 0.34715268 -0.13582137 -0.01089001 -0.26770926 -0.21964268 -0.12092603 -0.5143764
-0.054446857 0.11827206 -0.21021858 -0.21366146 -0.015227193 0.20137298 -0.026134197 0.07240356
0.002558037 -0.009499058 0.103617996 0.06381166 -0.25324333 -0.06396284 0.1051376 0.06643653
0.12074596 -0.022565726 0.12651497 -0.32518375 -0.25586495 -0.004905309 0.09721201 -0.46110538
0.19618315 -0.024615534 0.68881804 -0.1453342 0.018206598 0.2440243 -0.160425 -0.090229064
-0.012824436 -0.43492478 1.104989 0.08951312 0.3009743 -0.3374482 -0.40150017 -0.3230945
-0.018240629 -0.098177 -0.33023748 -0.09680993 -0.101120345 0.30322456 0.20830366 -0.23073907
-0.42516035 -0.043016158 0.016877737 0.017690657 0.025222003 0.019967778 0.101946816 -0.25452444
0.11323741 -0.08470277 -0.055062957 -0.016289793 0.040286597 -0.077929325 -0.07987062 0.02758194
-0.122004844 -0.1953334 -0.35966787 -0.29288888 0.027923971 -0.43138915 0.10667187 -0.65153474
0.26634547 0.42321357 -0.0877771 0.037256993 -0.3488176 0.14442535 -0.15213233 -1.6546733
-0.021067487 0.06292598 -0.22049195 -0.4443312 0.40316135 -0.4395837 -0.01653855 0.103605986
1.3513213 -0.025932169 0.20837286 -0.13590851 0.009841665 -0.48198682 -0.40790832 -0.3390524
-0.6406026 0.005007481 0.943102 -0.367303 -0.32844946 -0.27455083 -0.40678945 -0.115775116
-0.5532252 -0.35666418 -0.12260281 0.21187927 -0.6596333 0.32613114 0.2646269 -0.06824815
-0.7014227 -0.45093143 0.27891195 -0.035640176 -0.36012542 -0.21149348 -0.36622947 -0.19757713
-0.29218572 -0.11191933 -0.28439432 -0.34008414 -0.011363645 0.22890452 -0.02477225 -0.12007759
0.32366747 -0.029639699 -0.45278975 -0.032593258 -0.43778044 -0.13574354 0.3943151 0.018766351
0.07926515 -0.011913796 -0.12333587 -0.21225667 -0.31479803 0.027476912 0.06345147 -0.3843355
0.41863245 -0.11718959 -0.049514044 0.10595841 0.012119055 -0.60390925 -0.25701284 0.21640791
0.32117844 -0.39977285 -0.2809028 0.021722564 -0.39822325 -0.05699673 -0.26610523 -0.035805237
-0.07658637 -0.31905657 -0.5023177 0.3286099 -0.25684857 -0.42833933 0.2593154 -0.23934752
0.020026974 -0.60333854 -0.02453209 -0.0053554517 0.21014865 0.043470077 -0.11572115 0.07453746
0.09908667 0.47193393 -0.19606803 -0.07925434 -0.0043498427 0.5694126 0.05642178 0.074675106
-0.10798043 -0.19115251 -0.31320006 -0.13133104 0.05670218 -0.87044215 0.0020076493 -0.43808353
-0.041543588 -0.19740286 0.026543884 -0.124991655 0.3951221 -0.0077325595 -0.3464055 0.56823856
-0.0012638671 -0.11571223 0.49402437 -0.3456966 -0.19380556 -0.31050515 -0.022992056 -0.44230455

bias f4 [120]
00000000: a5ee 8abd 7fef 0bbe a621 d03d 5be7 023d
00000010: afcb 99bd 71a2 31be 902c 143d a567 5bbe
00000020: 0728 b0bc d304 f1bd 325f 7f3c bc7f d7bd
00000030: 6e34 46be 54c1 a4bd 504d 6dbe e888 503d
00000040: 8290 f9bd 3a41 9ebd 40fe a2bd e675 f4bd
00000050: fddb d43d cbfb 6bbc 89d4 5ebe 7107 5ebe
00000060: 5e52 a9bb ec73 31bd bf7f 553e 4dc0 a23d
00000070: 5513 ccbd 628e ebbd 8be8 9e3e d258 20be
00000080: 785c 8a3d 50b5 b5bd 07d5 00bd 7edc cdbd
00000090: 50c2 9b3e 508f 49bd 0242 c5bd b29f 0abd
000000a0: 6e3f 87bd 59e9 863c 840d c13e ae1f 25be
000000b0: aa5d 7abd ca33 84bc 987e 0dbd d7d9 d23b
000000c0: 58ad a43c 5f15 2dbe cae9 5dbc c3e3 67bd
000000d0: fc6c 6e3d d673 08be 58fb 2cbd 14db 51be
000000e0: ea11 edbe 7966 89bd 09ab 173e 22e0 56be
000000f0: 40b4 703b 48bd 4fbe c867 4fbe ad91 14bd
00000100: 7c47 95bd 7803 0bbe bebf b2bc a7e7 28bd
00000110: 384a 76be f190 2abe 62bb 5bbe 69b5 8f3d
00000120: 5b5a 713e cc76 febc 6841 9dbd bddb bebc
00000130: a2b3 c83d 119b 16be a08f cabd 14f2 39be
00000140: 9757 25bc 42e2 dbbe b4df 813e 29d4 98bd
00000150: a715 a4bd 1110 31be 5660 e8bd ce2b 91be
00000160: ee9d 9ebd 20a2 b8bd 0fa0 3bbe 5de6 08be
00000170: 54f4 4dbe 547c 22be 8d12 7ebb 7adc e53c
00000180: 8059 b93e 594a 4abe 38e7 44bd a198 acba
00000190: 9723 70be db9d a6be b145 2bbe 81a4 30bd
000001a0: e995 8d3d 12c2 a6be 57fd f2bd 9603 033d
000001b0: f753 b4bc 72fd 2cbe df66 4cbd 9304 09be
000001c0: 950c 923e b64d 38bd cd4f dabc e33a a23b
000001d0: 10d6 8cbc 3d96 12be 37d1 3fbd e7d4 53be
-0.06783799 -0.1366558 0.10162668 0.03195892 -0.07509553 -0.17347123 0.03617531 -0.21426256
-0.021503462 -0.11768498 0.015586661 -0.1052241 -0.19355938 -0.08044687 -0.23174024 0.050911814
-0.12185766 -0.07727285 -0.079586506 -0.1193655 0.10393522 -0.014403294 -0.21760763 -0.21682526
-0.0051672896 -0.043323442 0.20849513 0.07946835 -0.09964625 -0.11501767 0.3103679 -0.15658882
0.06755918 -0.08872473 -0.03145316 -0.10051821 0.30421686 -0.04920894 -0.096317306 -0.033843704
-0.06603895 0.01646869 0.37705624 -0.16125366 -0.06112448 -0.016137976 -0.034544557 0.00643466
0.020102188 -0.16902684 -0.013544509 -0.056613695 0.058209404 -0.13325438 -0.042231888 -0.20493728
-0.4630273 -0.06708998 0.14811338 -0.20983937 0.003672853 -0.20287049 -0.20254433 -0.03627174
-0.07289025 -0.13575542 -0.021819945 -0.041236546 -0.2405175 -0.16656853 -0.214582 0.07017023
0.23569624 -0.031062506 -0.07678491 -0.023298139 0.09799887 -0.1470759 -0.098906755 -0.18158752
-0.010091684 -0.4294606 0.25365984 -0.07462341 -0.08011942 -0.17291285 -0.113464996 -0.28353733
-0.077449664 -0.09015298 -0.18322776 -0.13369127 -0.20112735 -0.1586774 -0.0038768381 0.028059233
0.36201096 -0.19754924 -0.04807207 -0.0013168046 -0.23451076 -0.3254231 -0.16725804 -0.043125633
0.06913359 -0.3256994 -0.11864727 0.03198584 -0.022012694 -0.16893557 -0.049902793 -0.13380651
0.28525224 -0.044995986 -0.02664938 0.0049508675 -0.017191917 -0.14315124 -0.046830382 -0.20686685

weight f4 [8, 120]
00000000: 7f98 e5be 92e8 1cbe 6acf 643d acf1 93be
00000010: 65ba 473f ebd9 87bf fea1 fe3d 2028 aa3e
00000020: 5656 16bf 6edf 8bbe a1e0 40bf e9cb 69bf
00000030: 50e3 4bbf 5243 df3e 5f1c 3c3f 43d9 fa3e
00000040: 2351 31bf 6036 103f 013a 1cbf 4882 163f
00000050: 029a 153f 66a6 d7be 6731 02bf 69bc f13e
00000060: 9316 f8bd 2605 d43e c23d bf3e 8df9 de3e
00000070: f551 afbe f22d 23be e558 52bf 2fb6 a7be
00000080: 272f 1abf 8d05 48bf 0f97 01bf fc91 573f
00000090: 4bcc 3c3e 0312 febe 85e4 c43e db5b edbe
000000a0: 1a31 3d3f b7cd e7be 4a97 f5be d0c5 b7be
000000b0: ca4c 6dbe 97f8 d4be 2179 cabe 6166 603f
000000c0: 6097 54bf f9ab 92be be6c 8cbf b6cb 6e3f
000000d0: 20ef dcbe 9c95 80be a10f a23e 1c1c a43e
000000e0: 61b5 f7bd 8b9b 543f 1c59 873d 62d1 efbe
000000f0: c940 93be f758 8a3e 5f0f ca3e 9159 f0be
00000100: 1930 033f c180 f2be 4708 e03e 7568 3fbf
00000110: 3f71 8d3f a864 b33e e811 573e da89 943e
00000120: ebcd 283f 68c0 543f 92d6 e9be f551 383f
00000130: 5b52 fbbe 849a a9be 967d 13bf d1e9 81be
00000140: 1775 e2be e49f c13e 0d53 86be ec44 23bf
00000150: a222 82be ceb7 c33e 08a9 5c3d 9e02 b3be
00000160: 1986 1fbf c2dc ffbe 9709 4cbf 6e7a f03e
00000170: 5faa 1dbf 27d5 f9be a2bd 26bf 959f 2d3c
00000180: 0735 5f3e dd50 88be d40b 69be bf1a 033f
00000190: a2c4 87be fd59 12be d6f4 fabe 2bdc 14bf
000001a0: 46cc 8ebe 962e 143e 05f2 1e3f 826b a03e
000001b0: fc30 00bf 40a9 383f 4e20 4b3f ec95 f2be
000001c0: 1c1b 80be 1e04 5d3e bb7f e7be 34f0 00bf
000001d0: e49b acbe 3930 5dbf 0333 cfbe 3871 123f
000001e0: 6dfc c33e e523 1f3f 1d38 c6be c385 d1be
000001f0: df38 6cbe d216 ca3e 8ca7 5fbd 50d1 c73e
00000200: c640 d33e 89e0 18bf b8f6 4e3f d1be d43e
00000210: 4f51 ba3e 25c0 0fbf 8ccd 533e 682a 32be
00000220: 12d4 a1bb 7cff a03e a650 0b3f 5148 bb3b
00000230: 6d85 803e 58bb b3bd 29cd 463f 0561 ac3e
00000240: b3f2 9abe bbb9 bf3b c3fa 6c3d 6419 eabd
00000250: 4397 2e3f f1b6 b13e 4752 e53e 9d35 cf3e
00000260: 10b7 673e e9d1 3e3f 897a 403f 455d 5bbd
00000270: 0812 c6be cf4f 1e3e 5c88 10bc 7c6e c33e
00000280: adb6 11be 0ca7 9abe 914f f5be 8dfe 92be
00000290: 9f96 eb3b 6260 333f c463 2b3f 6b08 ae3d
000002a0: beb3 0abd d6c9 9e3e 1fd7 b83e b98a 273c
000002b0: 338d 14bf e74b 2d3f f6b0 a43e 0d81 fa3d
000002c0: 7a82 793e 5c04 4dbd 0ad0 9dbe d9e8 8f3e
000002d0: bde1 cdbe a412 183e 63c7 64bd bd4b d3be
000002e0: e9e7 eabc 2c10 debb a511 15bf 8db2 2a3f
000002f0: a1fe 90be 7ec4 38be c413 3e3e be44 81be
00000300: 41c1 f9be e4f5 b9bd 723f 16be c29c c13d
00000310: 5eba ad3e 08f4 be3e 9496 f9bc 7b25 8a3e
00000320: ef4e 343f 26a5 983e d0a0 0bbf 4e1e e2bd
00000330: 21bb a33e bef7 b73e e63f 0dbf 1819 643e
00000340: 8e8a e43e 6373 343f 2be5 0d3f 28f7 93be
00000350: ff30 9c3e 4545 133f 328f 283f b3e7 f43e
00000360: b06c c6bd 504e 0abf adeb eebe f4db 01be
00000370: 2d07 2abf b2e3 043f cdfa 423f ba10 5bbe
00000380: 05f8 d53e e96c 8bbe 90f7 f0bd 45be 01bf
00000390: bc28 dc3e 501a 713e f29a 843d 895a b4be
000003a0: cac9 07bf 5b53 e4bd a2c4 2f3f d86d d5be
000003b0: 7a9e b13e fc48 5b3f 8c26 893e e667 8d3e
000003c0: 2e91 16bf b1b4 eebe 91ec f23e 9694 07bf
000003d0: 0756 0bbf 65eb 4fbd ca25 523f 881d 21bf
000003e0: e556 e4be 1d89 2abe 9187 95be b9e0 bd3e
000003f0: 0175 75bf f93b da3d 463d 21bf 0e2d 2bbc
-0.44842908 -0.15323094 0.055861868 -0.28895319 0.7801879 -1.0613378 0.12433241 0.33233738
-0.5872549 -0.273189 -0.75342757 -0.9132677 -0.79643726 0.4360605 0.7348079 0.48993883
-0.6926443 0.5633297 -0.61026007 0.58792543 0.5843812 -0.4211914 -0.5085663 0.47214058
-0.12113681 0.41410178 0.37351805 0.43549767 -0.34242216 -0.15935495 -0.8216689 -0.32756183
-0.602282 -0.7813347 -0.5062112 0.8420713 0.18437307 -0.49623117 0.38455597 -0.46359143
0.7390305 -0.45274135 -0.47966987 -0.35893106 -0.23173824 -0.4159591 -0.3954554 0.8765622
-0.8304348 -0.2864683 -1.0970685 0.9327959 -0.43151188 -0.25114143 0.3165255 0.32052696
-0.12095142 0.8304984 0.06608793 -0.46839434 -0.28760365 0.27021 0.39464852 -0.46943334
0.51245266 -0.47363856 0.43756315 -0.74768764 1.1050185 0.35037732 0.21002924 0.29011422
0.65939206 0.8310609 -0.45671517 0.72000057 -0.4908627 -0.331257 -0.57613504 -0.253737
-0.44229957 0.378173 -0.26235238 -0.6377704 -0.25417048 0.3822617 0.05387214 -0.34962934
-0.6231399 -0.49973112 -0.7970213 0.46968406 -0.6158809 -0.48795435 -0.65133107 0.010597129
0.21797572 -0.26624194 -0.22758418 0.51212686 -0.26517206 -0.1429214 -0.4901492 -0.5814845
-0.27890223 0.14470896 0.6208804 0.31332022 -0.50074744 0.72133255 0.7934617 -0.47380006
-0.25020683 0.21583602 -0.45214638 -0.5036652 -0.33712685 -0.86401707 -0.40468606 0.5720401
0.38278523 0.62164146 -0.38714686 -0.40922365 -0.2306857 0.39470536 -0.054603145 0.3902688
0.41260356 -0.59717613 0.8084521 0.4155183 0.3639016 -0.56152564 0.20683879 -0.17398989
-0.004938611 0.3144492 0.54419935 0.005715408 0.25101796 -0.08775967 0.776568 0.3366777
-0.3026329 0.005850998 0.057856333 -0.11430624 0.6819956 0.34709886 0.44789335 0.4047059
0.22628427 0.7453905 0.75186974 -0.053555746 -0.38685632 0.15460132 -0.008821573 0.3817023
-0.14229842 -0.30205572 -0.47912267 -0.28709832 0.0071895863 0.70068944 0.66949105 0.08497699
-0.03386282 0.31013364 0.36101624 0.010225945 -0.5802795 0.6769394 0.3216626 0.12231646
0.24366179 -0.050052986 -0.30822784 0.28107336 -0.40211287 0.14850861 -0.055854212 -0.4126872
-0.028675037 -0.00677683 -0.5823005 0.66678697 -0.28319266 -0.18043706 0.18562227 -0.2524776
-0.48780254 -0.09080103 -0.1467264 0.09453727 0.3393125 0.37295556 -0.030467309 0.2698172
0.70432943 0.29813498 -0.54542255 -0.110409364 0.31978706 0.359312 -0.55175626 0.22275198
0.4463696 0.70488566 0.5542781 -0.28899503 0.3050613 0.5752757 0.658435 0.47833022
-0.09688699 -0.54025745 -0.4666418 -0.12681562 -0.664172 0.51909935 0.7616394 -0.213931
0.41790786 -0.2723153 -0.11765969 -0.50680953 0.42999828 0.23545194 0.06474866 -0.35225323
-0.5304228 -0.11148711 0.6865941 -0.41685367 0.3469122 0.8565824 0.2678722 0.2761833
-0.58815277 -0.46622232 0.4744611 -0.529611 -0.5442814 -0.0507616 0.8208891 -0.62935686
-0.44597545 -0.16653867 -0.2920499 0.37085512 -0.9588166 0.1065597 -0.6298412 -0.010447754

bias f4 [8]
00000000: 5265 073e 8b35 ad3d cdd2 babb db26 5abd
00000010: f3b1 44bc 54cc 173b 2261 9fbd 9c5e 33be
0.13222244 0.08457478 -0.005701399 -0.05325971 -0.012005317 0.002316256 -0.077821985 -0.1751656
