python/mod/modelstate.pth (torch, 131117 bytes, 8 tensors)

weight f4 [120, 14]
-0.16514763 0.19025832 0.44784793 0.10605472 0.22432889 -0.65991837 -0.60942364 0.41776553
-0.4163233 0.13904066 0.14230208 -0.43663007 -0.13455911 0.14456971 -0.09641457 -0.22412029
0.32392517 0.22345081 0.75164485 -0.949209 0.48248023 -0.044872977 -0.328989 0.4195938
0.489037 -0.33558878 -0.66615653 0.55914795 -0.09633135 -0.068152234 1.4311968 -0.52884024
0.6821854 0.44470963 -2.3046882 0.35028327 0.8131383 -1.2626442 0.18682341 -0.045309
0.6729246 -0.46505207 -0.48478642 -0.9375542 -0.49358407 -0.57445776 -0.3730342 0.23368502
1.1709632 2.1019602 -0.20907916 0.6132626 0.86853045 1.3368654 -2.3621733 2.9063294
0.016354099 0.17091243 -0.023684608 -0.20282249 0.15365705 -0.19469881 -0.08846136 -0.265601
-0.18709303 -0.031619553 -0.16235492 0.04506028 0.15723851 -0.24619144 0.6713445 0.3227463
0.3768828 -0.15078339 -1.1199608 1.2184615 0.61082166 0.21793084 -0.9912818 0.17091696
0.18744718 0.03109307 -0.538777 0.43588483 -0.22258243 -0.11818948 0.41177604 -0.17904817
0.5151991 -0.4077212 -1.2853204 0.31259152 -0.09334736 -0.3783455 0.34017408 -0.32238615
0.42861646 -0.66784817 0.25449017 0.2287058 0.08295972 -0.2587369 0.22640914 -0.15775022
-0.8261812 0.35569215 -0.008217079 -0.2819689 -0.3253369 -0.6394214 0.47398776 1.4490329
0.4383775 -0.06539816 -0.04841706 0.069580615 -1.7685807 0.42660132 0.25246018 -0.60386807
-0.6574263 0.32981122 -0.05894243 -0.22215101 -0.40390408 0.7423469 -0.61699736 0.20568094
0.5961853 0.102835946 -0.21148683 0.7477916 -0.48137298 -0.7501349 -1.2913078 -0.17341658
-0.8018486 0.1795039 0.04964714 0.2053985 0.05317874 -1.035689 -0.39612216 -0.28670532
0.11700063 0.6145572 -0.9286416 -0.32414776 0.12648381 -0.43715858 -1.1060909 0.7011968
-0.3598969 0.4267365 0.3231725 0.14665881 -0.15179956 -0.10439135 0.31684938 0.12147084
-0.6653985 0.41606095 0.6376116 0.19389729 0.22772951 -0.24374232 0.022227194 0.8002935
0.16155761 -0.15672058 -0.060016386 -0.20057537 0.049884874 -0.024254637 -0.064274885 -0.20498917
0.304324 0.16233724 -0.16733931 0.25795424 0.23278642 0.044086196 -0.16131431 -0.13742346
0.143513 -0.22897448 -0.14030513 -0.11458084 0.16768125 0.035756588 0.1853039 0.09956965
-0.24145573 -0.2163817 0.09508532 -0.042296633 -0.36278772 -0.09289517 -1.5005183 0.46077853
-0.14185591 0.49411342 0.5609567 -1.3443831 0.53301805 0.42621225 -0.102831714 -0.93893117
0.2431413 1.3508877 0.43693116 0.12636015 0.68224365 -0.14366643 0.28081772 0.25556856
-0.34888166 0.106421515 -0.023168083 -0.6184784 0.1982164 0.19373806 0.3371742 -0.065828234
0.26981035 -0.6117076 -0.49506846 0.18965332 0.20113021 0.27292222 -0.35630122 0.21845958
0.5873541 0.30960026 -0.18727525 0.56612104 -0.4659016 -0.24698012 0.4304596 0.2606982
0.55984664 0.24499203 0.45502087 -0.05849535 -0.20461243 -0.27539384 0.18286814 -0.46184155
0.07767842 0.038475975 -0.69653654 -0.7443424 0.17851697 0.2852043 -0.54652387 0.6500951
00000000: 761c 29be 14d3 423e 534c e53e 3833 d93d
00000010: 79b6 653e 69f0 28bf 3003 1cbf 5de5 d53e
00000020: 5428 d5be ad60 0e3e a3b7 113e fa8d dfbe
00000030: ddc9 09be 150a 143e 0175 c5bd ca7f 65be
00000040: 85d9 a53e 4ad0 643e cc6b 403f 5cff 72bf
00000050: a607 f73e bacc 37bd 3f71 a8be 00d5 d63e
00000060: 0f63 fa3e 4bd2 abbe 3c89 2abf 5224 0f3f
00000070: 5f49 c5bd 6693 8bbd 7531 b73f 1362 07bf
00000080: b4a3 2e3f fbb0 e33e 0380 13c0 5458 b33e
00000090: d529 503f 539e a1bf a34e 3f3e ee95 39bd
000000a0: c944 2c3f 4e1b eebe ed35 f8be 8d03 70bf
000000b0: 0db7 fcbe aa0f 13bf 57fe bebe 204b 6f3e
000000c0: 1fe2 953f 8486 0640 d918 56be c7fe 1c3f
000000d0: 0358 5e3f 681e ab3f d92d 17c0 4d01 3a40
000000e0: 08f9 853c ab03 2f3e 3906 c2bc b3b0 4fbe
000000f0: 4658 1d3e 205f 47be 3b2b b5bd dbfc 87be
00000100: 5195 3fbe 8183 01bd 5e40 26be 2191 383d
00000110: 2203 213e 9c19 7cbe 3cdd 2b3f 013f a53e
00000120: c8f6 c03e f666 1abe e05a 8fbf 8cf6 9b3f
00000130: cf5e 1c3f 4329 5f3e a5c4 7dbf db04 2f3e
00000140: 27f2 3f3e e5b6 fe3c 4aed 09bf 4c2c df3e
00000150: a6ec 63be 530d f2bd 4fd4 d23e 6758 37be
00000160: 17e4 033f d5c0 d0be 6185 a4bf ff0b a03e
00000170: e72c bfbd 80b6 c1be 4c2b ae3e cc0f a5be
00000180: 9e73 db3e 19f8 2abf 894c 823e da31 6a3e
00000190: c9e6 a93d 2a79 84be ccd7 673e 4689 21be
000001a0: 9c80 53bf 481d b63e eda0 06bc 3a5e 90be
000001b0: 8f92 a6be 1fb1 23bf 86ae f23e e979 b93f
000001c0: 0473 e03e 78ef 85bd f850 46bd 4880 8e3d
000001d0: da60 e2bf 7d6b da3e 7642 813e 1997 1abf
000001e0: 174d 28bf 04dd a83e 9e6d 71bd 8e7b 63be
000001f0: 84cc cebe 720a 3e3f 8af3 1dbf 069e 523e
00000200: 9a9f 183f a79b d23d 0190 58be 456f 3f3f
00000210: 8576 f6be d708 40bf 9349 a5bf 1e94 31be
00000220: f345 4dbf dfcf 373e cd5a 4b3d fc53 523e
00000230: f3d1 593d 7591 84bf 86d0 cabe 0acb 92be
00000240: 079e ef3d 9f53 1d3f 75bb 6dbf b2f6 a5be
00000250: f984 013e 40d3 dfbe 6394 8dbf a281 333f
00000260: 6844 b8be 357d da3e de76 a53e ba2d 163e
00000270: 5871 1bbe 22cb d5bd 153a a23e b4c5 f83d
00000280: 8e57 2abf f105 d53e 843a 233f 038d 463e
00000290: ed31 693e 9697 79be ce15 b63c 09e0 4c3f
000002a0: 5c6f 253e 5c7b 20be bed3 75bd a163 4dbe
000002b0: 1554 4c3d a9b1 c6bc 8da2 83bd aee8 51be
000002c0: 5bd0 9b3e bc3b 263e ff5a 2bbe 9412 843e
000002d0: 905f 6e3e ba93 343d 942f 25be bcb8 0cbe
000002e0: 12f5 123e 4978 6abe 26ac 0fbe 5ca9 eabd
000002f0: a2b4 2b3e 8075 123d 4ec0 3d3e 2ceb cb3d
00000300: 2c40 77be 2a93 5dbe 18bc c23d 3c3f 2dbd
00000310: 50bf b9be d33f bebd fc10 c0bf 2aeb eb3e
00000320: ad42 11be 6ffc fc3e dc9a 0f3f bf14 acbf
00000330: df73 083f 7e38 da3e 6f99 d2bd cb5d 70bf
00000340: 08fa 783e e3e9 ac3f 71b5 df3e 8e64 013e
00000350: 85a7 2e3f 4b1d 13be 57c7 8f3e e2d9 823e
00000360: 9ea0 b2be 86f3 d93d feca bdbc 9a54 1ebf
00000370: 3df9 4a3e 4563 463e 19a2 ac3e f4d0 86bd
00000380: 9524 8a3e df98 1cbf 9d79 fdbe 7b34 423e
00000390: 14f5 4d3e 76bc 8b3e 1d6d b6be deb3 5f3e
000003a0: d75c 163f ed83 9e3e 15c5 3fbe 4fed 103f
000003b0: a88a eebe 5be8 7cbe 3365 dc3e 3c7a 853e
000003c0: 1c52 0f3f 31df 7a3e 7ff8 e83e d298 6fbd
000003d0: ec85 51be 6c00 8dbe c941 3b3e 7f76 ecbe
000003e0: dd15 9f3d fc98 1d3d 3850 32bf 398d 3ebf
000003f0: 27cd 363e 4c06 923e fde8 0bbf a26c 263f

bias f4 [120]
0.28394517 0.12916787 0.42584828 0.014976974 -0.17463394 0.2939797 0.18631718 0.34231126
0.1411448 0.26077202 0.15285411 0.31879723 -0.23998365 -0.20131922 0.1596959 0.36783198
0.17909081 0.25952625 0.22349456 0.22839843 0.40938324 0.21625245 -0.15553308 -0.22090296
-0.15985638 -0.20085189 0.12930952 -0.22780536 0.27181402 0.19428311 0.12795717 0.37302822
-0.24567817 0.12158268 0.30719241 0.28068307 0.23195833 -0.03636574 0.20422775 -0.17072952
0.3870545 0.3897502 -0.21515214 0.25477338 -0.18382972 -0.20812686 -0.009427235 -0.26111034
-0.24819534 -0.2700988 0.2096891 -0.16703926 -0.21934058 -0.2547358 0.2692653 -0.1863638
0.092102155 0.10147062 0.36775374 -0.11445893 0.25165546 0.26747105 0.13932763 0.11621991
-0.101961575 0.12373783 -0.086411364 -0.20301582 0.10319551 0.18843576 0.38414335 0.21569891
-0.15720445 0.46546957 0.21153992 -0.16328788 0.30215606 0.2326495 0.25684735 0.22269066
0.38288695 0.104101114 -0.044043653 -0.16686961 0.25794077 0.24317934 0.26445663 0.1963219
0.34720057 -0.2353395 0.44710612 0.34918275 -0.011425086 0.11937191 0.24484746 -0.25498822
0.2782983 0.15876836 -0.26146635 0.24012622 0.16844529 0.13500738 0.35766315 -0.2569368
0.35169867 -0.25563312 -0.17467213 0.31383833 0.32962766 -0.16173847 -0.2589445 -0.15440874
0.41412216 0.25921825 0.10408748 -0.25177664 0.34287027 0.21418615 -0.27362445 0.17809404
00000000: 4361 913e 9544 043e c908 da3e fb61 753c
00000010: 3dd3 32be 8284 963e eec9 3e3e 6c43 af3e
00000020: 4388 103e e983 853e ca85 1c3e 6439 a33e
00000030: 46be 75be a026 4ebe 5287 233e 7954 bc3e
00000040: 9563 373e a0e0 843e c2db 643e 47e1 693e
00000050: ae9a d13e 4871 5d3e 1044 1fbe 6334 62be
00000060: 64b1 23be 1eac 4dbe b769 043e cf45 69be
00000070: 352b 8b3e 27f2 463e 3407 033e 8efd be3e
00000080: 0f93 7bbe 5700 f93d 5348 9d3e b1b5 8f3e
00000090: 7c86 6d3e 3ef4 14bd 1421 513e b8d3 2ebe
000000a0: 022c c63e 578d c73e d850 5cbe a871 823e
000000b0: dc3d 3cbe 351f 55be b174 1abc 41b0 85be
000000c0: eb26 7ebe 644a 8abe bdb8 563e 570c 2bbe
000000d0: d19a 60be bb6c 82be 24dd 893e 27d6 3ebe
000000e0: 0ea0 bc3d d4cf cf3d 384a bc3e 7269 eabd
000000f0: fcd8 803e f7f1 883e e7ab 0e3e b404 ee3d
00000100: 3bd1 d0bd 426a fd3d 71f8 b0bd 61e3 4fbe
00000110: 2b58 d33d 4ef5 403e 70ae c43e 2de0 5c3e
00000120: 34fa 20be 0752 ee3e ec9d 583e f034 27be
00000130: 33b4 9a3e ac3b 6e3e 7f81 833e 0509 643e
00000140: c209 c43e f732 d53d 1e67 34bd dedf 2abe
00000150: d010 843e 0104 793e dc66 873e 9c08 493e
00000160: 46c4 b13e d6fc 70be 18eb e43e 15c8 b23e
00000170: 4930 3bbc 4379 f43d 4bb9 7a3e d18d 82be
00000180: 1d7d 8e3e 2c94 223e ebde 85be a6e3 753e
00000190: ec7c 2c3e 603f 0a3e a01f b73e 388d 83be
000001a0: d911 b43e 58e2 82be 40dd 32be 6baf a03e
000001b0: f5c4 a83e c59e 25be 6094 84be 531d 1ebe
000001c0: d207 d43e 41b8 843e d12b d53d dee8 80be
000001d0: b18c af3e 9d53 5b3e 8118 8cbe 495e 363e

weight f4 [120, 120]
0.19923508 0.4260795 -0.2981181 1.3797395 -0.03441871 -0.27164313 -0.039168064 0.09385328
-0.17473143 0.29170775 -0.6550376 0.0055004596 -0.13785459 -0.053864524 0.9024461 -0.22333144
-0.0074319607 -0.12160237 0.45028156 0.13223548 0.4451372 0.5392114 0.220389 0.025733016
0.067034066 -0.07457352 0.13880911 0.9028326 0.42146263 0.36009693 0.013746841 0.5868974
0.06265226 0.45154637 0.019311098 0.3422889 -0.39598262 0.76015663 0.38861752 0.073556125
0.088649586 0.43228465 -0.07047634 -0.4043224 -0.15228392 1.451206 0.2729961 -0.070848264
-0.019766748 0.05917472 0.157472 -0.06257641 0.05594331 -0.050333694 0.01688269 -0.032523707
-0.040705353 0.43284583 0.34014368 -0.039183814 -0.33272392 -0.3156235 -1.1036431 0.04891515
0.0138293 0.1317202 0.30466393 0.033053555 0.12012215 -0.118820004 -0.19432597 0.6568777
-0.088624485 0.24453785 0.7858932 -0.07004071 -0.05851023 0.05833648 -0.16675885 0.49003798
0.218631 0.63624746 -0.16177902 0.06689161 0.80767065 -0.21362664 -0.35422683 0.58857036
0.15470324 -0.0044652745 -0.09086706 -0.21216749 0.3750242 0.6990613 0.28119636 0.026771545
0.40280938 0.05792717 0.7932449 0.33444586 0.08479212 0.34633222 0.3226101 -0.0011296123
0.052866798 -0.5224885 -0.042527277 -0.05097693 -0.17372507 0.00473851 0.019994974 -0.019179583
0.24378096 -0.49811268 0.112035364 0.010953628 0.100229956 0.5861292 -0.019756544 0.2703708
-0.025508143 -0.040039107 -0.11543941 0.15925501 -0.079577446 0.8971784 -0.11745937 0.38929802
0.03780537 0.1953044 1.166995 0.29256245 -0.04777812 -0.06702243 -0.11072654 0.12247086
0.4567969 -0.03805597 0.13801184 0.059115738 0.26495054 0.049647197 -1.094741 0.04545091
0.02969122 -0.06915808 0.054915305 -1.6374631 0.06544152 -0.4041117 -0.2329209 -0.10936411
-0.01141084 0.30216923 0.67453414 0.071149714 0.031243315 -0.11808798 0.18305248 0.08794395
0.18187372 0.0979169 0.13481916 0.07088361 -1.4621925 -2.38049 -1.5703564 0.014150575
0.082507685 -2.1030269 0.04052541 0.009237982 -0.046469096 -0.0035725534 -0.04323756 -0.0043039396
0.5895467 0.12511091 0.3249774 -0.012274997 0.21105558 0.27834612 -1.3265438 0.5808012
-0.07452405 -0.08168337 -0.37522322 -0.06636734 0.26943734 0.5696688 0.23786545 0.09793353
0.083189264 0.29711398 -0.06922939 0.073137745 0.20594147 0.4167925 -0.16280699 0.0004771752
0.41637787 0.2685976 0.35345817 -0.015679412 -0.27045116 0.16037858 0.16347794 -0.05119365
0.40599963 0.05228296 0.10716296 0.17183457 -0.34093395 -0.038353357 0.03501587 -0.07556685
0.07869333 0.379549 -3.0986044 0.07906472 0.0017889824 0.04273666 0.07919523 0.08440068
0.5324031 -0.53488314 0.025294527 0.27829635 0.937294 0.13659215 0.04877624 -0.06561211
0.1948974 2.030451 -1.6321403 0.021486536 0.23026337 -0.04518855 -0.015831625 -0.031547714
0.03476451 -0.1216995 -0.12917781 -0.46210802 0.06615373 0.3530384 -0.235678 0.13813657
0.42668188 -0.21422663 0.61054105 0.20004068 -0.033850648 0.015144266 0.0095904255 0.21125649
00000000: 4804 4c3e 1827 da3e f0a2 98be 4e9b b03f
00000010: a2fa 0cbd cf14 8bbe b16e 20bd 2636 c03d
00000020: ccec 32be b85a 953e 8bb0 27bf 333d b43b
00000030: c129 0dbe 0ca1 5cbd b506 673f ffb0 64be
00000040: ce87 f3bb aa0a f9bd 4e8b e63e bd68 073e
00000050: 06e9 e33e c209 0a3f a7ad 613e 0cce d23c
00000060: 2849 893d 00ba 98bd fa23 0e3e 0a20 673f
00000070: f3c9 d73e a05e b83e 6e3a 613c e83e 163f
00000080: d44f 803d 1631 e73e 4f32 9e3c 7e40 af3e
00000090: 3cbe cabe a099 423f e0f8 c63e 98a4 963d
000000a0: ea8d b53d 6a54 dd3e e655 90bd 5803 cfbe
000000b0: 51f0 1bbe 1ec1 b93f 25c6 8b3e e518 91bd
000000c0: e0ed a1bc 3161 723d 5740 213e 1028 80bd
000000d0: d024 653d b42a 4ebd 914d 8a3c 9437 05bd
000000e0: a8ba 26bd f89d dd3e 5027 ae3e 357f 20bd
000000f0: ca5a aabe 6799 a1be 2d44 8dbf 415b 483d
00000100: 4a94 623c a9e1 063e e9fc 9b3e 2a63 073d
00000110: 9a02 f63d e757 f3bd 63fd 46be 2329 283f
00000120: c180 b5bd 2168 7a3e 4c30 493f 8171 8fbd
00000130: 6ca8 6fbd 3cf2 6e3d d5c2 2abe 42e6 fa3e
00000140: cee0 5f3e 1de1 223f 66a9 25be 78fe 883d
00000150: 81c3 4e3f f1c0 5abe 385d b5be 8cac 163f
00000160: 876a 1e3e 7051 92bb 8218 babd 6f42 59be
00000170: 2c03 c03e aef5 323f f8f8 8f3e 0050 db3c
00000180: 083d ce3e 0a45 6d3d 1912 4b3f 7d3c ab3e
00000190: 7ea7 ad3d 7552 b13e 272d a53e 800f 94ba
000001a0: db8a 583d cec1 05bf 1531 2ebd 2fcd 50bd
000001b0: fce4 31be 8145 9b3b 80cc a33c 801e 9dbc
000001c0: b7a1 793e a008 ffbe cc72 e53d d976 333c
000001d0: 5d45 cd3d 900c 163f 7ad8 a1bc 0b6e 8a3e
000001e0: 74f6 d0bc 0c00 24bd 7f6b ecbd bf13 233e
000001f0: 80f9 a2bd 7cad 653f 8a8e f0bd 1252 c73e
00000200: ced9 1a3d e0fd 473e 1860 953f bfca 953e
00000210: fdb2 43bd 0e43 89bd 99c4 e2bd 01d2 fa3d
00000220: 49e1 e93e 94e0 1bbd fa52 0d3e 5823 723d
00000230: 99a7 873e dc5a 4b3d 7920 8cbf bc2a 3a3d
00000240: 003b f33c c0a2 8dbd dfee 603d 6498 d1bf
00000250: 3406 863d bbe7 cebe d182 6ebe 4afa dfbd
00000260: 88f4 3abc edb5 9a3e 45ae 2c3f f1b6 913d
00000270: fbf1 ff3c 1cd8 f1bd 1c72 3b3e f51b b43d
00000280: 1b3d 3a3e a888 c83d 090e 0a3e 6d2b 913d
00000290: 2029 bbbf f359 18c0 7001 c9bf d0d7 673c
000002a0: caf9 a83d fe97 06c0 f9fd 253d e85a 173c
000002b0: 6156 3ebd 8021 6abb de19 31bd 1008 8dbb
000002c0: 88ec 163f 131d 003e 7063 a63e 121d 49bc
000002d0: f41e 583e 6283 8e3e 30cc a9bf 63af 143f
000002e0: 11a0 98bd 9c49 a7bd 421d c0be 9aeb 87bd
000002f0: b1f3 893e d1d5 113f 0093 733e 6091 c83d
00000300: 225f aa3d 531f 983e 23c8 8dbd 3ec9 953d
00000310: 52e2 523e d465 d53e e0b6 26be 5f2d fa39
00000320: 7b2f d53e a085 893e 78f8 b43e 1c72 80bc
00000330: 9378 8abe 483a 243e c366 273e 6fb0 51bd
00000340: 2fdf cf3e a826 563d 4178 db3d 67f5 2f3e
00000350: e58e aebe 6918 1dbd cd6c 0f3d cbc2 9abd
00000360: f829 a13d 3f54 c23e 894f 46c0 afec a13d
00000370: 4a7c ea3a a30c 2f3d 1c31 a23d 44da ac3d
00000380: 924b 083f 1aee 08bf 7836 cf3c dc7c 8e3e
00000390: 80f2 6f3f d0de 0b3e 98c9 473d a45f 86bd
000003a0: 2f93 473e e9f2 0140 f9e9 d0bf 8804 b03c
000003b0: 29ca 6b3e a117 39bd 53b1 81bc 2d38 01bd
000003c0: 3b65 0e3d 963d f9bd 3047 04be 6c99 ecbe
000003d0: 9b7b 873d 73c1 b43e 9355 71be ac73 0d3e
000003e0: 0c76 da3e 3a5e 5bbe 6b4c 1c3f 77d7 4c3e
000003f0: faa6 0abd a81f 783c 2921 1d3c 9f53 583e

bias f4 [120]
0.21463875 0.18286511 0.1256897 -0.0657061 0.24473241 -0.11810764 -0.04774267 -0.065396436
-0.00874667 0.11455943 0.015099752 0.20259903 0.19484396 -0.109996855 0.011897724 -0.031784717
-0.12347533 0.17366216 0.015606961 0.18213668 0.102817506 -0.07220415 -0.08685013 0.01316618
-0.0639894 0.19121066 -0.0731734 -0.056000736 0.24076882 0.40792158 -0.19630888 0.29894987
-0.095824815 -0.05851184 0.20032726 -0.06590585 0.069308475 0.18262434 -0.025234751 0.00761371
0.048039857 0.11873645 -0.118999206 -0.08651741 0.06817645 -0.13424051 0.12027678 -0.009947133
0.0572922 0.013978563 0.2958584 -0.07188849 -0.06903663 0.24084209 -0.037342235 0.19261405
-0.044987295 -0.06113515 0.018678745 -0.08026427 0.014552543 -0.072449625 -0.14904508 0.27693546
0.12349469 0.21613538 0.0028037752 -0.030899726 0.22246015 0.31007117 0.04162244 0.033904407
0.27644327 0.088394776 -0.037625864 -0.19031312 -0.086256236 0.18827581 0.23626977 -0.088491924
0.24179031 0.23843198 0.056682378 -0.11982627 0.13051808 0.09328152 -0.054234423 -0.013597182
0.008105219 0.16278201 0.013926405 0.076287694 -0.1968689 0.1752128 -0.010093774 0.09959307
0.08316591 -0.053729232 0.17158598 0.14587352 0.086764626 0.03772153 0.18487154 0.14975119
-0.04129205 0.19914083 -0.016996734 0.3504776 0.18407409 0.10316171 0.22227527 -0.027859116
0.18823797 -0.031445004 0.22640134 -0.11037663 0.08998403 0.06263125 -0.16828965 -0.055462085
00000000: 43ca 5b3e fe40 3b3e cdb4 003e eb90 86bd
00000010: 229b 7a3e 6be2 f1bd d18d 43bd 91ee 85bd
00000020: 314e 0fbc 229e ea3d f364 773c 1f76 4f3e
00000030: 2d85 473e 0846 e1bd acee 423c b130 02bd
00000040: a2e0 fcbd 7ed4 313e 57b4 7f3c 0a82 3a3e
00000050: fc91 d23d c5df 93bd 7bde b1bd f6b6 573c
00000060: e00c 83bd bacc 433e efdb 95bd 0761 65bd
00000070: 1a8c 763e 19db d03e 3205 49be f50f 993e
00000080: cd3f c4bd 1caa 6fbd 9722 4d3e a5f9 86bd
00000090: 9af1 8d3d e001 3b3e 1cb9 cebc 6e7c f93b
000000a0: 71c5 443d 192c f33d dbb5 f3bd 0a30 b1bd
000000b0: 18a0 8b3d 5876 09be ac53 f63d 4df9 22bc
000000c0: 3aab 6a3d 5806 653c c17a 973e 463a 93bd
000000d0: 1463 8dbd 4f9f 763e 2cf4 18bd 9e3c 453e
000000e0: 9944 38bd da68 7abd 2b04 993c 9861 a4bd
000000f0: ca6d 6e3c 7860 94bd 469f 18be 7cca 8d3e
00000100: c9ea fc3d 9852 5d3e 8bbf 373b 6c21 fdbc
00000110: 98cc 633e a6c1 9e3e 4b7c 2a3d 59df 0a3d
00000120: f989 8d3e 5208 b53d 941d 1abd 71e1 42be
00000130: 1ca7 b0bd 60cb 403e b4f0 713e 413b b5bd
00000140: e197 773e 8327 743e c82b 683d 7a67 f5bd
00000150: 88a6 053e 620a bf3d ea24 5ebd b7c6 5ebc
00000160: c1cb 043c 54b0 263e 942b 643c b93c 9c3d
00000170: 0098 49be fc6a 333e 5b60 25bc 74f7 cb3d
00000180: e352 aa3d 2f13 5cbd 3cb4 2f3e de5f 153e
00000190: a7b1 b13d e481 1a3d f74e 3d3e 6058 193e
000001a0: da21 29bd 93eb 4b3e bc3c 8bbc cd71 b33e
000001b0: eb7d 3c3e 7246 d33d 219c 633e cd38 e4bc
000001c0: 74c1 403e 7acc 00bd c1d5 673e 250d e2bd
000001d0: 8c49 b83d d044 803d 1f54 2cbe 362c 63bd

weight f4 [120, 120]
0.24608156 0.021890298 -0.38986042 -0.024549348 -0.021973876 0.06603692 0.00050295267 0.0056688427
0.08831177 -2.343199 -0.010280449 0.18700446 0.13942055 -0.058946263 0.031709626 -0.017577361
-0.041080177 -0.7501854 -0.0017069753 -0.720131 -0.19092296 -0.022876605 0.076138586 -0.54750437
0.08197697 0.22554904 -0.07330593 -0.019302167 -0.35287192 -0.8193091 0.11379235 0.44336596
0.14171699 -0.016728884 0.052504625 0.07790166 0.34298384 -1.3595101 -0.02335705 0.061346587
-0.5465456 0.1696042 0.019291805 -0.06782081 -0.2966953 -0.021266062 -1.094541 0.11297001
-0.67683226 0.039276846 -0.62300557 0.14662062 0.05452522 0.81425476 0.04471959 0.07343488
0.11789837 0.043338776 -0.037554976 -0.07922649 0.08564089 0.07925066 0.06811886 -0.30505288
0.16592179 -0.0032501093 0.08975346 0.08615354 -0.30339295 -0.20323633 -0.18074057 -0.17906933
-0.31400403 -1.0956783 0.104888976 -0.8388069 0.026499609 -0.32807395 -0.22316265 -0.009083986
0.12879497 -0.13821445 -0.24781474 0.11157807 -0.44143176 0.23143841 0.016472295 0.041451555
0.11038408 -0.02873983 0.31507134 -0.42323688 0.09829994 -0.32579595 -0.5054695 -0.57700795
-0.40391448 0.029515488 0.09676803 -0.5056653 0.098762766 0.06087935 -0.14895429 -0.16942132
-0.06853721 0.17162074 0.001339741 -0.022125926 0.015253431 -0.02659661 -0.47795874 0.115022644
0.16117121 0.09035471 0.032396812 -0.004578714 -0.58961815 -0.29377905 0.0041673556 -0.072108835
-0.042842858 -0.39478937 0.09630938 0.07795639 -0.26658502 0.10105226 -0.027805012 -0.025328286
0.119378835 0.9499519 0.14730984 -0.57980037 -0.06421247 -0.011624842 -0.03195835 -0.14315498
-0.06415654 0.04957167 -0.08965193 -0.12577632 0.018387884 0.11990736 0.08879495 0.089215934
0.03596525 -0.070525154 -0.0495669 0.08413912 0.03857161 -0.6125888 -0.04019832 -0.6465001
-0.07797436 -0.014447544 -0.28492457 0.012972858 0.4309601 -0.11166683 0.037088897 0.032415543
0.39549857 -0.28477365 -0.07018198 -0.109400965 -0.32322767 -0.073380455 0.3345189 -0.083446376
0.13441962 -0.3829283 -0.18659313 -0.080045864 -0.0031320234 0.9597298 -0.011237763 0.03888657
-0.05082122 -0.005236134 -0.02956362 -0.023100495 0.37529913 -0.00587599 0.0668101 0.004037358
-0.054102268 -0.14974166 0.03399499 0.037019134 -0.07873496 0.06914963 -0.021796595 0.0711687
0.07601129 -0.19318824 -0.13653743 0.47229013 -0.082901835 0.19156569 -0.60200566 0.14021902
0.030569013 -0.24379644 -0.3480346 -0.14538133 0.12234451 -0.41467825 -0.051392637 -0.056239646
-0.028200567 -0.5595039 -0.04896581 0.077446274 0.01720993 0.049406946 0.10170689 -0.12261407
0.21604669 -0.024209077 -0.36483052 -0.0074911397 0.27051064 0.0025400817 0.34913164 0.5297762
0.0735136 0.047093574 -0.08195693 -0.15225993 0.17858629 -0.36539283 -0.29204217 0.06589701
-0.4204666 0.0240554 -0.15748067 0.015290204 -0.15486747 0.028567431 -0.062190223 -0.049590163
0.41116717 -0.14726326 0.08628486 -0.08597283 -0.16794688 0.14594437 -0.077135675 -0.018975772
-0.027940517 -0.77042896 -0.037160814 0.7209715 0.22520435 -0.03667057 0.008153005 0.0060013663
00000000: cefc 7b3e 4853 b33c c99b c7be b71b c9bc
00000010: 8f02 b4bc 5d3e 873d 95d8 033a b3c1 b93b
00000020: cddc b43d f9f6 15c0 546f 28bc 197e 3f3e
00000030: 43c4 0e3e a371 71bd f4e1 013d 66fe 8fbc
00000040: b043 28bd 260c 40bf 96bc dfba 815a 38bf
00000050: 4f81 43be b867 bbbc 8cee 9b3d 3f29 0cbf
00000060: 8be3 a73d 54f6 663e 6b21 96bd 941f 9ebc
00000070: a1ab b4be 3ebe 51bf f70b e93d dd00 e33e
00000080: 421e 113e 030b 89bc 170f 573d e88a 9f3d
00000090: 949b af3e 6d04 aebf 4957 bfbc 8f46 7b3d
000000a0: 6aea 0bbf b9ac 2d3e d909 9e3c a3e5 8abd
000000b0: 72e8 97be 2a36 aebc eb19 8cbf d25c e73d
000000c0: e144 2dbf c2e0 203d 4b7d 1fbf b723 163e
000000d0: d655 5f3d 0073 503f e42b 373d 0765 963d
000000e0: b374 f13d 0084 313d 3fd3 19bd 7f41 a2bd
000000f0: 7e64 af3d 2c4e a23d e781 8b3d e42f 9cbe
00000100: 67e7 293e c9ff 54bb a9d0 b73d 4471 b03d
00000110: 5256 9bbe 2f1d 50be 0e14 39be f35d 37be
00000120: 23c5 a0be 303f 8cbf 08d0 d63d 0dbc 56bf
00000130: b515 d93c 4ff9 a7be c084 64be 00d5 14bc
00000140: d4e2 033e 1788 0dbe 26c3 7dbe 0b83 e43d
00000150: 5803 e2be 31fe 6c3e e8f0 863c 1bc9 293d
00000160: 0c11 e23d cb6f ebbc 0851 a13e 81b2 d8be
00000170: 7b51 c93d bace a6be 7366 01bf cbb6 13bf
00000180: e1cd cebe 77ca f13c 512e c63d 4873 01bf
00000190: 2244 ca3d a05c 793d 7987 18be c87c 2dbe
000001a0: 3d5d 8cbd 59bd 2f3e 409a af3a 6e41 b5bc
000001b0: 87e9 793c 22e1 d9bc 02b7 f4be fe90 eb3d
000001c0: 110a 253e e40b b93d 85b2 043d 0909 96bb
000001d0: 37f1 16bf 356a 96be 508e 883b ccad 93bd
000001e0: fe7b 2fbd d521 cabe da3d c53d 9aa7 9f3d
000001f0: d57d 88be 7df4 ce3d 56c7 e3bc 447d cfbc
00000200: e47c f43d 0c30 733f 64d8 163e cc6d 14bf
00000210: d481 83bd 1f76 3ebc c2e6 02bd 3897 12be
00000220: 8164 83bd aa0b 4b3d 6e9b b7bd 82cb 00be
00000230: 30a2 963c fd91 f53d 20da b53d d8b6 b63d
00000240: 4c50 133d 7e6f 90bd a906 4bbd 2251 ac3d
00000250: 44fd 1d3d 9fd2 1cbf fea6 24bd 0881 25bf
00000260: 05b1 9fbd 64b5 6cbc a2e1 91be 1c8c 543c
00000270: cda6 dc3e 94b1 e4bd 87ea 173d 29c6 043d
00000280: ca7e ca3e dacd 91be 92bb 8fbd 9d0d e0bd
00000290: 197e a5be 7e48 96bd 1046 ab3e efe5 aabd
000002a0: 4ca5 093e 2e0f c4be 4512 3fbe 16ef a3bd
000002b0: a242 4dbb dab0 753f 981e 38bc 8647 1f3d
000002c0: e929 50bd e093 abbb 682f f2bc 403d bdbc
000002d0: 3527 c03e 608b c0bb bcd3 883d d04b 843b
000002e0: 579a 5dbd e155 19be 553e 0b3d 60a1 173d
000002f0: cb3f a1bd 529e 8d3d c68e b2bc e5c0 913d
00000300: cfab 9b3d 23d3 45be 78d0 0bbe 03d0 f13e
00000310: 70c8 a9bd cc29 443e 0b1d 1abf 9395 0f3e
00000320: de6b fa3c c6a5 79be 9731 b2be d8de 14be
00000330: c28f fa3d b550 d4be 1681 52bd 8b5b 66bd
00000340: e004 e7bc a63b 0fbf 6090 48bd 279c 9e3d
00000350: d7fb 8c3c f05e 4a3d b44b d03d 161d fbbd
00000360: 583b 5d3e 1d52 c6bc 11cb babe 3c78 f5bb
00000370: 5f80 8a3e 8077 263b 62c1 b23e 6a9f 073f
00000380: 4c8e 963d 31e5 403d 09d9 a7bd 07ea 1bbe
00000390: 53df 363e c514 bbbe 8d86 95be 03f5 863d
000003a0: 6647 d7be d50f c53c 9d42 21be c483 7a3c
000003b0: 9495 1ebe 3f06 ea3c 2dbb 7ebd 0e1f 4bbd
000003c0: 8184 d23e 2ecc 16be 1eb6 b03d 8612 b0bd
000003d0: 44fa 2bbe 7172 153e 4ff9 9dbd 1473 9bbc
000003e0: 83e3 e4bc d53a 45bf f035 18bd 9791 383f
000003f0: f89b 663e e133 16bd 2e94 053c 1ca7 c43b

bias f4 [120]
-0.07102843 -0.25591373 -0.08674798 0.057235874 0.010075776 -0.16459265 -0.15439495 0.43281525
-0.0033387789 0.19000657 -0.06736026 -0.21598329 0.094717905 -0.0003822951 -0.18920988 -0.18687403
0.03514384 -0.16428158 -0.008415246 -0.10492212 0.2633081 -0.012196778 0.13281325 0.007054219
-0.14945696 -0.15201227 -0.03566765 -0.15777504 -0.036434334 -0.17645061 -0.104849644 -0.26625815
-0.0897071 -0.07682594 -0.13992067 0.045395028 -0.16603947 0.19389306 0.08059261 -0.034561306
-0.0989319 -0.058608584 -0.10209721 -0.059872933 -0.18776801 -0.06466416 0.08646003 -0.02108843
-0.21957648 0.014375409 0.066813655 0.09977491 0.13522094 -0.26910946 -0.09258422 0.16569282
-0.09406294 -0.14465496 -0.17191517 0.076793976 -0.014237295 -0.3730418 -0.02732631 0.25882208
0.25719765 0.035396535 0.06533103 0.47816536 0.04367401 0.21313705 0.027785022 -0.2143216
-0.04411951 0.0012131573 -0.08808983 -0.15182838 -0.18942699 0.05334012 0.121643044 -0.03916952
-0.0703974 -0.048090227 0.07795493 -0.00873642 -0.099718586 0.03168301 -0.02421897 -0.52376264
-0.13554749 0.16823779 0.0041696085 0.11472848 -0.107169 -0.11922995 0.2362001 -0.08963818
-0.26474664 -0.031534202 0.053982396 0.15172745 -0.16366479 -0.022934241 -0.2848286 -0.118754305
-0.08022121 0.20448966 0.20913292 -0.2414544 -0.23154053 -0.2955878 0.04142221 -0.20237581
-0.06813723 0.07680945 -0.1817753 0.09393654 -0.046145678 -0.053864762 0.03488297 -0.020458614
00000000: 5a77 91bd 2007 83be eda8 b1bd 2a70 6a3d
00000010: de14 253c fa8a 28be b619 1ebe f699 dd3e
00000020: 6acf 5abb 1591 423e 2df4 89bd b92a 5dbe
00000030: 76fb c13d c86e c8b9 3cc0 41be e85b 3fbe
00000040: fdf2 0f3d 6e39 28be 1ae0 09bc 69e1 d6bd
00000050: 52d0 863e ffd4 47bc 3200 083e 1427 e73b
00000060: 3f0b 19be 1ba9 1bbe 3e18 12bd c88f 21be
00000070: 2b3c 15bd 78af 34be 69bb d6bd fd52 88be
00000080: 5bb8 b7bd eb56 9dbd 5d47 0fbe 23f0 393d
00000090: 4006 2abe e78b 463e bd0d a53d 2890 0dbd
000000a0: cf9c cabd 8e0f 70bd 5818 d1bd 523d 75bd
000000b0: 4246 40be a56e 84bd f511 b13d a5c1 acbc
000000c0: a8d8 60be d686 6b3c 99d5 883d ca56 cc3d
000000d0: 5c77 0a3e b7c8 89be cc9c bdbd 61ab 293e
000000e0: 12a4 c0bd 6e20 14be 880a 30be 2946 9d3d
000000f0: 8b43 69bc 56ff bebe 6ddb dfbc 5484 843e
00000100: 69af 833e f5fb 103d 46cc 853d 17d2 f43e
00000110: 85e3 323d 9940 5a3e 6a9d e33c 1f77 5bbe
00000120: a9b6 34bd ce02 9f3a 7168 b4bd e678 1bbe
00000130: 26f9 41be 2b7b 5a3d fd1f f93d 3870 20bd
00000140: 832c 90bd 42fa 44bd d6a6 9f3d 3423 0fbc
00000150: 4239 ccbd 0bc6 013d dd66 c6bc 4f15 06bf
00000160: f6cc 0abe 8746 2c3e 36a1 883b c4f6 ea3d
00000170: 6c7b dbbd d52e f4bd 70de 713e 3994 b7bd
00000180: df8c 87be 022a 01bd a51c 5d3d 715e 1b3e
00000190: be97 27be 97e0 bbbc 0ed5 91be 7535 f3bd
000001a0: 054b a4bd bd65 513e f126 563e d23f 77be
000001b0: f618 6dbe 4957 97be 56aa 293d 9b3b 4fbe
000001c0: 888b 8bbd 464e 9d3d 4e23 3abe cd61 c03d
000001d0: 4003 3dbd 4ca1 5cbd 72e1 0e3d d398 a7bc

weight f4 [8, 120]
0.54844654 -0.50478655 0.25609633 -0.43469068 -1.1109127 -0.5389354 -0.05965867 0.67657375
0.46714443 1.0558878 -0.52250385 0.17912894 -1.1981446 -0.5094693 0.32867175 -0.042986773
-0.30845168 -0.8689373 -0.35519475 1.0097706 0.17518273 0.18006204 -1.2569292 -0.6077427
0.21697612 -0.55963755 -0.32902762 0.4962255 -0.1657741 1.6689755 0.37583348 0.940813
0.55575615 -0.3029668 -0.3501569 0.053020466 -0.045709275 -0.3026008 -0.091742255 0.3968274
-0.42042202 -0.32322383 0.5749087 0.5526778 -0.5860142 0.5090567 0.42131457 0.7832879
0.84816235 -0.46371555 0.14455438 0.16422862 0.051842142 -0.33440468 -0.31132436 -0.3855541
-0.85071725 0.45498693 0.059844512 -0.7456903 -0.61767703 -0.22565728 0.41313216 0.2313418
-0.10092809 -0.7446832 -0.85801643 0.18768673 -0.12104306 -0.08405176 -0.8833336 -0.6620892
-0.75616187 0.26851317 0.25214434 0.4202151 0.852158 0.24216095 -0.3535753 0.59615767
-0.27587456 1.9438457 0.21108648 -0.38135213 -0.0643395 0.20986933 -0.847983 0.10916569
0.5955572 0.27749813 0.15745719 -0.6517624 -0.6838409 -0.08705849 -0.41265517 0.70743847
1.7244536 0.2508183 -0.22966653 0.23640904 0.12628326 -0.37365526 -1.2267703 -0.27092302
0.3202535 0.7746869 -0.043112632 0.23067918 -1.2835388 -1.1342744 0.42258105 -0.17312747
0.33191678 0.8810296 -1.0017788 1.1631138 0.5619079 0.3141249 -0.96845466 0.22559406
0.31110922 -0.8264295 0.15877773 -0.5295243 0.90638447 0.7520996 0.82001066 -0.81006235
0.20657568 0.32510567 -0.43421814 -0.14024769 0.5887484 0.3718143 -0.46004957 -1.0447233
0.5194684 0.7926553 -0.45412952 -1.2014644 0.18300466 0.21167545 0.7790531 -0.46264175
-0.15123063 0.41991183 -0.3883686 -0.23169966 -0.31894076 -1.5428103 0.26718023 -0.48131257
0.20406479 -0.6580301 0.76324844 0.21204203 0.0019111125 0.86500657 -0.63358486 -0.9011419
-0.6236464 -0.2851462 1.1032851 0.19403213 0.91639733 -0.9613243 -0.87762976 -1.3365581
-0.034404088 -0.86869663 0.027525827 0.114795595 0.1253822 -0.3888907 -0.6625938 -0.4167396
0.76159763 0.38850743 0.18913473 0.66559345 0.42726296 -0.14018756 0.19165365 0.7313182
-0.19915318 -0.7104317 0.13210692 -0.1589832 1.0642642 0.8062453 0.6296743 0.6229466
1.2939724 0.19731106 0.13803749 -0.19845209 -0.26301932 0.1746606 -0.4575892 -0.1452457
-0.5292158 -1.6449 0.16079079 -0.3504669 1.050948 0.17044722 1.4502122 0.33366993
0.4092594 0.11062677 0.16712855 0.34873503 0.99575645 0.40107754 0.9912732 0.1522936
-1.5536326 0.525101 0.4388337 0.13345104 0.19974273 -0.45496884 0.84348327 -0.47322202
0.7566656 -0.96107036 -0.1520464 -0.21736301 1.0062602 0.8768042 0.14039645 0.59063774
0.2868567 -0.28150812 1.4275978 -1.467754 0.054241266 0.10703817 0.2602595 0.19101402
-0.43835327 -0.3335477 0.7791528 0.13116404 0.046432532 0.34525594 -0.44638923 0.8154288
-0.4723003 0.31114635 -0.40259808 -0.96182394 0.48559207 -0.70378584 0.040863935 -0.11139351
00000000: fe66 0c3f b139 01bf 0f1f 833e c78f debe
00000010: 6332 8ebf acf7 09bf a65c 74bd f033 2d3f
00000020: 8e2d ef3e 5527 873f d0c2 05bf 946d 373e
00000030: cd5c 99bf 946c 02bf aa47 a83e e612 30bd
00000040: 61ed 9dbe ad72 5ebf 16dc b5be 2a40 813f
00000050: 1a63 333e 2f62 383e 0ee3 a0bf 0795 1bbf
00000060: fd2e 5e3e 6844 0fbf 4f76 a8be 4511 fe3e
00000070: b0c0 29be fda0 d53f 3f6d c03e 1fd9 703f
00000080: 0946 0e3f 771e 9bbe c447 b3be fd2b 593d
00000090: a639 3bbd 7eee 9abe 5de3 bbbd f62c cb3e
000000a0: 8e41 d7be 987d a5be 372d 133f 4b7c 0d3f
000000b0: 0705 16bf 8a51 023f 8bb6 d73e 8e85 483f
000000c0: 2b21 593f 206c edbe 1006 143e 8c2b 283e
000000d0: 6d58 543d 1737 abbe e865 9fbe 5967 c5be
000000e0: 9bc8 59bf 0cf4 e83e 851f 753d 8fe5 3ebf
000000f0: 1520 1ebf b412 67be 0f86 d33e dde4 6c3e
00000100: 63b3 cebd 8fa3 3ebf f7a6 5bbf f330 403e
00000110: 6de5 f7bd 5423 acbd 2722 62bf ae7e 29bf
00000120: d393 41bf 8f7a 893e 1019 813e 6f26 d73e
00000130: 0727 5a3f 0af9 773e d207 b5be ca9d 183f
00000140: 6e3f 8dbe f0cf f83f 0e27 583e 9640 c3be
00000150: 6ec4 83bd fce7 563e 6a15 59bf 4392 df3d
00000160: 7076 183f 3c14 8e3e 753c 213e e7d9 26bf
00000170: 3210 2fbf b94b b2bd 8a47 d3be b01a 353f
00000180: e5ba dc3f 426b 803e b42d 6bbe 3615 723e
00000190: 6650 013e be4f bfbe cf06 9dbf 6cb6 8abe
000001a0: 44f8 a33e e151 463f df96 30bd 2a37 6c3e
000001b0: 004b a4bf e72f 91bf 8b5c d83e 5448 31be
000001c0: fff0 a93e 288b 613f 4a3a 80bf eae0 943f
000001d0: 32d9 0f3f fbd4 a03e a5ec 77bf 2102 673e
000001e0: b549 9f3e e290 53bf a196 223e e88e 07bf
000001f0: d008 683f 9989 403f 38ec 513f 3f60 4fbf
00000200: 9388 533e 4074 a63e d751 debe 179d 0fbe
00000210: 37b8 163f 725e be3e 9e8b ebbe 7eb9 85bf
00000220: e2fb 043f 75eb 4a3f aa83 e8be 96c9 99bf
00000230: 9365 3b3e 73c1 583e 0670 473f 61df ecbe
00000240: 34dc 1abe affe d63e 40d8 c6be ad42 6dbe
00000250: 344c a3be cf7a c5bf d9cb 883e 9a6e f6be
00000260: 5cf6 503e a974 28bf 4064 433f 8c21 593e
00000270: 4b7e fa3a 1271 5d3f 9e32 22bf 3cb1 66bf
00000280: 4aa7 1fbf affe 91be 7238 8d3f 5cb0 463e
00000290: 0499 6a3f 5919 76bf 58ac 60bf 5614 abbf
000002a0: 4deb 0cbd e762 5ebf d87d e13c f419 eb3d
000002b0: 3164 003e af1c c7be bf9f 29bf e55e d5be
000002c0: 10f8 423f 72ea c63e 89ac 413e 5564 2a3f
000002d0: 36c2 da3e 548d 0fbe db40 443e ab37 3b3f
000002e0: d0ee 4bbe dade 35bf 0947 073e 7ecc 22be
000002f0: cf39 883f 1866 4e3f 5632 213f 6e79 1f3f
00000300: e3a0 a53f e90b 4a3e b359 0d3e 0637 4bbe
00000310: 78aa 86be 3ada 323e 2249 eabe 4abb 14be
00000320: b07a 07bf 158c d2bf 57a6 243e 6670 b3be
00000330: 7785 863f b789 2e3e 8ea0 b93f c9d6 aa3e
00000340: 738a d13e 4a90 e23d bf23 2b3e 668d b23e
00000350: e5e9 7e3f 095a cd3e 15c4 7d3f daf2 1b3e
00000360: 6fdd c6bf 056d 063f d0ae e03e 64a7 083e
00000370: 5c89 4c3e adf1 e8be 85ee 573f 284a f2be
00000380: d6b4 413f b508 76bf 0db2 1bbe 6994 5ebe
00000390: 22cd 803f 3d76 603f 16c4 0f3e 0934 173f
000003a0: e2de 923e d521 90be 86bb b63f 5ddf bbbf
000003b0: 172c 5e3d d436 db3d bc40 853e 2e99 433e
000003c0: d76f e0be c4c6 aabe 8f76 473f de4f 063e
000003d0: 0a30 3e3d 63c5 b03e 218d e4be f1bf 503f
000003e0: 58d1 f1be 934e 9f3e 5621 cebe 183a 76bf
000003f0: 869f f83e 4f2b 34bf f160 273d 4822 e4bd

bias f4 [8]
0.07357688 0.0064883055 -0.08351174 0.0061359927 0.025991937 -0.06403785 -0.02797042 -0.15044183
00000000: 7aaf 963d da9b d43b 3408 abbd 7010 c93b
00000010: 0bed d43c 4726 83bd 3922 e5bc 6c0d 1abe
