python/mod/modf2.pth (torch, 133647 bytes, 8 tensors)

weight f4 [120, 14]
-0.09715681 0.00085214525 0.15853782 -0.25778347 -0.35028744 -0.37165615 0.09341863 -0.11101535
0.39541644 0.4704935 0.04035462 0.51397467 0.1151227 -0.21908638 0.19322622 0.2745773
0.4883921 -0.74177325 -0.043000475 0.3081404 -0.95312774 1.2766813 -0.8384871 0.08431717
-0.440206 -0.35537428 0.07843337 -1.1908201 0.016821645 -0.055951312 -0.4131128 -0.21530779
-0.17733452 -0.06300773 0.1728408 0.048725054 -0.057861477 -0.26509348 -0.37753576 -0.014484607
-0.18203068 -0.028784662 -0.16699894 -0.5256311 -2.2256236 0.4027428 -0.25523108 0.7530182
0.29941782 0.32186186 1.5235854 0.5945943 -0.2251421 -0.46083775 -0.489878 -0.13823187
-0.025482431 0.10536648 -0.33772576 -0.15804958 0.0992473 -0.18496655 0.082381256 -0.26329082
0.10319309 -0.21338409 -0.13182345 -0.067451045 0.14546722 0.15413219 -0.03312531 0.022267118
-0.017319486 -0.094619654 0.042554922 -0.037879355 0.17715195 -0.15333691 0.03304211 0.2185255
-0.15029863 0.07684781 -0.111916125 0.08435644 -0.01872845 0.2303518 -0.25579605 -0.20047438
-0.17210704 0.047512747 -0.009148091 -0.14411402 0.20947365 0.26407313 0.061119586 -0.16957253
0.013210706 -0.14979568 -0.106502704 0.38943863 0.0020657778 0.10003554 -0.13005674 -0.0016984344
-0.22105986 0.05015958 0.14065364 0.26213205 -0.22147262 0.11541985 0.035471305 0.1717605
-0.13360548 -0.23371032 -0.43008006 -0.3831956 -0.30311337 -0.11293154 0.6414674 -0.03259553
-0.8628036 -0.6036179 -2.350879 0.86844367 1.0969945 -1.303885 0.020018354 -0.3973981
-1.5092098 0.44333464 -0.3882976 0.86947197 -0.46839902 -0.45074317 -0.32828647 -0.16027363
-1.4618336 1.285708 -0.48065245 1.9786739 0.47072113 -0.14903788 0.5623861 -0.6926123
0.930308 0.015116357 0.6020087 -0.30647972 0.24586318 0.17628026 0.28870115 -0.029386275
-0.22552207 -0.9641549 -0.6154766 0.26036376 -0.10587095 -0.10940265 0.69823086 -0.4257777
0.6470143 1.1297909 -0.2763265 -0.6227734 -1.0175691 0.7844338 -0.849494 0.5998942
-0.48772076 0.060250536 -0.18415378 -1.0702012 -0.4349677 -0.5785076 0.15465358 0.6223939
0.245741 0.47982627 -0.476151 0.60134304 -1.3312601 -1.7849823 0.48323327 -0.38705808
-0.14256985 0.2773484 0.22981344 -0.43606684 -0.04149451 1.1693662 1.2210151 0.002170467
0.6033819 0.8732322 -1.1250556 4.118042 -0.120095916 -0.3756681 0.36511496 -0.6670659
0.110632785 -0.12365884 0.4788211 0.64503455 0.74652684 0.13699822 1.0119814 0.12521116
0.25817412 -0.40284345 -0.13029915 0.15052366 -0.059979632 -0.116906665 -0.0569076 0.01232601
0.08074567 -0.00064104795 0.016987361 -0.07924423 -0.17510006 0.0666272 -0.06985104 0.034346566
0.007668972 0.4633826 -0.1301665 -0.042840995 0.16403377 -0.25376663 0.05397755 0.20759228
0.3354963 -0.05727993 -0.023268737 -0.08781596 0.028111264 0.2534527 0.18402931 0.24474037
-0.0042267144 0.053611375 0.25642973 -0.12144333 -0.076202124 -0.21288705 0.110783905 -0.20978266
0.2124365 0.20825611 -0.2470989 -0.20070255 -0.16421543 -0.10373943 -0.20861866 -0.34225592
00000000: 26fa c6bd 8062 5f3a bd57 223e 32fc 83be
00000010: e058 b3be b749 bebe 4452 bf3d 045c e3bd
00000020: 0674 ca3e 86e4 f03e e34a 253d d893 033f
00000030: 73c5 eb3d 2e58 60be 18dd 453e 6595 8c3e
00000040: 880e fa3e dae4 3dbf 4421 30bd 94c4 9d3e
00000050: 2e00 74bf 4b6a a33f 17a7 56bf 7bae ac3d
00000060: ae62 e1be 9ef3 b5be ada1 a03d cb6c 98bf
00000070: 8ccd 893c 342d 65bd 8583 d3be a579 5cbe
00000080: 2e97 35be 320a 81bd 2efd 303e ec93 473d
00000090: 2800 6dbd 55ba 87be 5e4c c1be d850 6dbc
000000a0: 4066 3abe d0cd ebbc c501 2bbe c38f 06bf
000000b0: 9e70 0ec0 4e34 ce3e a6ad 82be cdc5 403f
000000c0: 4b4d 993e 14cb a43e d904 c33f 5537 183f
000000d0: a78b 66be edf2 ebbe 4ad1 fabe a88c 0dbe
000000e0: 88c0 d0bc 62ca d73d 64ea acbe c0d7 21be
000000f0: 2b42 cb3d df67 3dbe 81b7 a83d 0ece 86be
00000100: e656 d33d 5c81 5abe bafc 06be c623 8abd
00000110: 5cf5 143e d4d4 1d3e 68ae 07bd 8869 b63c
00000120: 98e1 8dbc f3c7 c1bd 124e 2e3d 6227 1bbd
00000130: 5267 353e 5a04 1dbe 2a57 073d 26c5 5f3e
00000140: e2e7 19be 6262 9d3d 4834 e5bd 12c3 ac3d
00000150: 686c 99bc 58e1 6b3e b3f7 82be 2849 4dbe
00000160: d43c 30be ba9c 423d e0e1 15bc a092 13be
00000170: 4380 563e 9834 873e 8858 7a3d 6ca4 2dbe
00000180: b871 583c 0a64 19be 171e dabd 8064 c73e
00000190: 0062 073b 6fdf cc3d 982d 05be 009e deba
000001a0: 845d 62be 2274 4d3d 8207 103e 2c36 863e
000001b0: b8c9 62be 3e61 ec3d 5c4a 113d fce1 2f3e
000001c0: e0cf 08be c251 6fbe 7433 dcbe 3732 c4be
000001d0: ad31 9bbe a748 e7bd 3537 243f e482 05bd
000001e0: b2e0 5cbf b486 1abf cd74 16c0 5352 5e3f
000001f0: 516a 8c3f b4e5 a6bf 88fd a33c c477 cbbe
00000200: c92d c1bf c2fc e23e f1ce c6be b795 5e3f
00000210: ffd1 efbe cfc7 e6be 2a15 a8be c51e 24be
00000220: 5d1d bbbf 1492 a43f 1418 f6be 3045 fd3f
00000230: 5c02 f13e 639d 18be 89f8 0f3f 0a4f 31bf
00000240: aa28 6e3f 99aa 773c 3e1d 1a3f e9ea 9cbe
00000250: 8fc3 7b3e d082 343e a3d0 933e 7cbb f0bc
00000260: 42ef 66be dbd2 76bf e08f 1dbf 664e 853e
00000270: ded2 d8bd 7f0e e0bd 42bf 323f 89ff d9be
00000280: bba2 253f fd9c 903f ab7a 8dbe 146e 1fbf
00000290: b43f 82bf a7d0 483f 7078 59bf ab92 193f
000002a0: 89b6 f9be 44c9 763d cf92 3cbe 5afc 88bf
000002b0: 16b4 debe 1319 14bf 825d 1e3e 3555 1f3f
000002c0: 87a3 7b3e caab f53e 10ca f3be 9ef1 193f
000002d0: bb66 aabf 4d7a e4bf 5a6a f73e 7a2c c6be
000002e0: d5fd 11be 9c00 8e3e 3754 6b3e 2744 dfbe
000002f0: 26f6 29bd cbad 953f 394a 9c3f 653e 0e3b
00000300: 3c77 1a3f 258c 5f3f d201 90bf 00c7 8340
00000310: d9f4 f5bd 9257 c0be 59f0 ba3e d5c4 2abf
00000320: 7193 e23d d940 fdbd 0a28 f53e fc20 253f
00000330: 621c 3f3f 4349 0c3e 9b88 813f 5b37 003e
00000340: 662f 843e 7f41 cebe 246d 05be e022 1a3e
00000350: 34ad 75bd c36c efbd f217 69bd 08f3 493c
00000360: fc5d a53d 000c 28ba 1429 8b3c cd4a a2bd
00000370: 6e4d 33be d773 883d 100e 8fbd fcae 0c3d
00000380: 004c fb3b 7c40 ed3e 5e4a 05be 0a7a 2fbd
00000390: 78f8 273e b3ed 81be 9017 5d3d 1293 543e
000003a0: 2cc6 ab3e 5c9e 6abd 149e bebc dbd8 b3bd
000003b0: 9849 e63c 8dc4 813e 2e72 3c3e 389d 7a3e
000003c0: 4080 8abb 9a97 5b3d c24a 833e 48b7 f8bd
000003d0: dc0f 9cbd 10ff 59be ace2 e23d 44d1 56be
000003e0: f488 593e 1741 553e 7e07 7dbe f884 4dbe
000003f0: 1728 28be 5775 d4bd 21a0 55be 2b3c afbe

bias f4 [120]
-0.25493616 -0.43566495 -0.25385982 -0.08037815 -0.09231036 -0.22318709 -0.29392746 -0.35919732
-0.030055687 -0.15145163 -0.10701453 -0.16584745 -0.09830728 -0.0017020123 0.021273402 -0.20889127
-0.15390986 -0.27182668 0.06778967 -0.045363225 -0.2869568 -0.175053 -0.13273005 -0.2123151
-0.08511673 -0.16720353 -0.038913872 -0.25629494 -0.22929442 -0.17610225 0.07611251 -0.11779006
-0.14776184 -0.352989 0.017637488 -0.2695575 -0.15952328 -0.12337007 -0.24643907 -0.36416596
-0.32893473 0.0027418598 -0.072395615 -0.17716621 0.07791514 -0.002359128 0.010045439 -0.03531039
-0.06215365 0.14581822 -0.009476043 -0.14640392 -0.16664898 0.09974832 -0.007726457 -0.18187177
-0.17604022 -0.0521533 -0.19974077 -0.31421727 -0.15718557 -0.107104436 -0.30957532 -0.24505961
-0.32864848 -0.21296872 -0.026256047 -0.18402994 -0.2540796 0.010408156 -0.106083706 -0.10958225
0.18510075 -0.18700388 0.06098281 0.034413464 -0.30398092 0.011598214 0.12248956 -0.19293594
-0.0018307788 -0.057546277 0.029373046 -0.21317968 0.06946809 -0.121443294 -0.41014737 -0.07032777
-0.20476966 -0.25743106 0.031205628 0.04343157 -0.10920233 -0.26906836 -0.25432688 -0.23052406
-0.11343385 -0.03348423 -0.1115697 0.023193106 0.14854516 -0.23813902 0.0006176988 -0.13730681
0.02156223 -0.1975902 -0.14711295 -0.015752843 0.04727021 -0.12259494 -0.13276297 0.18840398
0.0042113885 -0.103636675 -0.3360837 -0.25251964 -0.2197567 -0.23817702 -0.18190469 -0.1357115
00000000: fe86 82be 7a0f dfbe eaf9 81be 4d9d a4bd
00000010: 370d bdbd 288b 64be a97d 96be b6e8 b7be
00000020: 5837 f6bc 2316 1bbe 6f2a dbbd ead3 29be
00000030: 5455 c9bd 0e16 dfba 8f45 ae3c 98e7 55be
00000040: 8c9a 1dbe de2c 8bbe 4fd5 8a3d cace 39bd
00000050: 00ec 92be 1841 33be 63ea 07be 2169 59be
00000060: ae51 aebd 6737 2bbe 2764 1fbd 1739 83be
00000070: 28cc 6abe 2654 34be e0e0 9b3d ea3b f1bd
00000080: e14e 17be f9ba b4be 7e7c 903c 7103 8abe
00000090: 125a 23be 72a9 fcbd 865a 7cbe f673 babe
000000a0: 226a a8be c6b0 333b 2744 94bd 0f6b 35be
000000b0: f991 9f3d 9a9b 1abb a095 243c a1a1 10bd
000000c0: d394 7ebd 5f51 153e 6841 1bbc e9ea 15be
000000d0: 08a6 2abe d948 cc3d 382e fdbb 983c 3abe
000000e0: e343 34be b39e 55bd d888 4cbe 16e1 a0be
000000f0: 41f5 20be 9259 dbbd a880 9ebe e8f0 7abe
00000100: 9d44 a8be 7914 5abe ec16 d7bc 5872 3cbe
00000110: b916 82be f886 2a3c 6a42 d9bd a96c e0bd
00000120: 0d8b 3d3e f27d 3fbe 1cc9 793d 22f5 0c3d
00000130: 63a3 9bbe 6f06 3e3c cedb fa3d 0091 45be
00000140: bef6 efba a5b5 6bbd be9f f03c c64b 5abe
00000150: 4945 8e3d 43b7 f8bd d6fe d1be 0208 90bd
00000160: 23af 51be 01ce 83be f2a2 ff3c 4de5 313d
00000170: 79a5 dfbd 54c3 89be 2237 82be 800e 6cbe
00000180: 0250 e8bd c326 09bd a87e e4bd 78ff bd3c
00000190: 391c 183e b7da 73be 11ed 213a 289a 0cbe
000001a0: 46a3 b03c 1655 4abe c7a4 16be 1b0c 81bc
000001b0: 689e 413d 0e13 fbbd 04f3 07be f9ec 403e
000001c0: b0ff 893b 773f d4bd 2a13 acbe 414a 81be
000001d0: e607 61be ade4 73be 3945 3abe f5f7 0abe

weight f4 [120, 120]
-0.047602296 -0.005291946 -0.07436975 -0.052465126 -0.05144839 -0.13482274 -0.1604011 -0.12213042
-0.07265022 -0.06686849 -0.18188727 -0.045388766 -0.16369975 -0.10199953 -0.045092113 -0.082832396
-0.17749584 -0.047987673 -0.04674826 -0.027895764 -0.06276672 -0.013757117 -0.108030684 -0.03754081
-0.15805611 -0.08672897 -0.11631406 -0.16143575 -0.074303105 -0.18356523 -0.12575918 -0.14155515
-0.18154332 -0.11610683 -0.013936266 -0.036285177 -0.01913844 -0.040552158 -0.03195902 -0.18971583
-0.13054109 -0.042529687 -0.17822239 -0.11132298 -0.12082645 -0.100512266 -0.15021801 0.055088893
0.06252964 -0.17084838 -0.12582487 -0.10013865 -0.17798638 -0.12256456 -0.16658252 -0.041594453
0.015941806 -0.17935173 -0.018789455 -0.12762222 -0.07334751 -0.02518282 -0.024955474 -0.07333085
-0.18801609 -0.06041523 -0.13160008 -0.054004736 -0.055106588 -0.14195287 -0.048563525 -0.13166727
-0.021811657 -0.18691242 -0.05375962 -0.15937304 0.012792088 -0.035209067 -0.08800426 -0.014030196
-0.08632028 -0.17464614 -0.11308528 -0.078324094 -0.07177173 -0.12373544 -0.12378864 -0.08026204
-0.14053082 -0.15315495 -0.009718068 -0.16917184 -0.17901447 -0.13682961 -0.0986676 0.042419523
-0.1433732 -0.080259725 -0.02927062 -0.08068168 -0.07801295 -0.13801003 -0.11241067 -0.111523375
-0.14784393 -0.05222708 -0.04997889 -0.0793424 -0.05071125 -0.07463375 -0.009094141 -0.13788888
-0.04420329 -0.01665657 0.06397201 -0.17588553 -0.12291929 -0.028561145 -0.07652048 -0.15648812
0.3096974 -0.82603925 0.035918757 0.28858265 -0.08079885 0.027031995 -0.074850745 -0.009945035
0.21956061 -1.2497159 -0.0803226 1.1654481 -0.32626113 0.47195217 0.61516654 -0.005814746
0.07503775 -0.0948792 0.42642555 -0.9954314 0.0829874 1.0137975 -0.18206476 0.48722953
-0.17400841 -0.014959639 -0.051415175 0.024628587 0.05836536 5.2977353e-05 -0.1140812 -0.63659304
-1.9356016 0.18488008 -0.6093569 1.5214518 -0.23437594 -0.24049719 0.031184504 -0.23040612
0.010436192 -0.16663706 -0.2878205 -1.3270675 0.10269471 -0.49931845 -0.47529623 0.45648405
0.37154463 -0.7184529 0.40263864 1.0651535 1.0106164 -1.7385393 0.53810954 -2.5667133
0.09100691 -1.084106 0.07473691 -0.06172342 0.8897457 -0.3713928 1.8956047 1.4669849
-0.6609326 -0.4848077 0.31630805 0.22341175 0.043407515 -0.76378983 0.9658317 0.018158767
-1.6902989 -0.75452065 0.7171345 -0.3250599 0.12391183 -4.4654155 0.25476462 -0.12006652
0.8019921 0.047956876 -0.3230121 0.3358837 0.19286588 1.1493878 0.03072039 0.18327044
-0.39927554 -1.3954239 -2.1721346 -0.8808449 0.064595476 -0.00023539364 -0.08176182 -0.039284907
-0.00708256 -0.47589543 -0.18810861 -0.29890662 0.14636397 1.5333891 -0.26397616 0.23981553
-0.17262374 0.0012858622 0.04328771 -0.030610766 0.299874 0.066881016 0.790185 0.16480604
0.23851681 0.28602785 0.081711926 0.061613668 -0.39188126 1.31996 -0.014557626 -0.67965615
-0.07750446 0.037754074 -0.090954855 -0.08210327 -0.17370528 -0.044701062 -0.027300656 -0.14191051
-0.08516362 0.17368774 -0.18544874 -0.16498409 -0.084247954 -0.08008885 -0.06281449 -0.08959481
00000000: a0fa 42bd 1068 adbb 2b4f 98bd ace5 56bd
00000010: 8cbb 52bd f90e 0abe 3040 24be 831f fabd
00000020: a3c9 94bd 59f2 88bd a840 3abe 92e9 39bd
00000030: e8a0 27be 21e5 d0bd 82b2 38bd 08a4 a9bd
00000040: 78c1 35be b98e 44bd 1a7b 3fbd a885 e4bc
00000050: d78b 80bd 8865 61bc 313f ddbd 64c4 19bd
00000060: 76d9 21be f59e b1bd 1136 eebd 6a4f 25be
00000070: 3a2c 98bd 86f8 3bbe 04c7 00be d5f3 10be
00000080: 7ee6 39be 6bc9 edbd f054 64bc c49f 14bd
00000090: 38c8 9cbc 051a 26bd 76e7 02bd de44 42be
000000a0: 90ac 05be 9c33 2ebd ee7f 36be 4dfd e3bd
000000b0: dc73 f7bd 60d9 cdbd c0d2 19be e4a4 613d
000000c0: 8a0f 803d e1f2 2ebe 3cd8 00be 7e15 cdbd
000000d0: 1042 36be 2103 fbbd 9c94 2abe f25e 2abd
000000e0: 6498 823c fba7 37be 58ec 99bc 66af 02be
000000f0: 3837 96bd 344c cebc 6c6f ccbc 7c2e 96bd
00000100: 4a87 40be f675 77bd 2cc2 06be 1234 5dbd
00000110: 72b7 61bd 185c 11be 8cea 46bd c9d3 06be
00000120: 5cae b2bc f865 3fbe 0c33 5cbd b032 23be
00000130: e895 513c 6237 10bd 943b b4bd e8de 65bc
00000140: b0c8 b0bd 70d6 32be 4199 e7bd 6268 a0bd
00000150: 0ffd 92bd 0269 fdbd e684 fdbd 6d60 a4bd
00000160: 50e7 0fbe a7d4 1cbe 8838 1fbc 623b 2dbe
00000170: 924f 37be 101d 0cbe 3d12 cabd 18c0 2d3d
00000180: 6dd0 12be 365f a4bd f0c8 efbc 703c a5bd
00000190: 41c5 9fbd 8052 0dbe 9137 e6bd 5e66 e4bd
000001a0: 6664 17be 10ec 55bd aab6 4cbd 457e a2bd
000001b0: 9ab6 4fbd 94d9 98bd 98ff 14bc be32 0dbe
000001c0: 820e 35bd 5c73 88bc c203 833d 561b 34be
000001d0: 1cbd fbbd 10f9 e9bc c5b6 9cbd 6c3e 20be
000001e0: a890 9e3e 4f77 53bf 8c1f 133d 1bc1 933e
000001f0: de79 a5bd 3472 dd3c 594b 99bd 80f0 22bc
00000200: 7fd4 603e b1f6 9fbf 2d80 a4bd 672d 953f
00000210: b30b a7be b7a3 f13e 8e7b 1d3f a089 bebb
00000220: 64ad 993d 0750 c2bd 7354 da3e 98d4 7ebf
00000230: 4cf5 a93d 1ec4 813f 2f6f 3abe 2676 f93e
00000240: 432f 32be 4619 75bc b898 52bd e4c1 c93c
00000250: 8410 6f3d 0034 5e38 67a3 e9bd c3f7 22bf
00000260: cbc1 f7bf 3451 3d3e d0fe 1bbf efbe c23f
00000270: 3f00 70be e544 76be a576 ff3c 95ef 6bbe
00000280: 90fc 2a3c e8a2 2abe 355d 93be 59dd a9bf
00000290: 9b51 d23d aba6 ffbe 075a f3be 47b8 e93e
000002a0: 193b be3e 87ec 37bf a726 ce3e f356 883f
000002b0: e15b 813f 7588 debf 8cc1 093f 0845 24c0
000002c0: d561 ba3d fcc3 8abf aa0f 993d b2d1 7cbd
000002d0: 60c6 633f 3227 bebe 2da3 f23f 29c6 bb3f
000002e0: e132 29bf b738 f8be 21f3 a13e 0dc6 643e
000002f0: 14cc 313d bb87 43bf bf40 773f b2c1 943c
00000300: b75b d8bf 4428 41bf 2096 373f 406e a6be
00000310: 7cc5 fd3d afe4 8ec0 8270 823e 70e5 f5bd
00000320: 5b4f 4d3f 6e6e 443d d861 a5be f3f8 ab3e
00000330: a27e 453e 241f 933f 54a9 fb3c 3fab 3b3e
00000340: d86d ccbe 409d b2bf 4104 0bc0 0d7f 61bf
00000350: a24a 843d 00d4 76b9 be72 a7bd 36e9 20bd
00000360: d214 e8bb 91a8 f3be 8b9f 40be 4a0a 99be
00000370: 70e0 153e 1846 c43f e227 87be 3492 753e
00000380: 47c4 30be 608a a83a 744e 313d 6ec3 fabc
00000390: 1689 993e eaf8 883d 9049 4a3f eac2 283e
000003a0: c03d 743e 3e72 923e 9558 a73d 9d5e 7c3d
000003b0: a9a4 c8be 73f4 a83f 1c83 6ebc f2fd 2dbf
000003c0: a9ba 9ebd 04a4 1a3d 8a46 babd c225 a8bd
000003d0: ccdf 31be 7618 37bd a0a5 dfbc fd50 11be
000003e0: 446a aebd 33db 313e 46e6 3dbe 97f1 28be
000003f0: 318a acbd 9f05 a4bd e2a4 80bd 7c7d b7bd

bias f4 [120]
-0.05046103 0.084392115 -0.115443885 -0.089339934 -0.11557688 -0.10743184 -0.027776938 0.3025137
-0.077817865 0.121876456 -0.013287234 0.1240427 0.27058026 -0.06310424 -0.14768909 -0.12837687
0.17918387 0.04908571 0.4348397 -0.17520681 -0.17991361 -0.027503438 0.15611796 -0.056022473
0.05852423 0.029444385 0.30850312 -0.041830298 0.1010136 -0.14681302 0.0073174313 -0.025815144
-0.057915792 0.17402229 -0.12237963 -0.18673313 -0.14791892 0.2125973 0.08091383 0.104934335
-0.022909045 -0.12490098 0.32723033 -0.04104165 0.3228405 0.41165867 0.1703826 -0.16479385
0.10885157 0.30591592 0.41779947 -0.049784064 -0.102382354 -0.08803275 -0.13549075 -0.13522063
-0.1890724 0.40277717 0.2582528 -0.15711933 -0.121169776 -0.0063692206 -0.07225722 -0.03414321
0.3037223 0.33624837 0.1819449 -0.010311149 -0.021264099 0.24958977 0.33725762 -0.070513375
-0.096461564 -0.030361086 0.110491455 -0.14596301 0.39877442 -0.034317 0.069122665 0.3073299
-0.09341188 0.2585564 -0.000560232 -0.181663 -0.1401352 0.06268633 -0.093996055 -0.1881434
-0.33887917 0.0367964 -0.19018438 -0.09844099 0.34159705 -0.028892465 -0.14686245 0.16981994
0.35839579 0.24712831 -0.008984432 -0.14567111 -0.10999271 0.34567636 0.22381398 0.2735024
-0.029423766 -0.14231652 -0.1663503 -0.0151329115 0.36331823 0.16626434 -0.03447707 0.06462836
-0.06796701 -0.124827445 -0.117660925 -0.17470792 0.1002087 -0.13097543 -0.07454077 0.061332338
00000000: 3ab0 4ebd c6d5 ac3d d86d ecbd dbf7 b6bd
00000010: 92b3 ecbd 3905 dcbd 768c e3bc 13e3 9a3e
00000020: f95e 9fbd 5d9a f93d b3b2 59bc 190a fe3d
00000030: 7f89 8a3e cc3c 81bd cf3b 17be 3a75 03be
00000040: fa7b 373e 190e 493d 4fa3 de3e 6a69 33be
00000050: 463b 38be e44e e1bc 63dd 1f3e d277 65bd
00000060: 1ab7 6f3d 5a35 f13c 1ff4 9d3e 3f56 2bbd
00000070: 38e0 ce3d 2756 16be 10c7 ef3b 487a d3bc
00000080: 1c39 6dbd e632 323e 2ca2 fabd f836 3fbe
00000090: 0f78 17be 1bb3 593e 26b6 a53d d0e7 d63d
000000a0: c0ab bbbc 16cc ffbd bc8a a73e 4a1b 28bd
000000b0: 5a4b a53e edc4 d23e c778 2e3e b8bf 28be
000000c0: 92ed de3d 03a1 9c3e d0e9 d53e 60ea 4bbd
000000d0: d7ad d1bd 844a b4bd 16be 0abe 4777 0abe
000000e0: 329c 41be cf38 ce3e b639 843e e4e3 20be
000000f0: dc27 f8bd e5b4 d0bb 98fb 93bd c0d9 0bbd
00000100: 7d81 9b3e bf28 ac3e c44f 3a3e 18f0 28bc
00000110: 0c32 aebc 7694 7f3e 08ad ac3e 5169 90bd
00000120: a48d c5bd d0b7 f8bc 5849 e23d 5477 15be
00000130: 292c cc3e fc8f 0cbd 2f90 8d3d 585a 9d3e
00000140: ba4e bfbd 8161 843e 88dc 12ba de05 3abe
00000150: 9a7f 0fbe b161 803d 0181 c0bd aaa8 40be
00000160: 9281 adbe d2b7 163d b2bf 42be 6e9b c9bd
00000170: cfe5 ae3e e4af ecbc 1c63 16be 47e5 2d3e
00000180: a77f b73e 340f 7d3e 7033 13bc cf2a 15be
00000190: dc43 e1bd 7efc b03e 7e2f 653e 8208 8c3e
000001a0: 1c0a f1bc 6cbb 11be bc57 2abe 08f0 77bc
000001b0: d904 ba3e 3341 2a3e d437 0dbd e05b 843d
000001c0: 4a32 8bbd 88a5 ffbd 36f8 f0bd a2e6 32be
000001d0: 383a cd3d 6c1e 06be d5a8 98bd 9e37 7b3d

weight f4 [120, 120]
-0.09783885 -0.48609176 -0.11709328 0.08708204 -0.14151116 -0.07255857 -0.25116044 -0.2987367
-0.06260088 -1.1353612 -3.053591 -0.4433479 -0.8597917 -0.1205771 -0.061936453 0.0071053063
-0.07355387 -0.37038487 -0.06963127 -0.049246177 -0.05391425 -0.18981287 -0.48394966 -0.038747124
-4.6687446 -0.9951387 0.6180994 -4.089889 -0.5597406 -0.15762523 0.057323534 -0.13793522
-0.14360562 -0.41156682 -0.7936465 0.14478254 -1.036271 0.2799146 -2.2171042 -0.9892247
-0.051807515 -0.04839228 -0.048745584 -0.17443089 -0.17712162 -0.24075639 -0.088535495 -0.07729246
-0.67343205 -0.553549 -0.053485505 -0.01595966 -0.6872255 -0.049049772 -0.049572885 -0.086050294
-0.059166584 0.61424536 0.048950773 -0.13987052 0.00037320703 -1.1812413 0.5503137 -0.07930166
0.30520108 -0.48529324 1.5177609 -0.15075622 -0.18709856 0.70091695 -1.1365918 -0.01022803
-0.72780967 -0.27814916 -1.307678 -0.037281618 -0.28480238 -0.10851933 -0.8645013 -0.6343268
0.9163408 0.7906065 -0.28674832 -0.15669721 0.12754866 -0.19051543 -0.09752738 0.06879062
0.06682816 0.5419793 -0.14889586 0.059026055 -0.56416386 0.13537169 -0.08446168 1.1680392
-0.1363097 -0.37785736 -0.15667589 -0.048188865 -3.390181 0.31593916 -0.32661018 -0.108371235
-0.027777538 -0.03869477 0.0137623465 -0.16289091 -0.36053184 -0.28763658 -0.18816108 -1.0379008
-0.039712183 -0.09720414 -0.27497348 -0.09357837 -0.3264762 -0.04266984 0.08743986 0.28355512
-0.021172427 -1.4018672 -0.077195354 -0.054266326 -0.14494374 -0.08987081 -0.23408116 -0.5855584
-0.14876506 -1.9424001 -0.59905195 0.014551868 -1.7052304 -0.014515996 -0.15869866 -0.30692294
-0.6628786 0.46537393 -0.3157408 -0.15484017 -0.09395258 -0.1024187 -2.7754385 -0.023624837
0.64063776 -1.2534783 2.5859013 -5.347693 -0.3129444 -0.14531526 -0.24898931 -0.03264668
-0.04697811 -0.7101407 -1.9961947 -0.1321238 -2.781064 -1.1561911 -7.021451 3.8237188
-0.123313636 -0.03798701 -0.41712308 -0.17288236 -0.5884004 -0.2214089 -0.5274477 -0.18202531
-3.215558 0.97270566 -0.47051924 -0.17484993 -0.17777632 -0.044203922 0.018714821 -0.058923908
0.014709657 0.23302685 -1.0762725 -0.17486583 0.024804251 3.3755255 -0.33301216 -0.14637871
-0.2672707 -0.1986263 0.06997626 -0.18496501 -0.112121664 -0.09613073 -0.08903261 -0.015419714
0.3767201 -0.17772304 -2.3571544 0.096462764 -0.4456334 -0.054170612 -4.7787433 -0.37419152
1.4109699 -0.49899676 -0.22334792 -0.034821123 -0.17669669 -4.132524 -0.079201944 0.04552605
0.04347876 -3.7519445 -0.13009295 -0.12204064 -0.2679608 -0.151746 -0.019357149 -1.3719006
-0.17090395 -0.31297556 -0.18465316 -0.10029211 -1.9951906 0.13906105 -1.9387088 -1.7775197
-0.11457815 -0.16273524 0.06638661 -0.12331 -0.2214972 -4.0356827 -0.10016943 -0.3803291
-0.05063414 -0.11593113 -0.1269123 -0.07629608 0.06983546 -0.09280867 -0.1160708 -2.0223532
0.06799728 -0.87386274 0.07180512 0.1264147 0.08579693 0.17653659 -0.105928086 -0.327287
-0.010779463 -0.57293814 -0.7294919 -2.035791 0.11039141 0.18348074 -0.16460475 -0.0831172
00000000: bc5f c8bd 05e1 f8be 9ace efbd 1258 b23d
00000010: 4de8 10be 9699 94bd 1a98 80be 04f4 98be
00000020: e434 80bd 8453 91bf 096e 43c0 7ffe e2be
00000030: 4f1b 5cbf 20f1 f6bd 14b1 7dbd a1d3 e83b
00000040: 69a3 96bd 16a3 bdbe d79a 8ebd 5cb6 49bd
00000050: 30d5 5cbd 4e5e 42be 40c8 f7be 4eb5 1ebd
00000060: 5b66 95c0 69c1 7ebf c33b 1e3f 5fe0 82c0
00000070: 294b 0fbf 8268 21be 15cc 6a3d e43e 0dbe
00000080: 5a0d 13be e3b8 d2be 6b2c 4bbf e041 143e
00000090: 87a4 84bf f750 8f3e 09e5 0dc0 d43d 7dbf
000000a0: 1e34 54bd fc36 46bd 73a9 47bd 039e 32be
000000b0: 5f5f 35be d888 76be 1952 b5bd 824b 9ebd
000000c0: 0b66 2cbf 63b5 0dbf 9e13 5bbd d5bd 82bc
000000d0: 03ee 2fbf 6ae8 48bd f00c 4bbd 233b b0bd
000000e0: a958 72bd 2f3f 1d3f 9b80 483d 383a 0fbe
000000f0: 00ab c339 ea32 97bf 5ce1 0c3f e968 a2bd
00000100: 5143 9c3e 5b78 f8be fd45 c23f d75f 1abe
00000110: c496 3fbe 4b6f 333f d77b 91bf 7893 27bc
00000120: bc51 3abf 9169 8ebe fe61 a7bf 9cb4 18bd
00000130: 9ed1 91be 623f debd f54f 5dbf 3e63 22bf
00000140: 5095 6a3f 3065 4a3f add0 92be 3c75 20be
00000150: 1e9c 023e 7a16 43be 6fbc c7bd 19e2 8c3d
00000160: 34dd 883d 28bf 0a3f 2878 18be 4ec5 713d
00000170: 0b6d 10bf e09e 0a3e 3ffa acbd 4f82 953f
00000180: c594 0bbe 8576 c1be a56f 20be b061 45bd
00000190: baf8 58c0 c7c2 a13e 7339 a7be bdf1 ddbd
000001a0: b88d e3bc 687e 1ebd 777b 613c e0cc 26be
000001b0: a197 b8be 1a45 93be 4cad 40be efd9 84bf
000001c0: 3ea9 22bd f712 c7bd 53c9 8cbe 04a6 bfbd
000001d0: e327 a7be 92c6 2ebd ab13 b33d 232e 913e
000001e0: cc71 adbc 6270 b3bf 9918 9ebd 5e46 5ebd
000001f0: 226c 14be 300e b8bd f9b2 6fbe 28e7 15bf
00000200: de55 18be 91a0 f8bf 785b 19bf f56a 6e3c
00000210: fd44 dabf 80d4 6dbc e781 22be 0125 9dbe
00000220: 69b2 29bf 7e45 ee3e c7a8 a1be 6c8e 1ebe
00000230: 366a c0bd e5c0 d1bd c9a0 31c0 e088 c1bc
00000240: d600 243f fa71 a0bf 687f 2540 4d20 abc0
00000250: 403a a0be 86cd 14be 0ef7 7ebe 86b8 05bd
00000260: 1e6c 40bd c8cb 35bf 4f83 ffbf 764b 07be
00000270: f4fc 31c0 12fe 93bf baaf e0c0 cfb7 7440
00000280: dc8b fcbd 4498 1bbd 2891 d5be 1308 31be
00000290: 69a1 16bf 04b9 62be d006 07bf d864 3abe
000002a0: b4cb 4dc0 3d03 793f e6e7 f0be dc0b 33be
000002b0: ff0a 36be 2c0f 35bd d34f 993c 325a 71bd
000002c0: c600 713c 979e 6e3e 4cc3 89bf 0710 33be
000002d0: 4932 cb3c 9c08 5840 9280 aabe 4de4 15be
000002e0: b5d7 88be b164 4bbe b74f 8f3d 7867 3dbe
000002f0: 0ba0 e5bd 30e0 c4bd bb56 b6bd f8a2 7cbc
00000300: 75e1 c03e 07fd 35be 9edb 16c0 458e c53d
00000310: 102a e4be 01e2 5dbd 77eb 98c0 0896 bfbe
00000320: a99a b43f 817c ffbe 51b5 64be 98a0 0ebd
00000330: faef 34be a33d 84c0 a134 a2bd 8679 3a3d
00000340: c916 323d dc1f 70c0 1637 05be 71f0 f9bd
00000350: 2832 89be 4e63 1bbe e292 9ebc 709a afbf
00000360: 7201 2fbe 553e a0be b815 3dbe f365 cdbd
00000370: 6862 ffbf 0566 0e3e 9c27 f8bf c485 e3bf
00000380: f3a7 eabd 11a4 26be b4f5 873d f489 fcbd
00000390: 29d0 62be 5024 81c0 a125 cdbd 7fba c2be
000003a0: be65 4fbd 4d6d edbd 4cf5 01be 1f41 9cbd
000003b0: e505 8f3d 7912 bebd 87b6 edbd 3c6e 01c0
000003c0: 2842 8b3d 78b5 5fbf 900e 933d db72 013e
000003d0: 4db6 af3d 02c6 343e d3f0 d8bd 2992 a7be
000003e0: 589c 30bc 13ac 12bf fbbf 3abf 664a 02c0
000003f0: e414 e23d 60e2 3b3e 268e 28be 5a39 aabd

bias f4 [120]
0.23535147 0.07782717 -0.026113717 -0.061391722 0.023923256 -0.016430521 -0.2484984 -0.20494755
0.087793246 0.21535373 -0.0864989 0.07983321 -0.27546754 -0.43681553 -0.33534506 0.058165006
-0.28345767 0.08442032 -0.093136795 -0.1573005 -0.009531076 -0.21592754 0.35118002 0.3889334
-0.30821416 -0.30173868 0.06374379 0.047871783 -0.006691326 -0.24771382 0.29180223 -0.010324103
0.040948518 0.11465743 -0.45415145 0.016605398 -0.45296362 -0.35599017 -0.1531917 -0.2044552
-0.37813562 0.13607854 -0.06552136 -0.13186319 -0.22596036 0.13108243 -0.2251975 -0.32582763
-0.1159172 0.12674464 -0.10290145 -0.40786034 0.24121313 0.131661 -0.26607934 -0.19078402
-0.18384671 0.2639455 -0.061067134 0.06536317 -0.19375567 -0.39746043 -0.20648676 -0.23146628
0.15800117 -0.16902503 -0.56169856 0.23676662 0.25101718 -0.33231023 0.055976927 0.18385877
-0.49478263 0.118266836 0.3285391 -0.27975836 0.15886545 0.062905446 0.0009243116 0.24075316
-0.013850977 0.08649235 0.07958516 -0.038068123 -0.010186145 -0.10797088 -0.078547224 -0.16558656
-0.31088576 0.064897254 0.14681216 -0.18142714 -0.033665087 -0.19563675 -0.37385586 -0.28504297
0.3095867 0.32082513 -0.23570187 -0.28242064 0.00012019447 -0.31202057 0.21841313 -0.02542923
0.07352845 0.27534875 -0.18711872 -0.03839388 0.11677685 -0.17401254 -0.09254042 -0.31360355
0.4130125 0.081970245 -0.33229038 -0.38847852 -0.13779211 -0.4777282 -0.67348534 0.2987245
00000000: faff 703e da63 9f3d 6fec d5bc e375 7bbd
00000010: b4fa c33c 4d99 86bc 5d76 7ebe c5dd 51be
00000020: f2cc b33d b085 5c3e 5626 b1bd 987f a33d
00000030: 150a 8dbe 49a6 dfbe 59b2 abbe 6e3e 6e3d
00000040: 5d21 91be 90e4 ac3d 81be bebd 6213 21be
00000050: 3b28 1cbc 1c1c 5dbe decd b33e 4722 c73e
00000060: 3fce 9dbe 7e7d 9abe 1b8c 823d 3415 443d
00000070: e942 dbbb b1a8 7dbe 1a67 953e 6d26 29bc
00000080: a2b9 273d 84d1 ea3d 8a86 e8be 0b08 883c
00000090: d9ea e7be 5844 b6be 49de 1cbe b45c 51be
000000a0: fe9a c1be 2c58 0b3e 1030 86bd 2507 07be
000000b0: 2762 67be 793a 063e 2c9a 66be e1d2 a6be
000000c0: ff65 edbd 59c9 013e ffbd d2bd 12d3 d0be
000000d0: 9300 773e 24d2 063e 8d3b 88be e35c 43be
000000e0: 5042 3cbe dd23 873e 8821 7abd 20dd 853d
000000f0: e367 46be ef7f cbbe 4471 53be 7f05 6dbe
00000100: 0fcb 213e e614 2dbe 7acb 0fbf f372 723e
00000110: 5385 803e 9124 aabe 1048 653d 7945 3c3e
00000120: 2654 fdbe e235 f23d 4736 a83e 7d3c 8fbe
00000130: a0ad 223e 92d4 803d 804d 723a ff87 763e
00000140: 35ef 62bc e722 b13d 8bfd a23d 52ed 1bbd
00000150: cae3 26bc d61f ddbd 5edd a0bd 868f 29be
00000160: 6b2c 9fbe dae8 843d ed55 163e 09c8 39be
00000170: 67e4 09bd 0055 48be 096a bfbe 27f1 91be
00000180: 2682 9e3e 3143 a43e d55b 71be 7099 90be
00000190: ea10 fc38 29c1 9fbe b1a7 5f3e f650 d0bc
000001a0: 1696 963d 83fa 8c3e 0d9c 3fbe e742 1dbd
000001b0: b328 ef3d 5830 32be d585 bdbd a590 a0be
000001c0: 6076 d33e 04e0 a73d f721 aabe a8e6 c6be
000001d0: 6019 0dbe ca98 f4be 8969 2cbf 6bf2 983e

weight f4 [14, 120]
-0.28632233 0.32459605 -0.044311233 0.4037077 -0.30845577 0.5827115 -0.052723076 0.47063112
0.11917153 0.062893 -0.42413658 -0.14164148 0.12823573 -0.08519415 -0.09505798 -0.14809363
-0.073829025 -0.6531779 -0.12423165 -0.0796053 -0.028060913 -0.1389098 0.013208163 0.6802908
-0.2947836 -0.51613766 0.41434202 -0.036594212 -0.512847 0.2574131 0.55415064 -0.039551735
-0.18788674 0.38719788 0.4045399 0.28779575 0.45291594 0.000313459 -0.48526984 0.11481008
-0.07097127 0.67889297 -0.25368404 0.004046997 0.3888554 -0.24985911 0.18681617 -0.15192448
0.5445783 0.2633157 0.07113751 -0.6254397 0.28951752 -0.56329006 0.19125973 0.55638903
0.37288693 -0.13304567 -0.5578714 -0.55914944 -0.2712355 -0.2604977 -0.5627544 -0.45782638
-0.38747203 -0.76693696 0.116183616 -0.42676046 0.37522012 0.070222765 -0.056897774 -0.07865366
-0.009770174 0.6936163 0.08408203 -0.008374433 -0.051644657 0.81186837 0.76529473 0.31705326
-0.12873073 0.5449202 -0.16691995 0.4518549 0.45305395 -0.024845658 -0.7439604 -0.36023417
0.41440392 -0.43105474 -0.14580289 -0.3673983 0.019463575 -0.35903934 -0.05404717 -0.17335461
-0.13714701 0.59640425 -0.35358253 0.25340357 0.1492079 -0.46470663 -0.048690163 0.0953253
0.46820146 0.05921497 -0.17207256 -0.22825506 0.4870282 0.03612407 0.19551815 -0.13663329
0.7365796 0.0010385149 0.2878696 -0.010649415 0.44652918 0.17549166 0.28031066 0.014779797
-0.99198496 0.8366871 -0.2892769 0.15249646 0.40209287 -0.32345822 -0.46232355 0.15535577
0.8319968 0.37438324 -0.007288484 -0.15572427 0.19951832 0.09068317 0.18451315 0.40597013
-0.4853632 -0.642958 0.23180169 -0.44608924 -0.16814122 0.16364773 -0.3520787 -0.21652937
-0.09129231 0.5150034 -0.31446564 0.5736091 0.83462435 0.09700498 0.8932747 -0.38527143
0.29420683 0.5694782 0.20974727 -0.16713102 0.44130686 -0.565669 0.028769447 0.028916303
0.07243021 -0.10703962 0.040810235 -0.01870501 -0.08134512 -0.39091676 -0.038195297 0.20270573
0.09701156 -0.0796595 -0.8382129 -0.094443075 0.26785612 0.35690355 0.3876145 0.2001937
-0.0508657 -1.4710056 0.24022184 0.5719919 -0.01174688 -0.6698226 -0.31111693 -0.08828826
-0.57747084 -0.0631625 0.08744091 -0.11452189 0.10149933 -0.15421546 -0.006115676 -0.5286893
-0.06417465 -0.54338074 0.26519173 -0.14941567 1.1790884 0.6304028 0.3200723 0.017667595
-0.11277708 0.21934731 0.8161953 -0.36082232 0.6029098 -0.29178855 0.10334617 -0.33725968
0.222613 -0.4709422 0.40988517 -0.63923454 -0.1818061 -0.76783675 0.254102 -0.4420798
-0.03707982 0.08696157 -0.124869205 0.12451456 0.63605493 -0.19135326 -0.668462 -0.20147249
-0.091088705 0.4260244 -0.17237341 0.11111889 -0.27806613 -0.010329519 0.21352246 -0.35778666
0.22397168 -0.04368571 0.23958759 0.55725753 -0.8260963 0.1098058 0.120230615 0.08501904
0.20086944 -0.16225353 0.22233228 -0.19605921 -0.10103048 0.22450987 0.05860391 -0.11893848
-0.55032474 0.74225235 -0.2794044 0.6433886 -0.20677486 0.061573572 0.010984603 0.15408468
00000000: d798 92be 7431 a63e b27f 35bd c7b2 ce3e
00000010: eaed 9dbe 952c 153f 27f4 57bd 90f6 f03e
00000020: 3410 f43d 0cce 803d 6e28 d9be 770a 11be
00000030: 3a50 033e 457a aebd c2ad c2bd dba5 17be
00000040: ac33 97bd ab36 27bf 2a6d febd 1b08 a3bd
00000050: 00e0 e5bc 5f3e 0ebe 0d67 583c 8a27 2e3f
00000060: e0ed 96be 9921 04bf a324 d43e d0e3 15bd
00000070: f149 03bf a6cb 833e d1dc 0d3f 0001 22bd
00000080: 6265 40be cd3e c63e db1f cf3e f759 933e
00000090: 99e4 e73e c157 a439 4a75 f8be 8c21 eb3d
000000a0: 6359 91bd eecb 2d3f e0e2 81be ac9c 843b
000000b0: 0e18 c73e 11db 7fbe bd4c 3f3e 1792 1bbe
000000c0: 7c69 0b3f 51d1 863e 8bb0 913d d11c 20bf
000000d0: a43b 943e c733 10bf 97d9 433e 836f 0e3f
000000e0: 09eb be3e 203d 08be a9d0 0ebf 6b24 0fbf
000000f0: 61df 8abe f45f 85be ac10 10bf 3868 eabe
00000100: bc62 c6be fb55 44bf adf1 ed3d 5980 dabe
00000110: da1c c03e f4d0 8f3d a40d 69bd 2c15 a1bd
00000120: 1413 20bc d690 313f 3333 ac3d eb34 09bc
00000130: 5989 53bd 9bd6 4f3f 5bea 433f ce54 a23e
00000140: fdd1 03be e47f 0b3f 10ed 2abe 8759 e73e
00000150: b0f6 e73e 1f89 cbbc 3074 3ebf 9d70 b8be
00000160: c02c d43e 35b3 dcbe 5a4d 15be a11b bcbe
00000170: 1372 9f3c 01d4 b7be 9160 5dbd df83 31be
00000180: 4470 0cbe f3ad 183f c508 b5be 1dbe 813e
00000190: f5c9 183e 07ee edbe 566f 47bd e939 c33d
000001a0: 1ab8 ef3e 658b 723d ca33 30be b2bb 69be
000001b0: c35b f93e d5f6 133d e935 483e 99e9 0bbe
000001c0: 7b90 3c3f c71e 883a a563 933e e27a 2ebc
000001d0: 799f e43e 16b4 333e e184 8f3e f626 723c
000001e0: baf2 7dbf 2031 563f 1a1c 94be 0828 1c3e
000001f0: 1edf cd3e 519c a5be acb5 ecbe 9515 1f3e
00000200: befd 543f 29af bf3e 3cd4 eebb 2f76 1fbe
00000210: 884e 4c3e 19b8 b93d 04f1 3c3e 51db cf3e
00000220: 8681 f8be e598 24bf 6c5d 6d3e cf65 e4be
00000230: 362d 2cbe 4593 273e a943 b4be e0b9 5dbe
00000240: 76f7 babd 43d7 033f a401 a1be 0cd8 123f
00000250: f1a9 553f 8caa c63d a7ad 643f 4c42 c5be
00000260: 47a2 963e 53c9 113f fdc7 563e 6524 2bbe
00000270: f9f2 e13e afcf 10bf e7ad eb3c e2e1 ec3c
00000280: 4a56 943d 9737 dbbd a228 273d 403b 99bc
00000290: 4598 a6bd 3e26 c8be ac72 1cbd 1792 4f3e
000002a0: ffad c63d 8524 a3bd 1f95 56bf 5f6b c1bd
000002b0: 7024 893e 10bc b63e 6875 c63e 94ff 4c3e
000002c0: 8d58 50bd e949 bcbf b7fc 753e 106e 123f
000002d0: fc75 40bc 7e79 2bbf b84a 9fbe 7ad0 b4bd
000002e0: 21d5 13bf 575b 81bd 3814 b33d 748a eabd
000002f0: e1de cf3d a8ea 1dbe 0266 c8bb 2f58 07bf
00000300: 006e 83bd 001b 0bbf 36c7 873e 6c00 19be
00000310: 5eec 963f 1462 213f 84e0 a33e a2bb 903c
00000320: abf7 e6bd 959c 603e 2df2 503f b4bd b8be
00000330: 4c58 1a3f 4f65 95be 28a7 d33d 4dad acbe
00000340: aaf4 633e 561f f1be 78dc d13e e0a4 23bf
00000350: 612b 3abe f390 44bf a819 823e 4958 e2be
00000360: 02e1 17bd e818 b23d 6dbb ffbd 7d01 ff3d
00000370: 7fd4 223f 1cf2 43be 5320 2bbf ce4e 4ebe
00000380: b78c babd df1f da3e a882 30be 4d92 e33d
00000390: af5e 8ebe 253d 29bc a2a5 5a3e d02f b7be
000003a0: d558 653e c9ef 32bd 7356 753e 6ea8 0e3f
000003b0: 0c7b 53bf dde1 e03d 783b f63d 761e ae3d
000003c0: b8b0 4d3e ca25 26be 13ab 633e bfc3 48be
000003d0: 11e9 cebd eae5 653e a70a 703d 0596 f3bd
000003e0: 15e2 0cbf 4004 3e3f 180e 8fbe 1eb5 243f
000003f0: cabc 53be 9234 7c3d c4f8 333c 60c8 1d3e

bias f4 [14]
0.06279303 -0.15238827 0.12490339 0.042088743 0.033311788 0.056908146 -0.080985256 0.026680075
-0.030135004 0.009685312 0.0680808 -0.0020392775 -0.028465547 0.07097456
00000000: a299 803d ac0b 1cbe 59cd ff3d 3f65 2c3d
00000010: f171 083d 8418 693d 99db a5bd 2c90 da3c
00000020: afdd f6bc 25af 1e3c f26d 8b3d 66a5 05bb
00000030: 9430 e9bc 1c5b 913d
