python/mod/modf1.pth (torch, 133647 bytes, 8 tensors)

weight f4 [120, 14]
00000000: 26fa c6bd 8062 5f3a bd57 223e 32fc 83be
00000010: e058 b3be b749 bebe 4452 bf3d 045c e3bd
00000020: 0674 ca3e 86e4 f03e e34a 253d d893 033f
00000030: 73c5 eb3d 2e58 60be 9f9c 4d3e 09b5 913e
00000040: 0008 fa3e 74c0 3dbf fd09 1abd 6bf0 963e
00000050: f238 6abf fa0e a23f ad1d 4bbf c9c4 6d3c
00000060: 53e9 e0be c210 a8be 41c7 de3d 0531 9abf
00000070: 8ccd 893c 342d 65bd 8583 d3be a579 5cbe
00000080: 2e97 35be 320a 81bd 2efd 303e ec93 473d
00000090: 2800 6dbd 55ba 87be 5e4c c1be d850 6dbc
000000a0: 4066 3abe d0cd ebbc 4abc 28be 41ff 03bf
000000b0: 8786 0cc0 87cb ca3e 1ab4 78be f6a1 3f3f
000000c0: ba8f 8b3e f72a a73e 7e24 bd3f 5c06 173f
000000d0: e5ac 42be f742 cabe 621e febe 3e7f f1bd
000000e0: 88c0 d0bc 62ca d73d 64ea acbe c0d7 21be
000000f0: 2b42 cb3d df67 3dbe 81b7 a83d 0ece 86be
00000100: e656 d33d 5c81 5abe bafc 06be c623 8abd
00000110: 5cf5 143e d4d4 1d3e 68ae 07bd 8869 b63c
00000120: 98e1 8dbc f3c7 c1bd 124e 2e3d 6227 1bbd
00000130: 5267 353e 5a04 1dbe 2a57 073d 26c5 5f3e
00000140: e2e7 19be 6262 9d3d 4834 e5bd 12c3 ac3d
00000150: 686c 99bc 58e1 6b3e b3f7 82be 2849 4dbe
00000160: d43c 30be ba9c 423d e0e1 15bc a092 13be
00000170: 4380 563e 9834 873e 8858 7a3d 6ca4 2dbe
00000180: b871 583c 0a64 19be 171e dabd 8064 c73e
00000190: 0062 073b 6fdf cc3d 982d 05be 009e deba
000001a0: 845d 62be 2274 4d3d 8207 103e 2c36 863e
000001b0: b8c9 62be 3e61 ec3d 5c4a 113d fce1 2f3e
000001c0: e24b edbd 29cf 7dbe a34b c7be 8773 babe
000001d0: 53ac a0be 7f7b c9bd 56b5 1e3f 2813 e6bd
000001e0: db5e 5cbf 4487 14bf 11dc 14c0 5856 453f
000001f0: 8a27 8c3f b8d4 9ebf 33ea 3d3c 5af7 cbbe
00000200: 3e60 babf fdcf d83e 97c0 c8be ac27 5e3f
00000210: 7ec0 f0be f81c ecbe 24ea acbe 3d18 18be
00000220: 87be babf 2275 9d3f 5ac0 e6be abbd 0340
00000230: 4299 e93e 161f 2dbe 2ce9 0c3f accf 36bf
00000240: cf81 723f 8622 4b3d 8fd1 183f 64e9 8ebe
00000250: 14fa 6f3e d742 623e b039 803e 14b4 14bd
00000260: e83b 5bbe c370 72bf f0d5 16bf fc15 813e
00000270: c6a0 60bd d3e7 b2bd cee9 313f 7caf d1be
00000280: d8f3 173f a1de 8d3f b0c6 4abe fa6e 14bf
00000290: 1c38 7bbf a76d 2c3f 4324 47bf e258 0e3f
000002a0: a769 edbe f1a0 4a3d 1449 31be 41f6 86bf
000002b0: 2c58 d4be 4f06 0abf 81a0 2d3e 38e6 143f
000002c0: 93de 703e 0e93 df3e 2830 e9be 4443 113f
000002d0: 0470 a7bf 80d5 d9bf 8307 f93e 079f c3be
000002e0: be7c 22be 4248 803e a67a 763e 4655 efbe
000002f0: d762 79bd 0bcb 923f 736f 9b3f cb0b 373b
00000300: d22a 1e3f b9e1 643f 896d 90bf 0136 8240
00000310: de80 f1bd b995 bdbe c094 bb3e 3e7d 2fbf
00000320: bb3a e23d 7209 06be da82 f73e 1232 1a3f
00000330: b39e 3d3f b460 f43d fd22 7d3f 8207 bd3d
00000340: 2f9e 853e 288a a6be 246d 05be e022 1a3e
00000350: 34ad 75bd c36c efbd f217 69bd 08f3 493c
00000360: fc5d a53d 000c 28ba 1429 8b3c cd4a a2bd
00000370: 6e4d 33be d773 883d 100e 8fbd fcae 0c3d
00000380: 004c fb3b 7c40 ed3e 5e4a 05be 0a7a 2fbd
00000390: 78f8 273e b3ed 81be 9017 5d3d 1293 543e
000003a0: 2cc6 ab3e 5c9e 6abd 149e bebc dbd8 b3bd
000003b0: 9849 e63c 8dc4 813e 2e72 3c3e 389d 7a3e
000003c0: 4080 8abb 9a97 5b3d c24a 833e 48b7 f8bd
000003d0: dc0f 9cbd 10ff 59be ace2 e23d 44d1 56be
000003e0: f488 593e 1741 553e 7e07 7dbe f884 4dbe
000003f0: 93b3 25be 3c95 d7bd 51f4 55be accb a9be
-0.09715681 0.00085214525 0.15853782 -0.25778347 -0.35028744 -0.37165615 0.09341863 -0.11101535
0.39541644 0.4704935 0.04035462 0.51397467 0.1151227 -0.21908638 0.20079277 0.2845843
0.4883423 -0.74121785 -0.03760718 0.294803 -0.9149314 1.266082 -0.79342157 0.014512249
-0.43928012 -0.32825285 0.108778484 -1.204621 0.016821645 -0.055951312 -0.4131128 -0.21530779
-0.17733452 -0.06300773 0.1728408 0.048725054 -0.057861477 -0.26509348 -0.37753576 -0.014484607
-0.18203068 -0.028784662 -0.16478077 -0.5156136 -2.195711 0.39608404 -0.24287453 0.7485651
0.27258092 0.32649967 1.4776762 0.5899408 -0.19011267 -0.39504215 -0.49632555 -0.11791848
-0.025482431 0.10536648 -0.33772576 -0.15804958 0.0992473 -0.18496655 0.082381256 -0.26329082
0.10319309 -0.21338409 -0.13182345 -0.067451045 0.14546722 0.15413219 -0.03312531 0.022267118
-0.017319486 -0.094619654 0.042554922 -0.037879355 0.17715195 -0.15333691 0.03304211 0.2185255
-0.15029863 0.07684781 -0.111916125 0.08435644 -0.01872845 0.2303518 -0.25579605 -0.20047438
-0.17210704 0.047512747 -0.009148091 -0.14411402 0.20947365 0.26407313 0.061119586 -0.16957253
0.013210706 -0.14979568 -0.106502704 0.38943863 0.0020657778 0.10003554 -0.13005674 -0.0016984344
-0.22105986 0.05015958 0.14065364 0.26213205 -0.22147262 0.11541985 0.035471305 0.1717605
-0.11586739 -0.24786057 -0.38924894 -0.36416265 -0.31381473 -0.09838008 0.61995447 -0.112341225
-0.8608224 -0.580189 -2.3259318 0.77084875 1.0949566 -1.2408667 0.011591482 -0.39837152
-1.4560621 0.42346182 -0.39209434 0.86779284 -0.4702186 -0.4611585 -0.33772385 -0.14852996
-1.4589394 1.2301371 -0.45068628 2.0584514 0.4562474 -0.1690639 0.5504329 -0.7141063
0.9472932 0.04959347 0.5969476 -0.27912438 0.23435241 0.2209581 0.25044012 -0.03630455
-0.21409571 -0.9470331 -0.5892019 0.25212085 -0.054840825 -0.08735623 0.6949738 -0.40954196
0.5935645 1.1083566 -0.19802356 -0.57981837 -0.9813249 0.67354816 -0.77789706 0.55604374
-0.4636967 0.049469892 -0.17313033 -1.0543901 -0.4147352 -0.53915876 0.16955759 0.58163786
0.23522405 0.4366688 -0.45544553 0.56743264 -1.308106 -1.701828 0.48638543 -0.38207266
-0.15867898 0.25055128 0.24070224 -0.46744746 -0.060885277 1.1468214 1.2143387 0.0027930613
0.6178409 0.89406925 -1.1283427 4.0690923 -0.117921576 -0.37028292 0.36636925 -0.6855048
0.11046358 -0.1308954 0.4834202 0.6023265 0.7407028 0.11932507 0.9888151 0.092299476
0.26097247 -0.3252728 -0.13029915 0.15052366 -0.059979632 -0.116906665 -0.0569076 0.01232601
0.08074567 -0.00064104795 0.016987361 -0.07924423 -0.17510006 0.0666272 -0.06985104 0.034346566
0.007668972 0.4633826 -0.1301665 -0.042840995 0.16403377 -0.25376663 0.05397755 0.20759228
0.3354963 -0.05727993 -0.023268737 -0.08781596 0.028111264 0.2534527 0.18402931 0.24474037
-0.0042267144 0.053611375 0.25642973 -0.12144333 -0.076202124 -0.21288705 0.110783905 -0.20978266
0.2124365 0.20825611 -0.2470989 -0.20070255 -0.16181783 -0.10526511 -0.2089398 -0.33163202

bias f4 [120]
00000000: fe86 82be eb2a d8be eaf9 81be 038a 9ebd
00000010: 370d bdbd 288b 64be a97d 96be b6e8 b7be
00000020: 6fe5 10bd ef09 1cbe 19f2 dbbd 54c4 20be
00000030: 6736 bebd 66d3 d839 8966 cd3c 98e7 55be
00000040: 8c9a 1dbe de2c 8bbe f4ff 853d 0fb2 39bd
00000050: 00ec 92be 580c 30be 6481 07be 7945 5fbe
00000060: 5fd7 a6bd 8c39 28be 638c 2abd 1739 83be
00000070: 28cc 6abe 2654 34be 03a8 9f3d 6adb ebbd
00000080: 8665 13be 7035 b6be 7722 973c 0b35 87be
00000090: 125a 23be 9930 efbd 865a 7cbe 0450 b2be
000000a0: 226a a8be 0564 133c 0754 96bd cdc2 35be
000000b0: 3a39 9a3d 5e9b 19ba c47d 3a3c 6f06 12bd
000000c0: a81e 75bd 329d 193e daa5 9bbb d0e9 14be
000000d0: 604c 29be 9e34 ce3d b0c3 c5bb 5a00 3fbe
000000e0: 4a39 35be eeea 4dbd d888 4cbe 16e1 a0be
000000f0: f8d6 1dbe 5408 d0bd 1bb9 9dbe 756f 7abe
00000100: dfd6 a2be 1b4d 56be 1782 e8bc a5ad 3abe
00000110: b916 82be b436 413c 92f9 d9bd afdc e0bd
00000120: 46fd 383e 2f4b 38be 8116 6a3d 63b5 0c3d
00000130: 63a3 9bbe b36d 663c 6309 f13d 0091 45be
00000140: d4ac a83a 3c65 66bd 3ee9 f33c c64b 5abe
00000150: dc18 923d 3452 eebd d6fe d1be 3524 85bd
00000160: a30d 4dbe 19f0 80be 883d e23c 9291 483d
00000170: 64df d8bd 54c3 89be 37d3 7ebe 800e 6cbe
00000180: 9875 e1bd 61e2 10bd 3145 debd 6258 c53c
00000190: 0dad 153e 8c87 61be 1ef6 8239 8e1a 0abe
000001a0: a98d cb3c 1655 4abe c7a4 16be 9033 4fbc
000001b0: b68b 463d 0e13 fbbd b22f ebbd 1772 3d3e
000001c0: 55fa 2f3c 9b7d d2bd 97c9 a1be 414a 81be
000001d0: e607 61be 43aa 73be 3945 3abe b717 04be
-0.25493616 -0.42220244 -0.25385982 -0.077411674 -0.09231036 -0.22318709 -0.29392746 -0.35919732
-0.035375055 -0.15238164 -0.10739536 -0.15699893 -0.0928772 0.00041356235 0.025073307 -0.20889127
-0.15390986 -0.27182668 0.0654296 -0.045335826 -0.2869568 -0.17192209 -0.13232952 -0.21803845
-0.081465475 -0.16428202 -0.04163779 -0.25629494 -0.22929442 -0.17610225 0.077957176 -0.11516459
-0.14394197 -0.35587645 0.018449051 -0.26407656 -0.15952328 -0.11679191 -0.24643907 -0.34826672
-0.32893473 0.0089960145 -0.07340246 -0.17750092 0.07530446 -0.00058596383 0.011382524 -0.035650667
-0.05984369 0.15001372 -0.0047499957 -0.14542317 -0.16533041 0.1006863 -0.0060352907 -0.18652478
-0.17697635 -0.050272875 -0.19974077 -0.31421727 -0.15414035 -0.101578385 -0.30805287 -0.2445658
-0.3180456 -0.20927851 -0.028382344 -0.18230303 -0.2540796 0.011792827 -0.10643305 -0.10979592
0.18065366 -0.1799743 0.057150368 0.03435267 -0.30398092 0.01406424 0.117693685 -0.19293594
0.001286889 -0.05624889 0.029774304 -0.21317968 0.07133648 -0.11636773 -0.41014737 -0.065010466
-0.20024733 -0.2518318 0.027617231 0.04896695 -0.105894834 -0.26906836 -0.2488526 -0.23052406
-0.11008757 -0.03537214 -0.10853041 0.024089996 0.14616795 -0.22024363 0.00024978904 -0.13486692
0.024847822 -0.1975902 -0.14711295 -0.012646571 0.048473082 -0.12259494 -0.114837065 0.18500553
0.010740836 -0.102778636 -0.31599113 -0.25251964 -0.2197567 -0.23795418 -0.18190469 -0.12899671

weight f4 [120, 120]
00000000: a0fa 42bd 1068 adbb 2b4f 98bd ace5 56bd
00000010: 8cbb 52bd f90e 0abe 3040 24be 831f fabd
00000020: a3c9 94bd 59f2 88bd a840 3abe 92e9 39bd
00000030: e8a0 27be 21e5 d0bd 82b2 38bd 08a4 a9bd
00000040: 78c1 35be b98e 44bd 1a7b 3fbd a885 e4bc
00000050: d78b 80bd 8865 61bc 313f ddbd 64c4 19bd
00000060: 76d9 21be f59e b1bd 1136 eebd 6a4f 25be
00000070: 3a2c 98bd 86f8 3bbe 04c7 00be d5f3 10be
00000080: 7ee6 39be 6bc9 edbd f054 64bc c49f 14bd
00000090: 38c8 9cbc 051a 26bd 76e7 02bd de44 42be
000000a0: 90ac 05be 9c33 2ebd ee7f 36be 4dfd e3bd
000000b0: dc73 f7bd 60d9 cdbd c0d2 19be e4a4 613d
000000c0: 8a0f 803d e1f2 2ebe 3cd8 00be 7e15 cdbd
000000d0: 1042 36be 2103 fbbd 9c94 2abe f25e 2abd
000000e0: 6498 823c fba7 37be 58ec 99bc 66af 02be
000000f0: 3837 96bd 344c cebc 6c6f ccbc 7c2e 96bd
00000100: 4a87 40be f675 77bd 2cc2 06be 1234 5dbd
00000110: 72b7 61bd 185c 11be 8cea 46bd c9d3 06be
00000120: 5cae b2bc f865 3fbe 0c33 5cbd b032 23be
00000130: e895 513c 6237 10bd 943b b4bd e8de 65bc
00000140: b0c8 b0bd 70d6 32be 4199 e7bd 6268 a0bd
00000150: 0ffd 92bd 0269 fdbd e684 fdbd 6d60 a4bd
00000160: 50e7 0fbe a7d4 1cbe 8838 1fbc 623b 2dbe
00000170: 924f 37be 101d 0cbe 3d12 cabd 18c0 2d3d
00000180: 6dd0 12be 365f a4bd f0c8 efbc 703c a5bd
00000190: 41c5 9fbd 8052 0dbe 9137 e6bd 5e66 e4bd
000001a0: 6664 17be 10ec 55bd aab6 4cbd 457e a2bd
000001b0: 9ab6 4fbd 94d9 98bd 98ff 14bc be32 0dbe
000001c0: 820e 35bd 5c73 88bc c203 833d 561b 34be
000001d0: 1cbd fbbd 10f9 e9bc c5b6 9cbd 6c3e 20be
000001e0: a890 9e3e 8a72 38bf 8c1f 133d 260c 903e
000001f0: de79 a5bd 3472 dd3c 594b 99bd 80f0 22bc
00000200: de55 aa3e b90f 9abf 7c44 a4bd 59ca 6b3f
00000210: e482 93be 01da e33e e29c 1d3f a089 bebb
00000220: 64ad 993d 0750 c2bd 36c7 d23e a9e8 6ebf
00000230: 4cf5 a93d d65c 8c3f 0381 21be 1546 dc3e
00000240: 17af 4bbe f9ad c33b 028c 01bd e4c1 c93c
00000250: 8410 6f3d 0034 5e38 bd87 6cbd 5a5d 19bf
00000260: 6193 00c0 70ea 623e 8bcb 0bbf 1919 cb3f
00000270: 3f00 70be a3a3 84be a576 ff3c 95ef 6bbe
00000280: 90fc 2a3c 14e5 e4bd 1e5e 72be 65cc c9bf
00000290: 433c c03d 524c 0cbf 511a c8be 25c0 fc3e
000002a0: c26e ca3e c784 3bbf 0a55 ed3e 4d62 843f
000002b0: 7be0 773f 95c0 cfbf 9bc7 0f3f 238f 2fc0
000002c0: 14c4 b13d bc3c 83bf aa0f 993d b2d1 7cbd
000002d0: 971f 5f3f 57e9 fbbd fe78 d93f 52f0 b73f
000002e0: fcb9 3abf 095b 9bbe c3ba a73e c848 513e
000002f0: 14cc 313d fa1b 4fbf 0fb3 533f 07b5 693e
00000300: 70ed d7bf 23c6 46bf cfb1 373f 0b59 89be
00000310: 7cc5 fd3d eb19 8ec0 9206 733e 70e5 f5bd
00000320: 3f51 483f cc30 ca3b fe05 94be f3f8 ab3e
00000330: dbb5 273e 73aa 8e3f 54a9 fb3c 43c4 243e
00000340: 24f8 fabe adf8 9cbf ccd3 09c0 966d 5ebf
00000350: 4e2c 983d 00d4 76b9 be72 a7bd 36e9 20bd
00000360: 5619 0e3e 1604 15bf 8b9f 40be 896a 98be
00000370: b4cb 003e 2fe2 a73f ed6c a4be f09f c43e
00000380: c576 30be 608a a83a 744e 313d 47bd acbd
00000390: b40f 8e3e eaf8 883d 122e 2c3f 75a6 373e
000003a0: 8324 7f3e b434 863e c7d9 f43d 9d5e 7c3d
000003b0: a9a4 c8be 1fd8 9e3f 1c83 6ebc 0a70 31bf
000003c0: a9ba 9ebd 04a4 1a3d 8a46 babd c225 a8bd
000003d0: ccdf 31be 7618 37bd a0a5 dfbc fd50 11be
000003e0: 446a aebd 33db 313e 46e6 3dbe 97f1 28be
000003f0: 318a acbd 9f05 a4bd e2a4 80bd 7c7d b7bd
-0.047602296 -0.005291946 -0.07436975 -0.052465126 -0.05144839 -0.13482274 -0.1604011 -0.12213042
-0.07265022 -0.06686849 -0.18188727 -0.045388766 -0.16369975 -0.10199953 -0.045092113 -0.082832396
-0.17749584 -0.047987673 -0.04674826 -0.027895764 -0.06276672 -0.013757117 -0.108030684 -0.03754081
-0.15805611 -0.08672897 -0.11631406 -0.16143575 -0.074303105 -0.18356523 -0.12575918 -0.14155515
-0.18154332 -0.11610683 -0.013936266 -0.036285177 -0.01913844 -0.040552158 -0.03195902 -0.18971583
-0.13054109 -0.042529687 -0.17822239 -0.11132298 -0.12082645 -0.100512266 -0.15021801 0.055088893
0.06252964 -0.17084838 -0.12582487 -0.10013865 -0.17798638 -0.12256456 -0.16658252 -0.041594453
0.015941806 -0.17935173 -0.018789455 -0.12762222 -0.07334751 -0.02518282 -0.024955474 -0.07333085
-0.18801609 -0.06041523 -0.13160008 -0.054004736 -0.055106588 -0.14195287 -0.048563525 -0.13166727
-0.021811657 -0.18691242 -0.05375962 -0.15937304 0.012792088 -0.035209067 -0.08800426 -0.014030196
-0.08632028 -0.17464614 -0.11308528 -0.078324094 -0.07177173 -0.12373544 -0.12378864 -0.08026204
-0.14053082 -0.15315495 -0.009718068 -0.16917184 -0.17901447 -0.13682961 -0.0986676 0.042419523
-0.1433732 -0.080259725 -0.02927062 -0.08068168 -0.07801295 -0.13801003 -0.11241067 -0.111523375
-0.14784393 -0.05222708 -0.04997889 -0.0793424 -0.05071125 -0.07463375 -0.009094141 -0.13788888
-0.04420329 -0.01665657 0.06397201 -0.17588553 -0.12291929 -0.028561145 -0.07652048 -0.15648812
0.3096974 -0.7204977 0.035918757 0.2813427 -0.08079885 0.027031995 -0.074850745 -0.009945035
0.33268636 -1.2036048 -0.08020875 0.92105633 -0.288108 0.4450226 0.6156751 -0.005814746
0.07503775 -0.0948792 0.4116761 -0.9332376 0.0829874 1.0965831 -0.1577187 0.43022218
-0.1989101 0.005971667 -0.031627662 0.024628587 0.05836536 5.2977353e-05 -0.057746638 -0.5990807
-2.0089953 0.22159743 -0.54607457 1.5867034 -0.23437594 -0.25906095 0.031184504 -0.23040612
0.010436192 -0.11176506 -0.23668715 -1.5765501 0.09386494 -0.54803956 -0.39082578 0.49365345
0.39537627 -0.7324948 0.46353942 1.0342499 0.96826905 -1.6230646 0.5616395 -2.7431114
0.08679977 -1.025291 0.07473691 -0.06172342 0.8715758 -0.123003654 1.6990049 1.4370215
-0.7294004 -0.30342892 0.32759675 0.2043792 0.043407515 -0.80902064 0.82695097 0.22822963
-1.6869335 -0.7764608 0.7175569 -0.26825747 0.12391183 -4.440664 0.23732975 -0.12006652
0.7824897 0.006170368 -0.28910822 0.3358837 0.16377966 1.1145767 0.03072039 0.16090493
-0.4901744 -1.226339 -2.153552 -0.86885965 0.074303254 -0.00023539364 -0.08176182 -0.039284907
0.13876852 -0.5820936 -0.18810861 -0.2976878 0.12577707 1.3115901 -0.32114354 0.38403273
-0.17232807 0.0012858622 0.04328771 -0.08434539 0.27746356 0.066881016 0.672578 0.17934592
0.24916272 0.26212084 0.119556 0.061613668 -0.39188126 1.2409705 -0.014557626 -0.69311583
-0.07750446 0.037754074 -0.090954855 -0.08210327 -0.17370528 -0.044701062 -0.027300656 -0.14191051
-0.08516362 0.17368774 -0.18544874 -0.16498409 -0.084247954 -0.08008885 -0.06281449 -0.08959481

bias f4 [120]
00000000: 3ab0 4ebd 155d 963d d86d ecbd dbf7 b6bd
00000010: 92b3 ecbd 3905 dcbd 768c e3bc 0288 a03e
00000020: f95e 9fbd 48dd f83d 6bb9 f1bb ea54 fe3d
00000030: 44af 8b3e cc3c 81bd cf3b 17be 3a75 03be
00000040: a295 403e b4c0 693d e21b e03e 6a69 33be
00000050: 463b 38be e44e e1bc 3425 253e d277 65bd
00000060: e115 793d 8962 1f3d 168e 9d3e de1a 4fbd
00000070: 17ff d33d 2756 16be 10c7 ef3b 487a d3bc
00000080: 1c39 6dbd 2583 2c3e a3ff efbd f836 3fbe
00000090: 9233 10be 5b0e 593e 8fd0 a73d cd16 c63d
000000a0: c0ab bbbc 16cc ffbd a928 a43e 4a1b 28bd
000000b0: bdc6 a83e 44f3 d43e af0c 373e b8bf 28be
000000c0: b954 ec3d 7411 9c3e bb33 d73e 60ea 4bbd
000000d0: 1aea e0bd 844a b4bd 16be 0abe 4777 0abe
000000e0: 329c 41be af5b cf3e c520 803e e4e3 20be
000000f0: dc27 f8bd 6038 3ebb f55d 86bd c0d9 0bbd
00000100: adac 9d3e 69e2 b83e 2b43 3d3e 18f0 28bc
00000110: 0c32 aebc b0c5 743e 0dec a93e 5169 90bd
00000120: d4ac aebd d0b7 f8bc 1105 df3d 5477 15be
00000130: 37c2 d33e fc8f 0cbd a75a 8e3d 145d a53e
00000140: 1277 b8bd 12e4 843e 88dc 12ba de05 3abe
00000150: 9a7f 0fbe 73cc 743d 0181 c0bd aaa8 40be
00000160: 9281 adbe 1af5 1e3d b2bf 42be 6e9b c9bd
00000170: 00b8 af3e e4af ecbc 1c63 16be bc4d 303e
00000180: 817f b73e 3b98 753e 7033 13bc cf2a 15be
00000190: 9a02 cfbd a42e b53e 27ea 5e3e 3cdf 8a3e
000001a0: 1c0a f1bc 6cbb 11be bc57 2abe 08f0 77bc
000001b0: d684 bf3e 5a87 273e d437 0dbd a2f0 9a3d
000001c0: 4a32 8bbd 88a5 ffbd 36f8 f0bd a2e6 32be
000001d0: 5366 d83d 6c1e 06be d5a8 98bd b5ed 8c3d
-0.05046103 0.07341973 -0.115443885 -0.089339934 -0.11557688 -0.10743184 -0.027776938 0.31353766
-0.077817865 0.12151581 -0.00737684 0.1241854 0.27282155 -0.06310424 -0.14768909 -0.12837687
0.1880708 0.05706854 0.43771273 -0.17520681 -0.17991361 -0.027503438 0.16127473 -0.056022473
0.06081188 0.03891233 0.30772465 -0.050562732 0.10351389 -0.14681302 0.0073174313 -0.025815144
-0.057915792 0.16846903 -0.11718681 -0.18673313 -0.14082173 0.21196882 0.08194076 0.09672318
-0.022909045 -0.12490098 0.3206227 -0.04104165 0.32964125 0.41591847 0.17875932 -0.16479385
0.11539597 0.30482066 0.42031655 -0.049784064 -0.10982151 -0.08803275 -0.13549075 -0.13522063
-0.1890724 0.40499637 0.25025 -0.15711933 -0.121169776 -0.0029025301 -0.0656089 -0.03414321
0.30795804 0.36110237 0.18482654 -0.010311149 -0.021264099 0.23903537 0.33187905 -0.070513375
-0.08529058 -0.030361086 0.10889638 -0.14596301 0.41359112 -0.034317 0.06950884 0.32297575
-0.09007086 0.25955254 -0.000560232 -0.181663 -0.1401352 0.05976529 -0.093996055 -0.1881434
-0.33887917 0.038807966 -0.19018438 -0.09844099 0.34320068 -0.028892465 -0.14686245 0.17217153
0.35839465 0.23983853 -0.008984432 -0.14567111 -0.10107918 0.35387146 0.2176901 0.2712344
-0.029423766 -0.14231652 -0.1663503 -0.0151329115 0.37406033 0.16360226 -0.03447707 0.07565428
-0.06796701 -0.124827445 -0.117660925 -0.17470792 0.10566392 -0.13097543 -0.07454077 0.068812765

weight f4 [120, 120]
00000000: bc5f c8bd ee03 0cbf 9ace efbd 1258 b23d
00000010: 4de8 10be 9699 94bd 1a98 80be b417 9cbe
00000020: e434 80bd 71a7 a9bf 41e1 35c0 0b3d d4be
00000030: b501 75bf 20f1 f6bd 14b1 7dbd a1d3 e83b
00000040: f875 d5bd 39f0 0cbf ac50 89bd 5cb6 49bd
00000050: 30d5 5cbd 4e5e 42be 14e3 cdbe 4eb5 1ebd
00000060: 0b79 96c0 d81e 67bf 3a76 1a3f 0643 89c0
00000070: 2ae3 14bf 8268 21be 15cc 6a3d e43e 0dbe
00000080: 5a0d 13be 37b8 b5be 6e71 4bbf e041 143e
00000090: ec68 84bf fee7 833e 2b78 0ac0 7e7b 55bf
000000a0: 1e34 54bd fc36 46bd 604a 09bd 039e 32be
000000b0: cdfa 49be 007b 78be 0bf4 eebd 824b 9ebd
000000c0: 27cc 3bbf a39e 20bf b03e e2bd d5bd 82bc
000000d0: f16d 22bf 6ae8 48bd f00c 4bbd 233b b0bd
000000e0: a958 72bd d292 2b3f 0f0e c9bc 383a 0fbe
000000f0: 00ab c339 3ee0 b2bf 0e1f 003f e968 a2bd
00000100: de62 a03e 926d f0be 855b c13f d75f 1abe
00000110: c496 3fbe 3fa2 153f 0bf7 96bf 7893 27bc
00000120: 1c31 08bf 9169 8ebe 1ea3 a1bf 9cb4 18bd
00000130: be57 98be 623f debd 5dfb 57bf a93d 26bf
00000140: b66b 6a3f 6b99 3a3f add0 92be 3c75 20be
00000150: 1e9c 023e aa93 bbbe 6fbc c7bd 19e2 8c3d
00000160: 34dd 883d b79c 093f 2878 18be 4ec5 713d
00000170: b625 11bf e09e 0a3e 3ffa acbd 4ecc 933f
00000180: 24de f3bd a6e4 c5be a56f 20be b061 45bd
00000190: 1694 54c0 73ff 963e c014 babe 4f49 e3bd
000001a0: b88d e3bc 687e 1ebd 777b 613c e0cc 26be
000001b0: 74fe babe 73e7 77be 4cad 40be 181c 87bf
000001c0: 3ea9 22bd f712 c7bd 53c9 8cbe 04a6 bfbd
000001d0: 4387 e7be 92c6 2ebd ab13 b33d f3b6 623e
000001e0: cc71 adbc feb8 b7bf 9918 9ebd 5e46 5ebd
000001f0: 226c 14be 300e b8bd f9b2 6fbe 062e 16bf
00000200: de55 18be 3e64 d9bf 778d 4cbf a5e5 513c
00000210: d5c4 e6bf 80d4 6dbc e781 22be 0125 9dbe
00000220: 0797 28bf 6926 0f3f 4245 a7be 6c8e 1ebe
00000230: 366a c0bd e5c0 d1bd fbdc 3cc0 e088 c1bc
00000240: 6f03 183f afa8 b2bf c813 1540 80d7 a2c0
00000250: 43fa 9fbe 86cd 14be 0ef7 7ebe 86b8 05bd
00000260: 1e6c 40bd f308 22bf 6abc 0ac0 764b 07be
00000270: 353f 32c0 bc8f 95bf 9e5c d8c0 31ce 6340
00000280: dc8b fcbd 4498 1bbd 27bd b0be 1308 31be
00000290: ae88 14bf d986 5abe b116 05bf d864 3abe
000002a0: 7b0b 5ec0 031c 713f 54e6 e7be dc0b 33be
000002b0: b7bc 1bbe 2c0f 35bd d34f 993c 325a 71bd
000002c0: c600 713c b744 543e 04fd 53bf 0710 33be
000002d0: 4932 cb3c 2820 4840 7089 8fbe 4de4 15be
000002e0: 07cc a9be 5261 50be 7b29 da3c 7867 3dbe
000002f0: 0ba0 e5bd 5912 74bd e3fa c7bd f8a2 7cbc
00000300: 86e8 9c3e 07fd 35be 7344 25c0 458e c53d
00000310: 4707 ebbe 01e2 5dbd 3e8f 94c0 9f95 c2be
00000320: 49bf b53f a422 22bf 51b5 64be 98a0 0ebd
00000330: faef 34be 8ae7 7ac0 a134 a2bd 8679 3a3d
00000340: c916 323d bfda 76c0 1637 05be 71f0 f9bd
00000350: 37d3 87be 4e63 1bbe e292 9ebc bbe5 aebf
00000360: ff92 75be 093f 9ebe b815 3dbe f365 cdbd
00000370: 548a 01c0 662b 133e 4fc5 01c0 3da9 d3bf
00000380: f3a7 eabd 11a4 26be b4f5 873d f489 fcbd
00000390: 206a 5abe f76e 7dc0 a125 cdbd dbbb c5be
000003a0: be65 4fbd 4d6d edbd 4cf5 01be 1f41 9cbd
000003b0: 5656 163e 7912 bebd 87b6 edbd 37b6 fbbf
000003c0: 2842 8b3d f939 81bf 900e 933d db72 013e
000003d0: 4db6 af3d 02c6 343e d3f0 d8bd 4318 abbe
000003e0: 589c 30bc 00b8 0fbf ca89 5dbf edb3 f8bf
000003f0: 525d dc3d 60e2 3b3e 268e 28be 5a39 aabd
-0.09783885 -0.54693496 -0.11709328 0.08708204 -0.14151116 -0.07255857 -0.25116044 -0.30486834
-0.06260088 -1.3254224 -2.8418734 -0.41452822 -0.9570573 -0.1205771 -0.061936453 0.0071053063
-0.104228914 -0.5505405 -0.0670484 -0.049246177 -0.05391425 -0.18981287 -0.4021231 -0.038747124
-4.7022758 -0.9028144 0.6033665 -4.2894316 -0.58159125 -0.15762523 0.057323534 -0.13793522
-0.14360562 -0.35492107 -0.79469955 0.14478254 -1.034452 0.25762933 -2.1635845 -0.8339156
-0.051807515 -0.04839228 -0.033518195 -0.17443089 -0.19724579 -0.24265671 -0.11667641 -0.07729246
-0.73358387 -0.6274206 -0.11047113 -0.01595966 -0.6344901 -0.049049772 -0.049572885 -0.086050294
-0.059166584 0.67020905 -0.024542836 -0.13987052 0.00037320703 -1.3974683 0.50047386 -0.07930166
0.3132543 -0.46958596 1.5106055 -0.15075622 -0.18709856 0.5845069 -1.1794142 -0.01022803
-0.53199935 -0.27814916 -1.2627904 -0.037281618 -0.29754442 -0.10851933 -0.84367925 -0.64937836
0.91570604 0.7289035 -0.28674832 -0.15669721 0.12754866 -0.36636096 -0.09752738 0.06879062
0.06682816 0.5375475 -0.14889586 0.059026055 -0.5669817 0.13537169 -0.08446168 1.1546724
-0.11907604 -0.38651007 -0.15667589 -0.048188865 -3.3215384 0.29491767 -0.36343956 -0.11097967
-0.027777538 -0.03869477 0.0137623465 -0.16289091 -0.36522257 -0.24209385 -0.18816108 -1.0555449
-0.039712183 -0.09720414 -0.27497348 -0.09357837 -0.45220384 -0.04266984 0.08743986 0.22140102
-0.021172427 -1.435333 -0.077195354 -0.054266326 -0.14494374 -0.08987081 -0.23408116 -0.58663976
-0.14876506 -1.6983716 -0.7990336 0.012811099 -1.8028818 -0.014515996 -0.15869866 -0.30692294
-0.6585545 0.55917984 -0.32670027 -0.15484017 -0.09395258 -0.1024187 -2.9509876 -0.023624837
0.5938024 -1.3957728 2.3293324 -5.088806 -0.31245622 -0.14531526 -0.24898931 -0.03264668
-0.04697811 -0.63294905 -2.16775 -0.1321238 -2.7851079 -1.1684489 -6.761306 3.55946
-0.123313636 -0.03798701 -0.34519312 -0.17288236 -0.58021057 -0.21340503 -0.5198775 -0.18202531
-3.4694507 0.9418337 -0.45292914 -0.17484993 -0.15208708 -0.044203922 0.018714821 -0.058923908
0.014709657 0.20729338 -0.82807946 -0.17486583 0.024804251 3.1269627 -0.28034544 -0.14637871
-0.33163473 -0.20349625 0.026631108 -0.18496501 -0.112121664 -0.05958781 -0.0976465 -0.015419714
0.3064615 -0.17772304 -2.5823028 0.096462764 -0.4590399 -0.054170612 -4.6424856 -0.38004777
1.4199001 -0.6333411 -0.22334792 -0.034821123 -0.17669669 -3.920382 -0.079201944 0.04552605
0.04347876 -3.8571012 -0.13009295 -0.12204064 -0.26528332 -0.151746 -0.019357149 -1.3663858
-0.23981856 -0.30907467 -0.18465316 -0.10029211 -2.0240679 0.14372024 -2.0276678 -1.6536022
-0.11457815 -0.16273524 0.06638661 -0.12331 -0.21329546 -3.9598978 -0.10016943 -0.38619885
-0.05063414 -0.11593113 -0.1269123 -0.07629608 0.14681372 -0.09280867 -0.1160708 -1.9664983
0.06799728 -1.0095817 0.07180512 0.1264147 0.08579693 0.17653659 -0.105928086 -0.33416948
-0.010779463 -0.56140137 -0.86538374 -1.9429909 0.10759987 0.18348074 -0.16460475 -0.0831172

bias f4 [120]
00000000: bbc7 783e 56dc 783d a7b3 0dbd f1ec 68bd
00000010: 7d13 933c 261c dbbc 44d7 83be 1609 51be
00000020: ff1c b43d 0323 563e 7401 ddbd 8164 a23d
00000030: 2436 88be 0e95 eabe 25e4 b1be 6767 693d
00000040: 2710 99be 7721 c73d 0e16 b2bd 0a02 23be
00000050: a79f 42bc aeeb 5ebe 80bf a83e ad82 c33e
00000060: 30a6 a3be 2243 9ebe 6c67 8e3d 68c1 293d
00000070: ceac 16bd 0a25 86be e493 943e b7d4 dbbc
00000080: 872e 2e3d 9e1f e83d a8f7 e8be 05a4 1f3d
00000090: 0357 ddbe e68b b8be 736b 34be c3cf 5dbe
000000a0: 9b94 c1be 8b8b ff3d 007a 92bd 8694 0abe
000000b0: a3f3 5bbe 623d e03d 7085 66be 19ad adbe
000000c0: 76ae eabd 7edd f03d b1d3 9ebd 3450 cfbe
000000d0: d389 803e ed56 023e 351a 82be 6047 48be
000000e0: aff8 41be f57f 843e 4740 70bd d4d4 243d
000000f0: ecd7 39be d0f9 c6be 1fb5 56be a0d6 66be
00000100: f0b9 2b3e 3dbf 31be a6a8 0fbf bb5c 6e3e
00000110: a89a 793e ad28 94be cdfe 4c3d cc47 333e
00000120: 0d89 f9be 8c8f e13d bd29 a13e 315b 8fbe
00000130: e49d 1b3e 9280 663d eda5 9d3b a555 643e
00000140: 7ec7 43bc 55cd 9a3d 6ff1 8b3d 8520 53bc
00000150: 766d 1cbc 5ca8 e7bd 9754 c2bd 2c4a 2dbe
00000160: f751 9dbe 5d04 8f3d 11e4 1c3e 4b7d 2cbe
00000170: 7a33 12bd 578e 48be 0f34 c2be 06c1 95be
00000180: 6165 993e b097 a33e 2bdc 6cbe 700a 8dbe
00000190: 7687 4dba 3ffb 98be 068a 393e 7f39 f8bc
000001a0: 6b0e 893d df54 913e 646a 4dbe ed47 4cbd
000001b0: e133 d73d 291d 36be a738 adbd e635 a5be
000001c0: 8ab3 cb3e 9e67 843d 564c aebe bf67 c8be
000001d0: eddf 09be a6e2 fdbe 1c49 2dbf 33ad 843e
0.24294941 0.060757004 -0.034595158 -0.05686659 0.017953629 -0.02674682 -0.25750172 -0.20413622
0.08794593 0.20911793 -0.10791293 0.07929326 -0.26603806 -0.45816845 -0.34744373 0.056983378
-0.29895136 0.0972318 -0.08695613 -0.15918747 -0.011878884 -0.21769592 0.32958603 0.38185635
-0.31962729 -0.30910593 0.0695332 0.041444212 -0.036785893 -0.26200134 0.29019082 -0.026834829
0.04252484 0.113341555 -0.45501447 0.03897478 -0.43230447 -0.36044234 -0.17619114 -0.21661286
-0.3780869 0.124777876 -0.07152176 -0.1353322 -0.21479659 0.10949208 -0.2251184 -0.33921126
-0.11459057 0.11760996 -0.07755221 -0.40490878 0.25105152 0.12728472 -0.2541062 -0.19558477
-0.18942522 0.25878873 -0.05865505 0.04024203 -0.18148774 -0.38862467 -0.2096753 -0.2254281
0.16770148 -0.17358108 -0.5611671 0.23277561 0.24375403 -0.28937283 0.050047684 0.17507857
-0.48737374 0.110137075 0.31477156 -0.2799926 0.15196949 0.056274958 0.0048110397 0.22298296
-0.011949418 0.07558695 0.06833159 -0.012886171 -0.009547582 -0.11311409 -0.094887905 -0.16922826
-0.30726597 0.06983254 0.15321375 -0.1684467 -0.035693623 -0.19585548 -0.37930343 -0.29248828
0.29960158 0.31951666 -0.23130862 -0.27547026 -0.00078403146 -0.29879186 0.18119058 -0.030300854
0.06692203 0.28385064 -0.20060116 -0.04987328 0.10507942 -0.17784561 -0.08458071 -0.32267684
0.39785415 0.06465076 -0.34042615 -0.39141652 -0.13464327 -0.49586982 -0.6768968 0.2591339

weight f4 [14, 120]
00000000: 7f1e a0be d330 a73e 2f88 8fbd 1478 d03e
00000010: 9520 95be 1e7d 183f 8b3f 78bd cbd8 ef3e
00000020: 9070 a23d 1444 b13d 604d dbbe 986f e5bd
00000030: 1bc2 143e dc10 adbd 8cd9 bfbd cca3 02be
00000040: 8e88 99bd 3bae 28bf 14fd 17be df59 abbd
00000050: 2d82 58bd 7a19 20be e3ca c2bc 9fce 2a3f
00000060: d1bd 87be 842c 00bf 6f0c c23e 8491 cc3c
00000070: 45d5 04bf 1fc7 7e3e e912 103f 5028 60bc
00000080: e48a 53be 290c d43e be39 d13e e7b0 9a3e
00000090: feeb e83e 3281 e93b 5921 f1be e20e e63d
000000a0: 43e1 82bd 4b99 253f 86c2 83be f69c 7e3a
000000b0: 1105 c33e ee60 85be 8292 3b3e 8b65 1bbe
000000c0: 36e8 083f 481e 853e 7655 893b a589 1abf
000000d0: 0311 a83e c6bb 0dbf ce4b 483e 8af0 0a3f
000000e0: e9ae ae3e 6932 e5bd 9975 11bf 26b5 0ebf
000000f0: 6c9c 9cbe d132 88be 77de 0cbf c863 e9be
00000100: 95ec e7be b05e 4bbf ec8a eb3d ef87 b1be
00000110: c2ae ac3e c3c6 7f3d bab3 a1bd c951 42bc
00000120: 5a67 eabb 8ba4 303f 0f43 153e 201e 1dbd
00000130: 17d3 92bc 7766 503f 0eb7 3f3f a2ff b93e
00000140: 44c8 02be 9ddc 093f af01 debd b262 d83e
00000150: 98cd 003f 5072 29bd 663c 3dbf 78ce bfbe
00000160: 1dec d43e 9c7a 02bf b0f7 16be f8c9 b2be
00000170: 878b 903c 67d8 c5be 3e89 4bbd 0ef8 1fbe
00000180: a1a2 73bd 20bc 173f 3455 9cbe 39f7 8c3e
00000190: 7b65 423e b77e 00bf 2094 96bd 86d2 c33d
000001a0: f37e ea3e 4c85 b23d 1a1a 01be 9ba3 5ebe
000001b0: 7380 073f 118e 8e3d f888 2a3e f85b 03be
000001c0: e8a9 463f 3853 cc3c 8b99 913e 77f2 9b3c
000001d0: 471d fa3e cbcd 2c3e 1e51 893e 7a6d 0a3d
000001e0: 7422 65bf ec85 533f d2a8 9bbe c812 183e
000001f0: d844 d33e 2533 afbe db86 e9be 8d58 273e
00000200: ae16 633f ebf0 c73e ecc6 d0bc 6f08 85bd
00000210: 46b3 393e fffd a43d 7210 383e 5b32 ba3e
00000220: dcae fdbe 84a6 17bf bbca 5a3e 21b0 f1be
00000230: 483b 36be 8476 233e b090 9ebe ee9c 87be
00000240: e856 cabd fc68 033f dd22 95be 6dcb fd3e
00000250: efee 503f 7921 a93d 5279 593f 6180 b0be
00000260: b69a 903e 572b 143f 060a 513e b0f1 40be
00000270: da5f e83e acd6 09bf 3adb 593d 8aa8 303c
00000280: 3a9f 993d 02ed 0fbe b3c6 303d 4817 c6bc
00000290: 8ffc 89bd b7bb a3be b393 16bd 1be3 4c3e
000002a0: a5d3 043e d846 ecbd dc7d 51bf 680f c6bd
000002b0: 6301 613e 57f1 bb3e 23a3 b93e 7f8f 213e
000002c0: 346f 8abd d1b3 b6bf ba9d 2f3e 903d 043f
000002d0: 533d a7bc fb11 29bf 5530 98be c0ad 14be
000002e0: e3ba 09bf bd9b bfbd a742 a53d 4469 f9bd
000002f0: af1d 363d 287a 2dbe 8fc2 38bd d04d 00bf
00000300: 47cd 33bd ea64 0bbf a79b a33e 4cad 20be
00000310: 1bac 953f bd30 243f edee 8b3e f0b0 c73c
00000320: 1e47 e6bd 8e6f 073e 8805 503f f728 b9be
00000330: 58c6 1d3f 61f6 9ebe e309 ae3d 0a1d afbe
00000340: 0c4d 423e 1a3c d3be c969 bf3e 6f1c 1dbf
00000350: b961 40be 14fe 48bf 807d 723e e1dc d7be
00000360: b5e7 16bd 6ee4 f93c b80d 7ebd 7903 d43d
00000370: 7934 413f 8182 36be f8c9 10bf 725f 50be
00000380: cb1f 1ebe 6a49 b33e ba27 d2bd 1954 ce3d
00000390: fe3a 8bbe d28a dcbc 5957 423e 4e58 bdbe
000003a0: b5fe 8a3e ae2b 193c 55d7 683e 9bfb 0f3f
000003b0: a60c 5ebf ab60 dc3d 32b5 e43d 267a ee3d
000003c0: 6dc0 9c3e 6259 41be ce93 573e eadb 4abe
000003d0: 60a6 32bd a5b4 583e a087 163d 58b6 e8bd
000003e0: b21e 0abf cb15 373f 5e46 90be 781f 1b3f
000003f0: 2425 5cbe f600 6e3d 7c84 813c c073 2b3e
-0.31273267 0.32654437 -0.07008397 0.40716612 -0.2912642 0.59565914 -0.060607474 0.46845087
0.07931626 0.08655563 -0.4283247 -0.112029254 0.1452717 -0.08450481 -0.09367666 -0.12757796
-0.07496749 -0.65890855 -0.14842635 -0.08366751 -0.05285852 -0.15634719 -0.023778385 0.6672153
-0.26512006 -0.50067925 0.3790011 0.024971731 -0.51887923 0.24880646 0.56278855 -0.013681486
-0.20658451 0.41415527 0.40864366 0.3021309 0.45492548 0.007125997 -0.47095755 0.112333074
-0.063906215 0.6468703 -0.25734347 0.000971272 0.38089803 -0.26050514 0.18317607 -0.15175454
0.53479326 0.25999665 0.004191096 -0.6036628 0.3282548 -0.55364645 0.19560167 0.54273283
0.3411782 -0.111912556 -0.56820065 -0.5574516 -0.3058809 -0.2660127 -0.55026954 -0.4558394
-0.45297685 -0.79441357 0.115011066 -0.34674022 0.3372708 0.062445413 -0.07895608 -0.011860319
-0.0071534337 0.6900107 0.14576362 -0.038358808 -0.017922921 0.8140635 0.74888694 0.36327845
-0.12771708 0.53852254 -0.10840165 0.422628 0.5031371 -0.041368783 -0.73920286 -0.3746221
0.4158639 -0.5096834 -0.14742923 -0.34919715 0.017644657 -0.38641664 -0.04969143 -0.15621969
-0.059481267 0.5927143 -0.30533755 0.27532366 0.18984024 -0.5019335 -0.07352471 0.095616385
0.4579998 0.087168306 -0.12607613 -0.21742098 0.5293037 0.06960691 0.16653812 -0.12828052
0.77603006 0.024942026 0.28437456 0.019036515 0.48850462 0.16875379 0.268197 0.03379581
-0.89505696 0.82626224 -0.30402237 0.14850914 0.4126346 -0.34218708 -0.456107 0.16342373
0.8870648 0.39050993 -0.025485478 -0.06495749 0.18134794 0.080562584 0.17975023 0.36366543
-0.4954747 -0.5923846 0.21366398 -0.47204688 -0.17796052 0.15963179 -0.30969763 -0.26486915
-0.09879857 0.5133207 -0.2912816 0.49569264 0.81614584 0.082583375 0.84950745 -0.34472945
0.28243035 0.5787863 0.2041398 -0.18842196 0.4538563 -0.5384319 0.053187586 0.01078237
0.07501073 -0.14055255 0.043158244 -0.024181023 -0.06737625 -0.31979153 -0.03676195 0.20008509
0.12971361 -0.1153695 -0.8183267 -0.09670907 0.21973185 0.36707565 0.36257276 0.15777396
-0.067594916 -1.4273626 0.17150012 0.51656437 -0.020414984 -0.6604306 -0.29724374 -0.14519405
-0.5380079 -0.093558766 0.080693536 -0.12178281 0.044461902 -0.1694113 -0.04510742 -0.5011873
-0.04389694 -0.5445086 0.3195469 -0.15691108 1.1693147 0.6413687 0.27330723 0.024376363
-0.11244033 0.13226148 0.8125844 -0.36164066 0.61630774 -0.31047347 0.084979795 -0.34201843
0.18974704 -0.4125679 0.37385395 -0.6137151 -0.18787278 -0.7851269 0.23680687 -0.42160705
-0.036842067 0.030504432 -0.062024802 0.10352225 0.7547069 -0.17823221 -0.5655818 -0.2034891
-0.15441816 0.35016948 -0.102614835 0.10074634 -0.27193445 -0.026921663 0.18978633 -0.36981434
0.2714745 0.009348793 0.22738393 0.56243294 -0.8673805 0.107606255 0.11167373 0.11644392
0.3061556 -0.18881753 0.21052477 -0.19810453 -0.0436157 0.2116266 0.036750436 -0.11362904
-0.5395309 0.7151763 -0.28178686 0.6059489 -0.21498543 0.058106385 0.015810244 0.16743374

bias f4 [14]
00000000: 8883 823d c45b 15be d408 003e 6ef0 2a3d
00000010: d712 093d 18e5 5b3d d277 9fbd 5686 d13c
00000020: 2f89 00bd 5eab 473c 9d04 883d f234 84b9
00000030: cc7c e8bc 8f66 8c3d
0.06372744 -0.14585787 0.12503368 0.041733198 0.033465233 0.053685278 -0.07786526 0.025576752
-0.03138083 0.012186853 0.06641505 -0.0002521645 -0.02837982 0.06855499
