python/mod/re/2/modqig_seg2st1ss2ok.pth (torch, 133711 bytes, 8 tensors)

weight f4 [120, 14]
000000 ad 31 e1 be e2 b8 72 be 24 21 b0 3d de 27 77 3e
       -0.43983212 -0.2370334 0.08600071 0.24136302
000010 72 36 8a 3e 1b 64 eb bd d7 c3 1c 3f 5f f9 96 3d
       0.26994663 -0.11493703 0.6123633 0.073717825
000020 7b c6 cb be 9a 9c be 3d 33 75 d6 3e 16 45 17 bf
       -0.39799866 0.09307213 0.4188629 -0.5908979
000030 9d d0 22 bf 89 46 35 3f 78 d0 dc be 48 c2 fc 3e
       -0.6359957 0.70810753 -0.431278 0.49366975
000040 ac dd 6f 3e a9 30 a8 bb 5b 7d 64 bf 56 6e 20 3e
       0.23424405 -0.005132754 -0.8925378 0.1566709
000050 8b 41 9e 3a 58 ae 8a 3e b9 3b a1 3e dc 14 8d 3f
       0.0012073977 0.2708614 0.31490877 1.1021991
000060 67 8f b2 3f e6 d8 02 3f 5b 48 29 3f 04 77 24 be
       1.3950013 0.5111221 0.6612603 -0.16061026
000070 a3 48 91 3d e0 1e e1 3d 45 be aa 3f 42 a4 31 bf
       0.070939325 0.10992217 1.3339316 -0.6939126
000080 df 79 f6 3d 5b 05 bb 3c c0 08 04 3f d1 9e 13 3e
       0.12034964 0.022829702 0.5157585 0.14416052
000090 ca 87 de 3e 8b d7 22 be 92 78 4d bf 57 57 99 be
       0.43462974 -0.15902536 -0.802621 -0.29949448
0000a0 01 5a be 3e 16 b2 f7 3d 04 8b 04 bd ff 71 24 3e
       0.37178043 0.12094514 -0.032359138 0.16059111
0000b0 6e 22 2d 3e 72 be 97 3f 5b 6f ad 3e 09 75 2b bf
       0.16907665 1.1854994 0.3387402 -0.66975456
0000c0 12 03 aa 3e 55 2a 74 bd 5b 91 0d 3e 64 83 ae 3e
       0.33205467 -0.059610683 0.1382498 0.34084618
0000d0 5b 76 3b bf 1d d7 8d 3d b3 af 66 bf b2 03 e3 3d
       -0.7322747 0.06925795 -0.90111846 0.11084689
0000e0 22 e0 86 3d bb 07 9e be bd bc 27 3f 24 04 df 3e
       0.06585719 -0.30865273 0.65522367 0.43557847
0000f0 c4 ea 12 3c f1 aa cf 3c 87 4f b5 be 9e 43 98 be
       0.008967105 0.025350066 -0.35412237 -0.29739088
000100 8f bc b2 3e a4 8f c9 3d c5 0f d1 bc a4 b6 14 3b
       0.34909484 0.098418504 -0.025520215 0.002269187
000110 0f 55 3f 3f 63 59 e0 3e f2 cc dc 3e 71 c3 89 be
       0.74739164 0.43818197 0.4312511 -0.26906922
000120 3f e8 86 be 40 d7 19 3f 0a 86 89 3e 3c d8 cc 3e
       -0.26349065 0.6009407 0.26860076 0.40008724
000130 9c da 36 bf 6d 5c 14 3e 74 0b 86 3d 4a a8 6f bf
       -0.7142732 0.14488383 0.06545153 -0.93616164
000140 27 f5 73 bf 9e 01 09 bf 5d c1 80 be 7d 19 72 3e
       -0.9529595 -0.5351809 -0.25147524 0.23642536
000150 24 b3 49 3e 30 e7 01 3e ad c6 84 bf 2a d9 ad 3d
       0.19697243 0.12685847 -1.0373131 0.084886864
000160 25 47 8c 3d b9 40 8c be a0 4d 12 3d c6 17 5a be
       0.06849507 -0.2739313 0.03571856 -0.21298131
000170 3f 17 0e 3e 7b 33 47 bf c1 c5 ea 3f f9 a0 f9 bc
       0.13876055 -0.7781293 1.83416 -0.030472266
000180 2e 5a be 3d 98 a2 6a 3f ec cc ed 3d de 2d 10 3f
       0.09294544 0.9165435 0.11611351 0.5631999
000190 80 98 87 3e e3 99 80 be 32 4d 3a bf 7c 78 d2 be
       0.26483536 -0.25117406 -0.7277404 -0.41107547
0001a0 7d 6e 0e 3f e7 5b 97 be d4 e2 0a 3e cc 32 d6 be
       0.5563734 -0.29562303 0.1356309 -0.4183563
0001b0 1f 01 51 bd 34 5e cc be 7f 9f 39 3f 6b 4d 51 bf
       -0.05102646 -0.3991562 0.72508997 -0.81758755
0001c0 29 35 bb 3e 9e 26 f4 be 33 68 68 3e 82 b7 b3 3d
       0.36563995 -0.47685713 0.22695999 0.08775236
0001d0 72 04 af be e0 ee 18 3e e2 5f 0c bd 49 1b 81 3e
       -0.3418308 0.14934874 -0.03427113 0.2521613
0001e0 1b 8e 56 bd f7 cf 8e 3f 7e d4 ca 3c de d3 3a bf
       -0.052381616 1.1157216 0.024759527 -0.72979534
0001f0 0d 11 37 bc 19 a6 d6 3d 2d 20 ef bd d8 06 b1 be
       -0.011173499 0.10480899 -0.11676059 -0.34575534
000200 3d 3f 19 3f 88 80 83 be a7 aa 26 3e 21 ed 3e 3f
       0.5986212 -0.25684 0.16276036 0.7458058
000210 00 63 b3 3e 09 74 5c 3e 35 95 98 3d a4 92 a7 bf
       0.35036469 0.21528639 0.07450334 -1.3091626
000220 be 29 98 3e 34 39 f4 3c 46 58 e0 be 18 2b 85 bf
       0.29719347 0.029812433 -0.43817347 -1.0403776
000230 81 33 d7 3e 22 83 d1 3e 38 ca 8a be 56 56 2d be
       0.42031482 0.4092036 -0.27107406 -0.16927466
000240 4c 6a d1 3e e9 b6 79 bf 41 9d 0a bf 27 8f 0b 3f
       0.4090141 -0.97544724 -0.541462 0.5451531
000250 94 8d 26 3f 83 49 c4 3e 10 4f 91 3e 81 17 38 3e
       0.6505978 0.38337335 0.28380632 0.17977716
000260 08 21 4b bf 82 35 b4 bc cc 88 d6 3e cb 6a 7b be
       -0.79347277 -0.02199817 0.41901243 -0.24552457
000270 4d 7d 1e 3f 83 58 7b 3e 45 69 80 bd 27 f1 8f 3c
       0.61909944 0.24545483 -0.062700786 0.017571045
000280 13 16 2b 3f d0 44 4f bf de fa 07 bf 05 40 12 be
       0.6683056 -0.80964375 -0.5311717 -0.14282234
000290 f3 cf 0b be b4 2d 16 bf 96 98 61 be b8 c0 9d bf
       -0.13653545 -0.5866349 -0.22030863 -1.2324438
0002a0 cb 9b e8 bd e3 1d 97 3e 3d ce 83 bd ec 0b d6 bd
       -0.1135784 0.2951499 -0.06435821 -0.10451493
0002b0 ae d3 2b bf db 10 19 3f 7e 17 d5 3d ff 3b 8d bd
       -0.6711987 0.59791344 0.104048714 -0.06896209
0002c0 6f 19 f4 be 27 d2 39 3e 06 40 ee 3d b7 d9 cb bd
       -0.47675654 0.18146573 0.11633305 -0.09953635
0002d0 99 0d 49 be cd c1 64 bc 2d a1 8e be 31 57 b0 3e
       -0.19634093 -0.013962221 -0.27857342 0.34441522
0002e0 26 aa 3c 3f da ab 56 3e 9c d3 05 3f 70 f4 9a 3e
       0.73697126 0.20963994 0.52276015 0.30264616
0002f0 11 8f d4 be b7 99 1f bf a1 4b c2 be 76 10 6a be
       -0.415154 -0.62343925 -0.37948325 -0.22857842
000300 cc 2b f5 be e4 e2 a8 3e ae 2c ab bf a2 e5 ce be
       -0.47884977 0.32985604 -1.337301 -0.4040957
000310 94 26 96 be 4a cd 2f 3f 02 10 3c 3f db 93 08 3f
       -0.29326308 0.6867262 0.73461926 0.5335061
000320 2b af eb be b7 4d ba be 2a 31 0e be 7d 21 7b bf
       -0.4603208 -0.36387417 -0.13885942 -0.98097974
000330 6e 74 2c be c9 5b 68 be 1b 02 84 be 1b b0 bb be
       -0.1684129 -0.22691263 -0.25782856 -0.36657795
000340 f8 b0 ad 3e ee 2d 2e 3f 7e 30 a2 3e 91 49 74 3c
       0.3392408 0.68038833 0.31677622 0.014910118
000350 42 3a ca 3d 40 da 81 bd f4 93 67 3e 9b 79 97 3e
       0.09874393 -0.06340456 0.22615033 0.29584965
000360 c7 af 7d bd b8 e4 6e bd 7a 3d a6 3e d1 31 85 3d
       -0.061935212 -0.058323592 0.32468778 0.06503642
000370 91 53 9c bc 11 6b e8 bc 72 7d ee bd ea 17 b2 bf
       -0.019082816 -0.028371366 -0.116450205 -1.3913548
000380 be 85 99 be aa d7 9a 3e 5c 82 85 3e 02 2b ea be
       -0.2998485 0.30242664 0.2607602 -0.45735937
000390 81 50 0d 3d c7 15 e5 bd a5 63 1d 3f 7d f6 0d 3d
       0.034500603 -0.11185794 0.6148017 0.034658898
0003a0 58 5e 93 3d 33 86 7e be e2 47 71 3d b6 62 9a be
       0.07195729 -0.2485588 0.058906443 -0.30153435
0003b0 af 0e 3e bf a9 5c 75 bd 90 31 67 3d 37 c9 6e be
       -0.74241155 -0.05990282 0.05644375 -0.23318945
0003c0 b4 51 00 bf d6 d0 05 be 9e 99 86 3e 38 2e e5 3d
       -0.5012467 -0.13067946 0.26289076 0.11190456
0003d0 78 d9 cb 3e 44 d4 02 bf cc d7 e7 be e3 23 76 bf
       0.39814353 -0.5110514 -0.45281827 -0.9614851
0003e0 4e c4 2c bf 11 8c 64 3f 97 e6 80 3f 33 b0 a2 3f
       -0.6748704 0.89276224 1.007037 1.2710022
0003f0 73 04 18 3e cc 66 a6 3e 4a 6e 75 3e 06 cc de be
       0.14845447 0.32500303 0.23967853 -0.43515033

bias f4 [120]
000000 d3 be f0 3d 2c 8d f9 3d be 66 60 3d 30 bb 61 3e
       0.11755147 0.121851295 0.054785483 0.22044063
000010 ae 44 68 3e d0 de 34 3c f1 98 1d be 64 cb 3b 3d
       0.22682449 0.011039451 -0.15390374 0.045848265
000020 89 f7 43 3e 43 8c 74 3e c7 1e 0c bc 2a 5f 14 be
       0.19137396 0.2388163 -0.00855226 -0.14489427
000030 36 9e b3 3e be c9 9e bc 22 bb 8c 3e 27 44 79 3e
       0.35081643 -0.019383308 0.2748652 0.24342404
000040 ad d4 58 3e c9 b7 42 3d 32 42 2e 3e 33 89 8c be
       0.2117488 0.047538552 0.17017439 -0.27448425
000050 84 66 78 3d 21 b7 0a 3e 11 64 87 3e 68 92 bc bb
       0.06064464 0.1354642 0.26443532 -0.0057547577
000060 6d 17 f3 3d d8 96 88 bd f5 0a fb bd 1e a7 7b 3e
       0.118697025 -0.06669396 -0.12257949 0.24575469
000070 63 2a 07 3e 09 16 24 3e a1 23 4f 3c dd d2 f4 bc
       0.13199763 0.1602403 0.012642772 -0.029885704
000080 10 bb 53 bd 55 51 30 bd b0 06 58 be bd 90 83 3d
       -0.05169207 -0.043046314 -0.21096301 0.06424091
000090 78 0a 5c 3e 98 1c e3 3d e0 ca 85 3e 32 7a 38 3e
       0.21488369 0.11089438 0.26131344 0.18015364
0000a0 d0 26 83 3e 60 81 46 be 0f 35 00 be 8a 4e 46 3e
       0.2561555 -0.1938529 -0.1252024 0.19365898
0000b0 3d 4a 58 3e c3 9d 0b 3e 86 cd 81 3e 7a ed 61 3e
       0.2112207 0.136344 0.25352114 0.22063246
0000c0 f6 91 22 be 70 0c 73 be a9 16 58 3e 19 d7 21 3e
       -0.15875992 -0.23735213 0.21102394 0.1580471
0000d0 ab 94 81 be 9b c4 47 3e 1b 0e 0b 3e 56 fa 02 3e
       -0.25308737 0.19508593 0.135796 0.12790808
0000e0 93 29 f7 bc 97 95 0c 3e 24 df 2a 3d 61 ae 2a 3e
       -0.030171191 0.13728939 0.04171671 0.16668083
0000f0 78 df 27 3e ed 54 ff 3d c3 0e b1 bd c2 01 83 3d
       0.1639384 0.1246737 -0.08645394 0.0639682
000100 8b 87 8d 3e a6 66 49 be e9 f6 a5 3e 3e a7 5c be
       0.27642474 -0.19668064 0.3241494 -0.21548173
000110 27 84 82 3e 08 02 0d be d2 f2 af bd ae 1c 86 be
       0.2549145 -0.13770306 -0.08591236 -0.26193756
000120 20 6f 38 3e 23 cb 86 3e 40 5d 6f 3e a2 ad 1e bd
       0.18011141 0.26326856 0.23375416 -0.038739808
000130 99 50 1e be b9 c1 b3 3c a7 a7 85 bd 7f a9 81 3e
       -0.15460433 0.02194296 -0.06526118 0.25324628
000140 53 f4 f9 3c 2a b8 b1 be 18 00 69 3d 35 71 98 3e
       0.03051201 -0.3471082 0.056884855 0.2977387
000150 8e 29 7b 3d 9a 82 5c be 88 77 87 be 43 3b f9 3d
       0.061318927 -0.21534196 -0.26458383 0.121695064
000160 03 8f b7 bd 8a 95 4c 3e 99 cb 06 bd e6 ba 67 be
       -0.08962824 0.1997892 -0.03290901 -0.2262989
000170 99 71 4c be 1d ca ba 3c 06 56 0e 3d 14 a7 62 3e
       -0.19965209 0.022801453 0.034750007 0.22134048
000180 c3 1e 3e be 9a 0e 97 3d cf 0a 24 be 7e bb 6a 3e
       -0.18566422 0.07375832 -0.16019748 0.22923085
000190 56 20 4a 3e fe 4d 34 3e 59 e8 38 3e 01 7c 24 3e
       0.19738898 0.17607877 0.18057384 0.16062929
0001a0 73 50 a4 3e e2 69 68 3e 6a e7 3b be 3f 3e 05 bc
       0.32092628 0.22696641 -0.18349996 -0.008132516
0001b0 5a 2a 1c 3d 70 6a 21 bd 60 04 d0 3d 52 8e 1e bd
       0.038126327 -0.039408147 0.101570845 -0.038709946
0001c0 09 eb 87 3d 62 c4 96 bd 9c 68 33 3e d4 70 3a bd
       0.06636626 -0.07361676 0.17520374 -0.045517758
0001d0 12 4c 70 3e 24 8b 07 bf 6f 73 33 3e dd 2e 4a be
       0.23466519 -0.52946687 0.17524503 -0.1974444

weight f4 [120, 120]
000000 a0 4b ba be 80 de 69 3e 60 95 70 3e 55 96 38 bd
       -0.36385822 0.22838783 0.23494482 -0.045065243
000010 2b 01 92 bd 89 85 84 3e a1 39 0c 3e 48 6a 75 3d
       -0.07129129 0.2588313 0.13693859 0.05991581
000020 b7 f1 52 bd f3 f2 83 3e 93 6e 6c 3e a6 c5 b1 be
       -0.05150005 0.25771293 0.23089056 -0.34721106
000030 ed 7a 12 bb 99 0a 98 be 9e ce e4 3d 72 9c 0e 3e
       -0.0022351102 -0.29695585 0.111722216 0.13926867
000040 d5 ca 2c 3e 62 5a ce 3c cf 46 fb 3d 27 db fc 3e
       0.1687425 0.025189582 0.12269365 0.4938595
000050 f6 26 91 bf 74 15 af ba 84 35 1c 3e 97 9e 1d bf
       -1.1340015 -0.0013357834 0.1525479 -0.61570114
000060 b6 09 49 3d 86 a6 f4 3d bb 4b 1d 3c ed f3 24 3d
       0.049081527 0.11945824 0.009600575 0.04027169
000070 0a 58 99 bd d4 77 c4 3e 59 cf 0d 3e 97 aa 23 be
       -0.07487495 0.38372672 0.13848628 -0.15983044
000080 08 52 56 be f0 e9 e3 3d c9 b7 8d bd cb 0b 2d 3f
       -0.2092973 0.111286044 -0.0691982 0.6759612
000090 2d 80 a4 be 94 95 66 3c d8 42 00 3d 35 86 72 bd
       -0.3212904 0.014073748 0.031313747 -0.05921002
0000a0 22 ba 01 bd 48 58 48 3d ad 13 a0 3d f9 1d c6 bb
       -0.03167165 0.048912317 0.07816253 -0.0060460535
0000b0 a4 ee 4f be 12 5e a2 3d 9c e2 f7 3d 41 72 8c 3e
       -0.20305878 0.07928099 0.12103769 0.2743092
0000c0 54 f4 12 3d e8 6b 35 3c 9e 5c c6 39 6b af 06 3d
       0.03587754 0.01107309 0.00037834508 0.032882135
0000d0 e2 f0 a3 bd e5 a9 a3 3d 6e 41 f2 3b ee 1b 58 bc
       -0.08004929 0.07991389 0.0073930537 -0.013190253
0000e0 dc a8 b4 be 02 cb 24 be c7 e8 63 be 84 5e cd b9
       -0.3528508 -0.16093066 -0.22256766 -0.00039171067
0000f0 2e 22 2b be eb 49 32 be da 76 82 3e 7a 3e 7f 3d
       -0.16712257 -0.1741101 0.25481302 0.06231544
000100 de 26 8c bd b1 2b b3 be a6 5c 16 be 10 21 19 3c
       -0.06843351 -0.3499427 -0.1468378 0.009346262
000110 d1 3e 89 bc 20 58 02 3e 65 90 16 bd 9a 5e 43 bd
       -0.016753586 0.1272893 -0.0367588 -0.04769764
000120 93 7b 0a be c9 03 59 3d a6 a3 10 3c 61 7d 9b bd
       -0.13523702 0.052982125 0.008828079 -0.075922735
000130 de 4b ce 3c 15 97 a2 bd 92 dd 80 3f 74 d0 ac 3d
       0.02518266 -0.07938973 1.0067618 0.08438197
000140 6f 08 ac bd a7 f8 27 bd 0f cd 23 3e ac d3 c3 3d
       -0.08400046 -0.041008618 0.15996192 0.095618576
000150 a6 b6 03 be a2 f0 b5 3d c6 1b 9a 3d bf e4 81 be
       -0.12862644 0.08883788 0.075248286 -0.25369832
000160 3b e0 1d bf 3a 08 a9 3d 7c 53 79 3d 00 2d b9 bf
       -0.61670274 0.08253522 0.060870633 -1.4466858
000170 5a f7 8c 3d 69 de cc bd a6 6f 4e 3e 73 48 84 3c
       0.06883116 -0.10003359 0.20159778 0.016147828
000180 2d f6 9a 3d 57 f3 32 3f fe 0e 91 bd 7d 5d 0a 3e
       0.075664856 0.6990256 -0.07082938 0.13512225
000190 16 42 66 3d dc b7 9d bd e5 d6 27 3e 4b 6b a9 3a
       0.05621537 -0.07701084 0.1639057 0.0012925653
0001a0 11 4d 2f 3e 29 ce 2a 3d 8c 80 b1 3c 4d bf 8b 3d
       0.17119242 0.041700516 0.021667741 0.06823597
0001b0 34 a2 a7 bd e9 c2 ed 3e e5 b4 e0 3d e1 4c 09 3e
       -0.08185235 0.46437767 0.10972003 0.13408233
0001c0 06 ca cd 3d 8b 65 65 be 6f 7e f4 3d 2c 65 8e be
       0.100482985 -0.22402017 0.11938178 -0.27811563
0001d0 fd 40 a3 bd 55 2c 21 40 da 31 b5 3d 40 84 18 3d
       -0.0797138 2.5183308 0.08847399 0.0372355
0001e0 cd 94 c6 3d f2 70 c2 be 9b 6d 9b bd c1 8a 12 3d
       0.0969635 -0.37976795 -0.07589265 0.035776857
0001f0 ae 41 11 3d 85 fc 35 3e 16 1f 87 be c1 b6 ca bc
       0.035463028 0.1777211 -0.26390904 -0.024745347
000200 da fe 56 be 4f 46 b1 bd 61 26 d8 be f9 2e 2c be
       -0.20995656 -0.086559884 -0.4221678 -0.16814794
000210 15 a2 1b be 59 7d 12 bf 27 d9 90 be 15 af d8 bd
       -0.15198548 -0.57222515 -0.28290674 -0.10580269
000220 7f 6a a2 3d da dd 53 be 90 4f 55 bd 8c d5 65 3f
       0.07930469 -0.20690098 -0.05207783 0.8977897
000230 2a 85 af 3e 68 85 4f bd e4 4e ca 3d 07 79 d6 3d
       0.34281284 -0.050664335 0.098783284 0.10472303
000240 38 26 71 3e 2b ed 8f be f0 89 b9 be 2e 8a 6c bd
       0.23549736 -0.28110632 -0.3623805 -0.057748966
000250 23 6a 9b 3d a0 dc dc 3e 89 b6 c7 3b 56 aa 86 3e
       0.07588603 0.43137074 0.006094758 0.2630183
000260 18 9a 79 3f 21 ac ce 3e 67 1f b2 bd ff 6f 20 bf
       0.97500753 0.403657 -0.08697396 -0.6267089
000270 e9 39 c9 3c 30 8d dc 3e 4c 7a 55 3d f0 ba 3c bf
       0.024563747 0.43076468 0.052118585 -0.73722744
000280 8c 70 3b bd 42 4e a8 3d bc a9 07 bf b4 c3 93 3d
       -0.04576163 0.082180515 -0.5299337 0.07215062
000290 f4 8e 5f bc 77 cd 8e 3e c1 f5 b8 bc 6c 77 16 3e
       -0.0136449225 0.27891132 -0.022578122 0.14693993
0002a0 14 42 0c bd 88 68 60 bc 07 c9 98 3d ed 13 a9 3d
       -0.034242705 -0.013696797 0.07460218 0.08255754
0002b0 a8 38 d3 bc 4c 5f 31 bd 8e 37 8c 3e 12 4f 18 3e
       -0.025783852 -0.043303773 0.27386135 0.14873913
0002c0 c3 c1 e3 bd 9a 5c 7a 39 ba 98 b5 3e 1b 62 87 3c
       -0.111209415 0.00023876355 0.35468084 0.016526273
0002d0 33 15 0a be 49 90 ed bd 22 0c ba be 51 2f d0 be
       -0.1348465 -0.11599786 -0.36337382 -0.406611
0002e0 79 f6 85 3c 1b 25 fe bd b0 22 83 bd 88 fe c4 3c
       0.016352879 -0.12409421 -0.064031005 0.024047151
0002f0 6b be 93 3d 53 9e 16 3e 39 7e 29 3f 32 5b f6 bc
       0.07214054 0.14708833 0.66208225 -0.030072782
000300 71 f3 17 be aa 98 02 3d a5 11 46 be 97 7f 60 3d
       -0.1483896 0.031883873 -0.19342668 0.05480918
000310 7e da 4f be 2f 42 7e 3e 0b eb 5d be 8b be 34 3d
       -0.20298192 0.24829935 -0.21671693 0.04412703
000320 52 a0 e5 be 95 a5 35 c0 7e 26 b1 3d 92 fe 5e bd
       -0.44848877 -2.8382313 0.0864992 -0.054441996
000330 cd 4f 04 3d 7c 86 64 3d 80 62 0c 3d 7a 61 a0 bc
       0.032302666 0.055792317 0.034273624 -0.01957773
000340 cb e0 9a 3e f3 72 b4 bc 7e d6 db 3e 97 ac a2 be
       0.30249628 -0.022027468 0.42937082 -0.317723
000350 32 04 05 bc 30 8a 90 be 89 96 55 3e 87 8c 28 3c
       -0.008118676 -0.2823043 0.20858206 0.010287411
000360 ef 3b 49 3f 90 dd 84 3b 93 3c c8 bc b5 10 c9 3d
       0.78607076 0.0040547326 -0.024442947 0.0981764
000370 ca 32 fc 3d 5d 70 31 be ee 04 af bc 9b a9 40 3e
       0.12314375 -0.1732802 -0.021364655 0.188147
000380 c1 f5 33 bd 78 3d 55 bd a6 e5 31 3e dc a6 a1 be
       -0.04393554 -0.052060574 0.1737276 -0.31572616
000390 4c 3f fd bd 50 f9 c1 be c6 2b a6 bd da d0 a6 be
       -0.123655885 -0.37885523 -0.08113818 -0.32581216
0003a0 3e 1b 64 be b6 06 b1 3d 0b c0 73 3c 53 59 ad 3f
       -0.22276017 0.08643858 0.01487733 1.3542885
0003b0 a7 77 97 bc 64 44 cc bd a2 0b 71 3e d0 5d 5f be
       -0.018489672 -0.09973982 0.23539594 -0.2181313
0003c0 54 03 55 be 74 40 f7 3e 06 84 c7 3e f8 37 b4 bd
       -0.20802051 0.4829136 0.38967913 -0.08799738
0003d0 6f 9b 14 3d 26 76 3f 3f 6b 4c f2 3e 36 2a 80 3f
       0.036281046 0.74789655 0.47323927 1.0012882
0003e0 17 9b e5 bd 8e 32 a6 3d 02 c0 e0 bf 8e ad 9a 3f
       -0.11211222 0.08115111 -1.7558596 1.2084215
0003f0 3b 18 ab 3e 7a 33 e7 3e f7 49 d3 3d e8 96 4d bc
       0.33416924 0.4515646 0.10316842 -0.012548186

bias f4 [120]
000000 f6 1b 64 39 3f 9a 5d bc 89 ce f9 3c 13 be 0b bd
       0.0002175419 -0.013525545 0.030493991 -0.034116816
000010 4b 9e 74 3d 52 84 e6 bb 9c a7 c0 3c b9 b6 64 3c
       0.059721272 -0.007034817 0.023517422 0.01395958
000020 50 df 16 3e 35 93 3e bd ef 0c f0 3c 0c 8b 31 bc
       0.14733624 -0.046527106 0.029303042 -0.010836374
000030 e6 99 95 3d 2a 4b ed bc fc da 30 3d bb c0 ac 3d
       0.073047444 -0.028966505 0.04317759 0.08435198
000040 61 67 57 3d 56 fd bb bb 4e 1f 3d bb 82 6d e1 bc
       0.052588824 -0.005736987 -0.002885777 -0.027518038
000050 7a 37 55 3c 5f de 4e 3d c9 67 c9 bb 81 9c ab bd
       0.013013715 0.05050504 -0.0061464054 -0.0837946
000060 bd e0 58 3d ba a8 db 3d f0 f3 10 3b d1 dd 99 3c
       0.052948702 0.107255414 0.0022118054 0.018782528
000070 a6 07 84 3c 8e 4a c9 bd 75 a3 46 3c ee d1 6d bb
       0.016116928 -0.09828673 0.012123932 -0.0036288458
000080 0c ef 77 3d b8 33 89 bc c1 f9 6f bc 37 5b 63 3d
       0.060530707 -0.016748294 -0.014646948 0.05550691
000090 0f 68 a6 bc 83 51 0b 3d 56 93 9f 3d 2e bd 6c bd
       -0.02031329 0.034013283 0.07791774 -0.057797603
0000a0 fd 20 f4 bb 6f 62 41 bd 2b 91 8c bc 32 d9 4f bc
       -0.0074502216 -0.047213014 -0.017159065 -0.012686061
0000b0 f9 d0 5d 3d b5 e3 80 3d 38 c1 e3 bc ec b7 c7 3d
       0.05415437 0.06293432 -0.027802095 0.09751877
0000c0 bd 47 99 3d 22 a5 ae 3d 70 a4 3b bc 7f cd 55 3d
       0.07484386 0.0852759 -0.011452779 0.05219793
0000d0 63 81 f0 3d 1d 5d 9e bc ba 15 f8 3d a1 d3 34 bd
       0.117434286 -0.01933151 0.12113519 -0.044147138
0000e0 d6 96 a8 bd 00 77 9f 3d a5 29 e0 bc 14 e7 95 bd
       -0.08231895 0.07786369 -0.027363608 -0.07319465
0000f0 65 a6 b7 bd c4 41 27 3d ad f5 8a bd a6 97 9b bc
       -0.08967284 0.040834203 -0.0678514 -0.01899321
000100 cb e3 0b 3d 2b f2 d8 bd a2 8c 29 3d 6a 81 5b 3d
       0.034152787 -0.10593065 0.041393884 0.053590216
000110 c6 06 e7 bc 54 af be bc 66 3b ec 3c dc b4 98 bd
       -0.028201472 -0.023276962 0.028836917 -0.07456371
000120 cf c9 8b bd e0 60 1d bd c3 6e dc 3d 1e 52 82 bc
       -0.06825601 -0.038422465 0.107633136 -0.015908297
000130 47 1d 1e 3a 0a d2 8e bd b9 ac 6e 3d 54 35 96 3d
       0.00060315843 -0.069736555 0.05827019 0.0733439
000140 30 6a c2 bb 8e a8 93 3d 4b 48 01 3e 3a 11 45 bd
       -0.0059330687 0.07209884 0.12625234 -0.04811213
000150 32 78 70 bd 8c 0a 01 bd 79 66 ff 3c d3 ef b8 ba
       -0.058708377 -0.0315042 0.031176792 -0.0014109559
000160 5f 47 0e 3e cd 9e f4 3c 8d 44 77 3d ef 3b c9 3d
       0.13894413 0.029860878 0.06036811 0.098258846
000170 87 f7 ef 3d 04 30 9c bd 79 45 2e 3d 2a 9d c1 3b
       0.11717134 -0.07626346 0.042546723 0.005908628
000180 eb b2 dc bc e9 31 ea 3d f6 de 79 3c 11 09 4f 3e
       -0.026940783 0.11435301 0.015250912 0.20218302
000190 0c c3 68 3d ec 93 35 bc 04 f9 65 3c 5d 0a 9c bd
       0.056826636 -0.011082631 0.014036421 -0.07619164
0001a0 18 43 95 bb d0 7f de bd ba f0 4f 3b f9 2d c1 bc
       -0.0045551173 -0.10864222 0.0031729178 -0.023581492
0001b0 d5 98 39 bd 60 72 a0 3c 8e 55 8d bc 34 3d a0 bd
       -0.045311768 0.019585788 -0.01725271 -0.078241736
0001c0 04 67 d1 bd d2 62 ac 3d 43 4d 85 3d bc ca 99 3d
       -0.10224727 0.08417286 0.06508877 0.07509372
0001d0 80 2a cd bd 7e 94 c6 3c 39 a7 c1 bd fb 6e 5a bd
       -0.10017872 0.024240728 -0.09455723 -0.053328495

weight f4 [120, 120]
000000 fc f1 76 3b e5 ef 82 3c 97 9f cc 3e 51 70 ce be
       0.0037680855 0.015983531 0.39965507 -0.40320066
000010 26 ab ad b9 92 23 94 3e 3c b2 e4 3d ac 36 87 3d
       -0.00033124647 0.28933388 0.11166808 0.06602225
000020 e6 00 67 be 40 7c be be 01 56 20 bd 25 a3 0b 3d
       -0.22558936 -0.3720417 -0.03914452 0.034091134
000030 3a 76 44 be 7c f5 0a bc e1 c5 05 3f 0e 3e 2c bd
       -0.19185725 -0.00848138 0.52255064 -0.042051367
000040 c7 80 e7 3e fa 5c 01 3f 44 17 80 bd 69 e7 8a be
       0.45215437 0.50532496 -0.062544376 -0.27129677
000050 dc e9 bb bc 44 00 8d bb 43 4a 5a bd b8 df 69 bd
       -0.022938661 -0.00430301 -0.053293478 -0.05709812
000060 5c f3 86 3c ee 80 14 3e ae c3 fc bd e3 38 80 bd
       0.016473465 0.14502308 -0.123420104 -0.0626085
000070 cf ed 0a 3e da b7 b8 3e 45 d9 13 be 74 44 ba bd
       0.1356728 0.36077768 -0.1443835 -0.09095088
000080 04 a5 a6 3d c0 a9 f7 3a 3d d8 8e 3d 83 9d 1d 3d
       0.08136943 0.0018895194 0.06974838 0.038480293
000090 6f 93 3c bd 81 f8 96 3e 5f 4a 82 bd de 6a 45 bc
       -0.04603904 0.29486468 -0.063618414 -0.012049405
0000a0 c6 99 f7 bd 57 12 91 bd b3 0a 3c 3d d7 7a cf 3d
       -0.12089877 -0.07083576 0.04590864 0.10130852
0000b0 fc be 12 3d 97 bd 73 3d 65 cc 31 bd dc ff 0d be
       0.03582667 0.05950698 -0.043407816 -0.13867134
0000c0 16 bc cb 3c 26 f8 6c 3d 97 0f be 3c 9b ca fe 3e
       0.02486996 0.05785384 0.023200793 0.4976395
0000d0 8a ca a2 be 62 49 08 c0 1b d2 b6 3d 21 53 92 3d
       -0.3179515 -2.129479 0.08926793 0.07144762
0000e0 2f da 14 bd 87 d4 35 3e b6 c5 23 3d 2d aa 39 3d
       -0.03634089 0.17756854 0.039983474 0.045328308
0000f0 5d 15 7c 3d 10 7d 97 be 84 b3 fd 3c 29 b8 44 3e
       0.06154381 -0.29587603 0.030969389 0.19210877
000100 d3 a7 14 bc a9 76 2b 3d ec 11 3e be 5f c4 d8 bc
       -0.009073216 0.04186121 -0.18561524 -0.026460825
000110 2d ef 4f 3d 16 f7 94 bc 1f 16 bb bc 80 bc 70 3b
       0.050765205 -0.018184226 -0.022837697 0.0036733449
000120 cf 38 ba 3b 5f d1 9c bd eb c4 f5 3b b7 b6 01 3e
       0.0056830416 -0.07657122 0.007500281 0.12667356
000130 76 80 05 be 1b 64 7e 3c b3 93 14 be 97 a8 70 bd
       -0.13037285 0.015526797 -0.14509468 -0.05875453
000140 40 37 29 3c 99 fd c5 3d 8d ac 6c 3d a6 9b bd be
       0.010328114 0.096675105 0.057781745 -0.37032813
000150 4f 60 53 3e 39 58 a9 bd 37 11 c0 3c f7 f2 6f bc
       0.20642208 -0.0826878 0.023445709 -0.01464533
000160 64 d6 19 be 6a 4e 81 bd 7c ad 3a bd dd 11 a5 3d
       -0.1502319 -0.063137844 -0.045575604 0.08060048
000170 27 fa e7 3d 2c 21 94 3d 59 35 c8 bb 1c ac f1 bc
       0.1132701 0.072328895 -0.006109875 -0.029501013
000180 5b 31 52 bd 82 bf 87 be 65 ab 08 3f 76 5b ed be
       -0.0513166 -0.26513296 0.5338653 -0.46358842
000190 3b 6d 8b bd c6 e5 6a bd 2d 3d 3c be cd 0c 8c bd
       -0.068079434 -0.057348035 -0.18382712 -0.06838379
0001a0 8c 7a 62 3e 26 92 77 3d 37 12 1c 3d 43 a8 31 3e
       0.2211706 0.060442112 0.03810331 0.17349343
0001b0 3d 5f 93 3e f4 59 18 be 64 94 91 3d 66 08 81 bd
       0.287836 -0.14878064 0.071083814 -0.0630043
0001c0 33 8b 23 bc 1b 73 a5 bd 61 06 fc bd 65 94 38 be
       -0.009981918 -0.08078595 -0.12305904 -0.18025358
0001d0 ce fb f8 3c 8a be 0f 3e ee 88 52 bd e5 66 c0 bd
       0.030393507 0.14037529 -0.051400118 -0.093946256
0001e0 99 1b 26 3e 6b e2 c8 3e f6 e4 d5 bd d6 b9 60 3d
       0.16221465 0.39235243 -0.104440615 0.054864727
0001f0 75 44 14 3d cd 73 7c 3d 41 aa 82 bc 9c 47 fb 3d
       0.0361981 0.061633874 -0.015950324 0.12269518
000200 b0 b0 5b 3c b1 ff 18 bd 03 25 c7 bd e1 a0 64 3d
       0.013408825 -0.03735322 -0.09723856 0.05581749
000210 dc f8 5a 3e 8c 08 54 bd fc b2 ea 3d 4b eb 44 bd
       0.21383995 -0.051765963 0.1145992 -0.048075955
000220 86 2f 63 3e 7f f7 0f be 55 6e f0 bb 82 76 bf be
       0.22186098 -0.14059256 -0.0073373714 -0.37395102
000230 c6 87 2f be fd 47 39 3d e8 f3 b9 bd 23 9a 67 3c
       -0.17141637 0.04523467 -0.090797246 0.01413587
000240 96 ba e6 3d 85 13 87 3c 60 ae 40 3d ba 3c ab bd
       0.11266057 0.0164888 0.047041297 -0.08361192
000250 79 9b 5a bd 9c b8 e8 bf b5 67 a9 3d 49 9d 1b 3d
       -0.053370927 -1.8181338 0.08271734 0.037991796
000260 c4 17 f1 bc 88 52 bf bc 09 f0 81 be f5 7b c8 bd
       -0.029430278 -0.023354784 -0.25378445 -0.09789268
000270 b3 e2 48 bd 18 18 c6 be 26 ee 4d 3d b5 fb 7c bd
       -0.049044322 -0.38690257 0.050275944 -0.061763484
000280 e8 63 33 3d ff d7 a6 bc 0c ae 7e bd f5 5b 12 be
       0.04379645 -0.020366667 -0.062177703 -0.14292891
000290 b0 f4 a6 3b c0 03 72 bd b0 c5 a1 bc 83 40 7f 3d
       0.005095087 -0.059085608 -0.019747585 0.062317383
0002a0 f9 19 65 3d 45 a0 ce be 97 be 53 bd 23 5e 87 3d
       0.055932973 -0.4035665 -0.051695433 0.06609752
0002b0 98 79 73 be 95 d0 80 be 34 ba c5 3d 48 64 8b 3d
       -0.23776853 -0.25159135 0.09654656 0.068062365
0002c0 09 3a 18 be 3d dc 80 bd f1 40 91 bd b4 05 1f 3c
       -0.14865889 -0.06292007 -0.07092465 0.00970595
0002d0 f3 e7 3a 3d 23 71 dc bc d1 e1 13 3d 96 95 d9 3c
       0.04563136 -0.026909417 0.036104027 0.026560586
0002e0 17 57 96 bc 5a 1d 34 3c fe 9e 5f be 5c 9f 14 3e
       -0.018352075 0.010993326 -0.21837994 0.14513916
0002f0 53 3f 1a 3e bd 8b 98 bd cc 50 83 3d 38 42 32 3d
       0.15063219 -0.07448528 0.06411895 0.043520182
000300 df a7 b2 3d df 86 8b bd 31 51 18 be 61 c5 eb 3d
       0.08723425 -0.06812834 -0.14874722 0.115122564
000310 04 11 17 be 44 7f 54 bd b6 f1 1c 3e a4 d6 49 3d
       -0.14752585 -0.051879182 0.1532658 0.049276963
000320 32 fa a8 be 87 28 e4 3c 8d 8c 49 3e 1e 17 66 be
       -0.33003384 0.027851356 0.19682522 -0.22469756
000330 79 db 30 3d fd c5 d5 3c 12 2c 93 3d 40 85 78 bd
       0.043178055 0.026095385 0.0718614 -0.060673952
000340 cb b1 11 be ba 85 30 be 8b d5 b2 bd 7e 75 1a be
       -0.14227979 -0.17238513 -0.08732136 -0.15083882
000350 32 1c 87 be 6e b6 5f 3d 68 b7 55 bd 6d d5 82 3d
       -0.263887 0.054617338 -0.052176863 0.06388364
000360 10 50 68 bc 06 8d 69 bc 80 73 9d bd 57 64 a9 be
       -0.014179245 -0.014254814 -0.076880455 -0.33084366
000370 71 aa 01 3e db 88 25 3e 6a 76 d3 bc 0e 82 08 bd
       0.12662674 0.16165487 -0.0258133 -0.033327155
000380 b0 80 e9 bd 66 31 97 bd b2 4b d6 3c 27 0e 4f 3d
       -0.11401498 -0.07382469 0.026159141 0.050550606
000390 87 b9 c9 3c 43 15 5b 3e 75 7d 6e 3d 13 6e bc 3d
       0.0246246 0.2139483 0.058225114 0.092006825
0003a0 f6 9b b7 bb f4 14 74 bc 22 3b b8 bd f6 e6 2f 3e
       -0.005603309 -0.014897574 -0.08995654 0.17177948
0003b0 dd e4 ca bd ff 38 7d bd 09 79 73 3a df b2 dd bc
       -0.099069335 -0.061821934 0.000928775 -0.027062831
0003c0 9c f6 87 3d 0d 1a 9c 3d 8e b8 0b 3e ea b3 1b be
       0.06638834 0.07622156 0.13644621 -0.1520535
0003d0 2e a0 c5 3d 07 ee 6d be 91 58 71 3e 9a 6e d2 bd
       0.096496925 -0.23235331 0.23568942 -0.10275002
0003e0 01 10 81 bd a9 87 23 3c 06 b2 72 3c c1 7e 9a 3d
       -0.06301881 0.009981074 0.014812952 0.07543708
0003f0 2f dd 90 3d fa bf 0c be f7 13 f7 3d 97 5a c7 3d
       0.070734374 -0.13745108 0.12064355 0.097340755

bias f4 [120]
000000 7a 0f 81 3d 02 79 0f bd f9 04 6f bd b2 e3 24 3b
       0.0630178 -0.03502751 -0.05835435 0.002516013
000010 34 af 67 3c f9 3c 81 3c c7 f4 6f 3d 2a 3c 52 bd
       0.014140893 0.015776144 0.058583047 -0.05132691
000020 f7 46 98 3d b1 f8 a6 3b 69 83 33 bd e2 d3 e7 bd
       0.074354105 0.0050955643 -0.043826494 -0.1131971
000030 78 63 4f bc 3e 11 95 3d ad 02 35 bc 26 0b 9c 3c
       -0.012657993 0.07278679 -0.011048001 0.019048285
000040 d8 4e 6b bd f0 9c af bd 5e 6e a1 3c e3 1b 40 bd
       -0.057448238 -0.08574855 0.019705947 -0.046901595
000050 96 c7 80 3d 10 0c 97 bc 88 f9 05 bc 71 fe 00 bd
       0.06288068 -0.018438369 -0.008177169 -0.031492654
000060 c0 63 9a bd e8 24 b6 3c a8 04 14 3d b3 8b c0 3d
       -0.07538557 0.022234395 0.036137253 0.094016455
000070 24 a8 2f bc 59 85 64 bd f0 e0 22 bd 31 e1 ae bc
       -0.01072124 -0.055791233 -0.0397653 -0.021347614
000080 07 9e 7f 3d f9 16 c2 bd 5d 0f 89 3d ba 43 68 3d
       0.062406566 -0.09477038 0.066923834 0.056705214
000090 73 d7 3d bd d4 04 6d 3d 7f e7 6e bd 90 c4 35 bd
       -0.046348047 0.057865933 -0.05832624 -0.04437691
0000a0 fa 6a a9 bd b1 cd 90 bd ae b2 1e bc 87 c9 5f bd
       -0.08272357 -0.070704825 -0.009686155 -0.05463555
0000b0 4b 49 15 bd 41 09 52 bd 8e ed c1 3c 80 d7 7d 39
       -0.03644685 -0.051278356 0.023672845 0.0002420824
0000c0 00 32 36 bd 5c a8 0e be 93 1e 97 bd f7 1f ae bc
       -0.044481277 -0.13931412 -0.073788784 -0.021255476
0000d0 77 ed 4e bd b5 45 69 3d 30 0e a0 3d 0d d8 f3 3c
       -0.050519433 0.056951243 0.07815206 0.029766107
0000e0 f0 85 9d bd 0b 6b a3 bd 89 c1 5e 3d d8 d5 87 3d
       -0.07691562 -0.07979401 0.05438379 0.06632584
0000f0 82 fb 3f 3d 09 bf b6 bd 26 c8 93 3d d3 5c 88 3c
       0.046870716 -0.08923156 0.0721591 0.016645825
000100 45 d0 a4 bd 7a 3b 2e 3d 70 6a de bc db ec c3 bd
       -0.08047537 0.04253719 -0.027150363 -0.09566661
000110 69 b1 96 bd da 0b df bc 7e d2 12 bd 68 24 e7 3c
       -0.07358057 -0.027227331 -0.035845272 0.028215602
000120 64 fc 6c 3d 5a e3 93 3d d1 18 15 3d 1f f4 64 3c
       0.057857886 0.07221098 0.03640062 0.013974219
000130 95 b7 7c bd f9 b9 13 3d e8 05 a2 bc 0b ed 50 3d
       -0.061698515 0.03606603 -0.019778207 0.05100731
000140 41 80 98 3d 6e d1 04 3d 9f 2d 37 3d 83 8b 9d 3d
       0.074463375 0.03242629 0.044721242 0.076926254
000150 d5 4b 93 3d 72 0d 2b 3d 90 e7 f8 bc c5 3a 03 3d
       0.07192198 0.04176087 -0.030383855 0.03203847
000160 3e 84 e5 bc 77 23 e9 3c 80 17 04 bd 25 65 f6 3c
       -0.02801716 0.028459294 -0.032248974 0.030077526
000170 3a b3 90 3d d8 49 3f 3d c8 83 e4 bb 6f 04 81 3d
       0.07065435 0.046701282 -0.0069737174 0.06299674
000180 be 4d 9a bc 40 fe 1a be 6b 34 73 3d 2e 23 04 3d
       -0.018835898 -0.15136051 0.05937616 0.032260112
000190 18 85 b1 3c 2c 52 94 3d 50 43 51 bd 6a 87 62 bd
       0.02166991 0.072422355 -0.051089585 -0.055304922
0001a0 18 65 b1 bd 52 1c 87 bd 59 1f 9c bd 16 b4 a0 bd
       -0.0866186 -0.065971985 -0.076231666 -0.07846849
0001b0 c0 78 de bd 0b 2a 39 bd 14 70 d3 3c c6 69 b7 bd
       -0.10862875 -0.04520611 0.025810279 -0.089557216
0001c0 b0 ce 58 bd cd 70 3d 3e ae c4 9c bd 7e 55 23 3c
       -0.052931488 0.18500061 -0.07654701 0.009969113
0001d0 52 b3 9c bc 02 56 d3 bc 6c 2e 21 3c 3f 57 db 3c
       -0.019128475 -0.025797848 0.009837728 0.026775

weight f4 [14, 120]
000000 2e 9d 77 3a 8d 9b f2 3d cc 33 14 3e e2 49 11 3e
       0.0009445724 0.11846075 0.14472884 0.1418834
000010 3e f9 ba bd c5 a6 31 3d 30 0c bd 3d 9d 60 8e bd
       -0.091295704 0.043371934 0.0923084 -0.06952021
000020 07 dd d3 3b 30 bb 7b bd 1b 1e 4d bd c9 ad 03 3e
       0.0064655575 -0.061457813 -0.05007754 0.12859263
000030 3e 80 83 bd 4f b9 17 be 1f 6f 08 be d9 72 87 bd
       -0.06420945 -0.14816783 -0.1332364 -0.06613702
000040 77 28 e9 3c bf 7e ef bc 68 cf a3 bd 91 d2 e4 bd
       0.028461678 -0.029235242 -0.07998544 -0.11172975
000050 2f a2 dc 3d 3d a7 59 3a 5a 53 b9 3d 3b f1 c3 3d
       0.107731216 0.00083028135 0.09049101 0.095674954
000060 a1 66 9e 3d 56 90 94 3d f4 be e0 3d 47 96 02 be
       0.07734419 0.072540924 0.109739214 -0.12752639
000070 5b 80 74 bd 02 d5 fb bc ce c5 2b 3e 2e 65 b0 bd
       -0.05969272 -0.030741218 0.16774675 -0.086130485
000080 57 79 ec 3d 59 27 dd 3c 88 3c dc bd da ad cb 3d
       0.11546581 0.026996301 -0.10753733 0.09945269
000090 ce ee 76 bc d5 c1 c0 bd 84 d7 26 bc 9b 32 ee 3d
       -0.015071584 -0.094119705 -0.010183219 0.11630746
0000a0 a7 4f 6a 3d 90 6a 97 bd b7 4d 2b be 20 31 b4 3d
       0.05720487 -0.07393372 -0.16728865 0.08798432
0000b0 f5 14 da bd 96 c4 bd bd ea 94 98 bc 70 87 4d 3d
       -0.106485285 -0.092660114 -0.018625695 0.05017799
0000c0 ce 77 d4 3d 63 ce 08 3e fa e7 18 3d c6 86 f3 3d
       0.103744134 0.1335998 0.037330605 0.1189094
0000d0 f1 f9 97 bd e1 49 6e bd ec 10 94 3c 51 4e 60 bd
       -0.074207194 -0.058175925 0.018074475 -0.05476219
0000e0 07 b9 94 bc 1e 8d e0 3d 47 58 87 bd 57 af a5 bd
       -0.018154634 0.10964416 -0.066086344 -0.08090084
0000f0 f0 2b 0d 3e bb 06 de 3d 53 16 2a 3d 5b 68 05 3e
       0.13786292 0.108411275 0.041525196 0.1302809
000100 74 58 f4 bd b1 fb df 3d c8 76 e4 bd 34 78 95 3d
       -0.119309336 0.10936678 -0.11155468 0.072983176
000110 14 dd 13 3e 30 b0 6b 3d 72 af 53 3d 3d 73 8a bd
       0.14439803 0.057541072 0.05168099 -0.06760261
000120 a9 59 b7 bd d4 7a dd bd dc 18 aa bd e7 1d 87 bc
       -0.08952648 -0.10814443 -0.08305523 -0.01649375
000130 7e 9c d1 3d e3 ff e1 bd de f4 a8 3d da 3a c2 bd
       0.10234927 -0.11035135 0.0824983 -0.09483881
000140 e7 e9 04 be e1 d8 ea 3c 76 a8 39 3d 44 fb a3 3b
       -0.12979852 0.028667869 0.045326672 0.0050043184
000150 7a f7 ac bc d5 87 52 3c b6 ac c2 bd c1 19 af 3c
       -0.0211141 0.012849768 -0.09505598 0.021374585
000160 92 78 b9 3d 48 39 37 3d c7 cb 10 bd a7 39 bb bc
       0.090562 0.044732362 -0.035350587 -0.02285464
000170 86 9f 8f bc 63 6d 03 3e 38 85 37 3c 42 9b c8 bd
       -0.017532121 0.12834696 0.011201195 -0.09795238
000180 14 81 24 3e 14 17 32 bc 56 a5 ec bd 1c 02 02 be
       0.16064864 -0.01086976 -0.11554973 -0.12696117
000190 4b 8b 2a 3d c8 25 55 3c 7d 05 99 3c f6 0d 92 3c
       0.041636746 0.013009496 0.018679375 0.017828923
0001a0 c1 2e 8c bd ad fb 2b be ab b5 13 3e 79 2d 58 3d
       -0.06844855 -0.16795225 0.1442477 0.05277774
0001b0 81 46 07 be ac 48 8d 3d 52 b2 a8 3d 07 a9 b0 bd
       -0.13210489 0.06898627 0.08237137 -0.086259894
0001c0 eb 67 c2 bd 4e 0e 08 3d 68 78 ef 3c 74 38 02 3d
       -0.09492477 0.033216767 0.029232219 0.03179212
0001d0 df 3c d3 bd 5e c9 fe 3d 9b fd ab bd 2d 54 cb 3d
       -0.103143446 0.124407515 -0.08397981 0.09928165
0001e0 7e 43 9c 3d 9b 2a cd bd d3 0a a7 3d f5 7a 0f be
       0.076300606 -0.10017892 0.081563614 -0.14011748
0001f0 a4 ed fc bd aa f5 c1 bc 87 fe 7e 3d ed 19 bc bc
       -0.12350014 -0.023676712 0.062254455 -0.022961581
000200 1a d8 02 be f5 77 d8 bd c3 08 38 bd 01 dc 74 3d
       -0.12777749 -0.10569755 -0.04493023 0.059780125
000210 6e 0a 5d bc d6 5b bc 3d 61 af a1 bc c2 8b 82 3d
       -0.013491256 0.09197204 -0.019736947 0.06374313
000220 59 d4 bc bd b3 d6 25 be 99 b9 21 3d 2b 41 0b 3e
       -0.092201896 -0.16195183 0.03948364 0.13599078
000230 e1 69 39 be d7 fa 0c bd 50 6f 0a be 3e 22 8e 3d
       -0.18106796 -0.034418907 -0.13519025 0.06940125
000240 d3 ee e6 bb 58 be 13 bd 4b 71 83 3d 2e 91 ca 3d
       -0.007047513 -0.036070198 0.06418093 0.09890972
000250 0b e9 df bd f3 89 e1 3d ac 0c a5 3d f8 c6 c9 3d
       -0.10933121 0.1101264 0.080590576 0.098524034
000260 86 23 f5 3d 1a cd 33 3e a3 83 85 3d 5c cd 17 be
       0.11969666 0.17558709 0.06519248 -0.14824432
000270 fd 8b 40 bc 53 bc 04 be 6a 86 43 3e db 9c 6b bd
       -0.011752126 -0.12962465 0.19094244 -0.057522636
000280 e9 65 a9 3d 43 b3 82 3c ac 4e da 3d 09 a1 75 3c
       0.08271391 0.01595462 0.10659537 0.014992007
000290 f0 9b f1 bd 41 98 29 3e 4d 29 ec 3d 97 eb f4 bd
       -0.11797321 0.16561987 0.11531315 -0.11958998
0002a0 13 dc 34 3d 5d f4 83 3d 07 18 cf bd 89 aa cc 3d
       0.04415519 0.06443093 -0.10112005 0.099934645
0002b0 a0 0c f1 3d 0b c3 15 bd 70 0a 49 bd 94 55 04 bc
       0.11769986 -0.03656296 -0.04908222 -0.008077044
0002c0 a3 06 0e bd c6 cc b2 3d bf 52 ea bd 8e 2f 35 bd
       -0.034674298 0.08730464 -0.11441564 -0.044234805
0002d0 85 8e 0c 3d c4 d0 0d be b3 96 0d be 01 43 50 3c
       0.034315605 -0.13849169 -0.13827018 0.0127112875
0002e0 b5 0d c4 bd fb 2d 80 bc 3a ce 97 bd 09 cc 43 3d
       -0.09572927 -0.015646925 -0.074123815 0.047802005
0002f0 89 a9 42 bd f6 4a b4 bc e6 b0 a5 3d df 76 09 3e
       -0.047524963 -0.0220084 0.08090381 0.13424252
000300 8f ea cf bd 76 3e 99 3d 29 e2 22 be a9 21 99 bd
       -0.101521604 0.074826166 -0.15906586 -0.07477123
000310 62 54 2f 3d 3c 6c 90 bd 49 3e a2 3d e4 51 4b 3e
       0.042805083 -0.07051894 0.07922036 0.19855458
000320 56 87 8c 3d 8f 87 92 3d 74 73 0a be 73 c4 dd 3d
       0.06861751 0.07154762 -0.13520604 0.10828485
000330 03 ed 09 be e2 31 85 3d 05 ad f1 3d a0 c6 0f be
       -0.13469319 0.06503655 0.11800579 -0.14040613
000340 75 2e be 3b 55 cc 18 be 99 32 fe 3d a4 0d 3c 3b
       0.005803878 -0.14921696 0.124119945 0.0028694654
000350 6d aa 15 be 57 6b a6 3c 74 9e 81 3d 3d 65 b8 3d
       -0.14615794 0.020314856 0.06329051 0.09003685
000360 9d d2 b6 bd 41 62 12 3d b7 76 12 3e aa 31 37 3e
       -0.0892689 0.035738233 0.14303099 0.17890039
000370 b7 91 8d 3d 30 66 21 be 87 e6 90 3d f8 0c 53 3e
       0.069125585 -0.15761638 0.070752196 0.20610416
000380 86 c6 72 bd 73 40 28 3d c1 81 50 3d 91 14 46 3e
       -0.059271358 0.04107709 0.050904993 0.19343783
000390 ba f6 ea 3d f1 53 36 3d f2 54 29 be 67 12 d7 bd
       0.114728406 0.044513647 -0.1653631 -0.10501557
0003a0 c3 e4 49 bd 79 8b 1f be 49 36 a3 3d 32 94 b8 bd
       -0.04929043 -0.15580548 0.079693384 -0.09012641
0003b0 5f 49 29 3d 9a c8 57 3d a5 68 b5 bc 63 40 b2 ba
       0.041329738 0.052681543 -0.022144625 -0.0013599511
0003c0 dd ba 40 3d fc 68 25 bd 62 5a fe 3a 43 69 db 3d
       0.047053207 -0.040383324 0.0019405598 0.107134365
0003d0 79 6b 49 bd 6f 9f 15 be b7 2c e9 3d 01 cc 03 3e
       -0.04917476 -0.146116 0.11385482 0.1287079
0003e0 cb 89 a6 bd 18 b7 c6 bd 7d 70 a8 bc 73 14 b8 bd
       -0.08131751 -0.09702891 -0.020561451 -0.089882754
0003f0 6a 2e 96 3d e2 0f d0 bd 4d a6 4d 3d d8 87 0c 3e
       0.073330715 -0.101592794 0.050207425 0.13723695

bias f4 [14]
000000 f5 fb 0f 3d 29 82 c2 bb e6 0a a8 3a 4b 94 62 3d
       0.035152394 -0.0059359265 0.0012820631 0.055317204
000010 2d 63 75 bc d7 5b c7 3d 8f 92 1f bd 58 ad 71 3d
       -0.014977259 0.09734314 -0.03895813 0.059003204
000020 f6 99 8c bc 6f 66 a2 bc 3e ba fd bc 2d af a2 3d
       -0.017163258 -0.019824235 -0.030972596 0.079435684
000030 50 c2 ce 3c b2 de 3b bd
       0.02523914 -0.045866676
